lstmv2_weights.pth (torch, 324879 bytes, 11 tensors)

module.linear1.weight f8 [64, 40]
000000 e9 bc 0e 26 0b 2f b9 bf 38 da 88 7f 7e cb aa bf
       -0.09837407759799856 -0.052333787029443746
000010 83 9f 2d eb 00 ed a3 bf fd fb a0 cd d0 26 c7 bf
       -0.03891756888225386 -0.18087205925436925
000020 de ad fe 75 92 e2 45 3f 05 79 e3 a3 e2 b4 c5 bf
       0.000667878641242788 -0.1695826816784988
000030 36 02 eb f2 b6 14 8a bf a9 90 99 92 e8 25 b4 bf
       -0.01273482254816925 -0.07870343760584099
000040 c3 65 1e 46 5b 0a b9 bf 33 d3 b6 e9 59 05 c6 bf
       -0.09781427823909099 -0.1720383063490317
000050 d1 79 9b 03 46 d9 a4 bf 56 24 1a ff 6d 18 b9 bf
       -0.04072016519579658 -0.0980290172393706
000060 c8 8d 39 5a 80 31 a5 3f c6 86 c9 70 d1 32 b2 bf
       0.04139329053284829 -0.07108792308420239
000070 e6 73 be 39 a7 a4 b7 bf 0e 13 5e 46 1c 96 cc bf
       -0.09235615882648993 -0.22333100734626793
000080 3e 99 10 c7 22 a0 80 3f 46 b5 cf 9d a1 e0 b2 bf
       0.008117934894539599 -0.07374010184112931
000090 8f 92 8f aa e1 c5 ab 3f 92 70 19 57 c5 e4 8a 3f
       0.054244091101087404 0.013131658287584256
0000a0 fe 54 1e f8 78 6b 8a bf 86 88 a9 c6 57 d1 6a 3f
       -0.012900300094580871 0.00327365058665047
0000b0 2e 5c 19 68 ef 58 91 3f 39 be 0f 10 8e be 98 3f
       0.01694082329626328 0.024164409380260408
0000c0 18 2f ce de 7a 9c 9c 3f 10 92 26 73 a3 b0 9e bf
       0.027940673684084677 -0.02997069731067553
0000d0 bc 38 09 5d 56 84 be bf 3c 79 08 d1 8c 17 c2 bf
       -0.11920680781733756 -0.1413436909360345
0000e0 93 31 1a ad 4b c6 a7 3f ae ca ee a2 91 24 b7 bf
       0.046434750443128746 -0.0904017470154865
0000f0 f1 ce 31 72 b0 5d be 3f 50 6c 72 fa 16 06 b2 3f
       0.11861708438828679 0.07040542234828817
000100 c6 f8 b6 0c bc 40 81 3f a1 e8 09 b0 7d 1b cf 3f
       0.00842425264169967 0.24302645774497925
000110 29 c0 0d ad 57 8f b0 3f bc 27 d1 cd 69 1e c1 3f
       0.06468723273224043 0.13374064016016785
000120 19 e9 c7 36 ef 24 b1 3f 20 71 32 b5 67 0a cf 3f
       0.06696982467102365 0.24250503871452
000130 fc f0 4c 49 97 51 c8 bf 33 b3 d8 89 cf 7c 72 3f
       -0.18998995856407663 0.004513560006256512
000140 d3 c2 a1 04 7b 63 a9 3f 8c c4 94 48 fe 1e b8 bf
       0.049587101283469125 -0.09422292015075778
000150 24 e0 ad f5 cd 4d 98 bf 08 6c 35 4f 79 10 e1 bf
       -0.02373430072790951 -0.5332609698338056
000160 56 8a 2f c8 c4 43 bc bf 8b 81 68 00 bc 46 db bf
       -0.11040906798692993 -0.4261922840105618
000170 52 ce 22 9d 0b b2 b0 bf 22 1f 5d 62 c7 b8 e0 bf
       -0.0652167566902844 -0.522556011311256
000180 17 7d e3 77 dd 5e c1 bf 61 b2 d6 a4 b0 25 e2 bf
       -0.13570755342423332 -0.567100831938273
000190 9b 6f c3 6e 27 77 b1 bf 22 4a 54 7c b2 5b d9 bf
       -0.06822439626870251 -0.39622175351647304
0001a0 3b 58 a7 d5 9f 6c b5 bf cf e4 1e bb 8f 6a e1 bf
       -0.08368872610239546 -0.5442579893780478
0001b0 60 3c d9 59 20 63 b6 bf 9e c6 f4 f4 a9 b7 e1 bf
       -0.08745004838532244 -0.5536699089336314
0001c0 6d 6c 5a a5 21 e2 82 bf ba cd f1 c3 00 3d d5 bf
       -0.009220373972587315 -0.3318483270188285
0001d0 c8 7d b7 4b cd 3f a7 3f 54 45 9b 79 21 53 94 3f
       0.04540864514614956 0.019848368689797738
0001e0 5f b6 58 99 de ae b3 bf 22 36 26 bc e8 4c cd 3f
       -0.07688704723178706 0.22890958010650403
0001f0 bb c8 93 8a 9d 3c b3 bf c0 d1 ec 20 0a 30 d0 3f
       -0.07514366753801742 0.25293210234965713
000200 31 31 80 65 7b a0 99 3f 1d 67 5c 9d 76 8d d5 3f
       0.025026252813448117 0.3367592369773876
000210 7a 46 13 08 d2 6a a7 3f d6 db 87 84 50 2a c5 3f
       0.04573685024810188 0.16535383673882958
000220 31 49 8f e8 bf a2 bd bf 8f eb 21 e1 03 2c ca 3f
       -0.1157646124623042 0.2044682359008587
000230 f1 b7 ad 66 75 91 9a 3f ce 14 4a b3 ff 9d b2 3f
       0.025945505516055737 0.07272337081129196
000240 0d 03 7f 27 27 2d c0 3f 9a 5e df a9 2c 69 b4 3f
       0.12637795856974102 0.0797298350074648
000250 9e d2 f4 15 43 d4 be 3f e7 a8 30 f1 24 80 af 3f
       0.12042636190455844 0.06152453846182642
000260 4d b3 a3 28 cf 08 97 3f 7b df 5b ee 85 40 c2 3f
       0.022494541984019723 0.1425940908300126
000270 67 9c d3 8c e9 7b 8b 3f 26 84 4c a5 dc ad af 3f
       0.013419937715708664 0.061873336008155186
000280 3b 3a ee 5b 2d d8 73 3f 90 48 01 e3 c8 50 b9 3f
       0.00484483450317313 0.09888892690767848
000290 76 43 6a 53 4c ed 9c bf ba 89 d6 fc 7c 9d a0 bf
       -0.02824897059560124 -0.03245153986360401
0002a0 fb 22 a1 27 cf d4 79 bf b8 a3 19 ca 7e 15 b9 3f
       -0.006306466291854158 0.09798424181066323
0002b0 dd 65 94 04 71 ee aa bf 8c d3 90 d2 40 78 74 bf
       -0.05260041409401215 -0.004997494900682475
0002c0 d0 7d 19 88 7d 49 ba bf f8 28 c6 c9 f8 9b b6 3f
       -0.1026838738703113 0.08831744123577667
0002d0 8d ed 70 d3 14 80 a3 bf a1 61 c3 5f 5e b2 bf 3f
       -0.03808655816143434 0.12381543958634335
0002e0 72 0e 22 59 24 e9 a1 bf 40 0d f8 85 6b 9d a0 bf
       -0.03498185718583792 -0.032451019385940416
0002f0 a8 2e 67 dd 01 0f 79 bf 1a a1 26 f8 c5 a5 bb 3f
       -0.00611782768687489 0.10799825008746602
000300 08 6c 4d ae 35 a7 c0 3f b6 4d f0 15 86 b0 96 3f
       0.13010283480511498 0.022157759751349558
000310 00 ef 6d df 67 1c cb 3f 12 be 0b d3 e9 30 c5 bf
       0.21180437478675884 -0.16555521779035637
000320 fa 26 92 91 b5 b9 cc 3f fe ba 38 a5 21 30 b7 bf
       0.22441739662126975 -0.09057817729692982
000330 ff 4e b5 45 28 e0 b3 3f c1 58 2a 0d 19 ed b1 bf
       0.07763911916600462 -0.07002407618924435
000340 be fc 5b 13 a5 32 93 bf 98 9c cc 70 c1 64 c4 bf
       -0.018747882181739277 -0.15932481773163398
000350 09 79 a5 84 d3 ff d0 bf d1 bf df 5f 6f cb ae bf
       -0.2656143947005068 -0.06014583630883375
000360 bc ee 05 79 10 29 c8 bf 20 4c 64 bc 6d 9e 8b bf
       -0.18875318440756483 -0.013485772430192056
000370 4f e1 19 91 f3 d2 ca bf 9b 16 e6 2e 68 92 af bf
       -0.20956272683157315 -0.06166387150282767
000380 1a 63 f8 58 90 bf b1 bf 31 80 af 6d c4 ea a1 bf
       -0.06932928249478856 -0.03499425734457907
000390 c1 ff 3d 9e 78 4b a5 bf 66 11 5c a8 de 9f 79 3f
       -0.04159142429034502 0.006255979305710068
0003a0 be e6 0a f9 e0 af cb 3f 7b ce f3 7e fb da c3 3f
       0.21630489502222433 0.155120312679731
0003b0 ac 01 6f 11 54 d7 b7 3f 69 00 f0 d1 e4 eb ca 3f
       0.09312940049767943 0.210323908337162
0003c0 32 a7 af 09 8b a9 b3 bf e0 67 82 ff 05 bb b6 bf
       -0.07680577265241764 -0.08879125106832886
0003d0 d8 38 89 42 f7 aa bc bf fb a9 b2 58 d6 06 97 bf
       -0.11198373197950973 -0.02248701969498688
0003e0 31 3e 80 a4 51 1b 97 bf a6 3b 71 49 37 83 b5 3f
       -0.022565150895444034 0.08403344672227195
0003f0 37 c3 23 bd 41 b6 bc bf e8 c8 7e d9 bf 89 ae 3f
       -0.11215601794880291 0.059644694614137184
000400 4d e1 08 bc 5a 47 bb bf a6 37 f0 99 95 a1 c4 3f
       -0.10655753222170468 0.1611811639453979
000410 d4 08 64 07 26 d0 91 3f a0 5f b7 0e 84 26 91 bf
       0.0173955862055742 -0.016748488805972905
000420 a5 15 91 6a 99 6f ad bf d0 86 f9 f7 51 8a a1 3f
       -0.057492059954294995 0.03425842430148196
000430 22 e2 fa 03 17 36 a7 3f cf 8c c1 9d 56 27 be 3f
       0.04533454822143691 0.11778775550333197
000440 09 e1 e6 e1 18 26 b5 bf 6b 9f 2a 90 dc ed 98 bf
       -0.0826125670927277 -0.02434486989901023
000450 2f c9 d3 d3 f4 4a 75 3f 65 25 0c 49 7f 8f c0 3f
       0.0051984370777396335 0.1293791872670155
000460 65 04 06 f5 91 84 b1 bf 4f f2 b4 0c 34 22 c3 3f
       -0.06842910987872271 0.1494813024563819
000470 48 10 b3 b1 c8 c5 a4 bf 3e de fe 68 5e 8b be bf
       -0.04057147187407445 -0.11931409896248454
000480 71 1e 0b ef 54 1b b5 3f c2 6b 90 54 45 a1 85 bf
       0.08244829975148506 -0.010561505931084517
000490 86 bc d2 2e 9c 23 b3 3f d1 bc 9d c3 86 ae a6 3f
       0.07476211684364573 0.04430028093235595
0004a0 dd 81 7c 1d ee c1 ae bf 88 c6 54 b0 21 82 bb 3f
       -0.06007331952992321 0.10745440058669875
0004b0 76 17 44 df 7f 66 8e bf 5c 9b d5 4c ed ce 9a 3f
       -0.014843939782178 0.0261799886842725
0004c0 d3 4d 76 f0 8b 9a 99 bf bb 7d fd f0 d8 e9 95 3f
       -0.02500361113705003 0.021399869641184326
0004d0 94 36 6e 26 26 bd b8 bf 21 30 10 9e 5d 71 a4 bf
       -0.09663618505711674 -0.039927411598995606
0004e0 2b 77 38 51 63 62 b2 3f fd 62 6d 33 1b e0 97 3f
       0.07181378109859497 0.02331583501231459
0004f0 78 ef 04 06 7b bd c4 3f 36 1b 8b ff f2 45 c2 bf
       0.16203248781118496 -0.14275968053535742
000500 ee 16 30 26 4e af 82 3f d5 67 43 b6 f1 99 a8 3f
       0.009123430767441456 0.04804950094121777
000510 fb 73 d3 0c 3d c1 9d 3f 21 24 7f 80 f6 6b cc 3f
       0.029057458789669238 0.22204476618051763
000520 7d e9 7c e6 7e ec 9e 3f a3 7d 47 d3 0a c1 cb 3f
       0.03019903451716165 0.21682868305559308
000530 7b 44 6f be 9c 9d b2 bf f2 24 7e 59 5f ea b9 3f
       -0.07271747254641696 0.10123248991853354
000540 b2 cd 1d 40 11 f4 b1 bf 20 e1 83 02 f3 e7 be 3f
       -0.0701304227384785 0.12072676478772282
000550 a8 bf cf ce 93 43 57 bf f6 fb 3b 53 4c 95 cc 3f
       -0.0014199202953441934 0.22330621780562837
000560 c5 1d ff 59 7b a7 a3 bf aa 73 a3 18 39 9a cc 3f
       -0.038387160049349535 0.2234565134339424
000570 77 6b cf 1b 50 60 b8 3f e9 25 1f 49 a5 77 c8 3f
       0.0952196185966566 0.1911512953795829
000580 19 01 53 af a1 4b a1 3f e0 ae ce 6c f9 53 d1 3f
       0.03378014817417547 0.2707503855296931
000590 e2 c3 5e 55 da 2d 93 3f b4 05 bb 3a de d5 c2 3f
       0.018729602299291666 0.14715173595145148
0005a0 16 b3 26 15 27 7a bb bf 0a 00 a3 04 1d 6f d6 3f
       -0.1073326517714118 0.35053182080082534
0005b0 e2 14 3b 3a e0 eb 93 3f b7 fc d2 33 ee 32 d0 3f
       0.019454482607007224 0.2531085496993443
0005c0 c3 1d 4d f7 1a 7c ba bf 13 c0 c4 80 48 80 bd 3f
       -0.10345619714381997 0.11523869651568956
0005d0 0c 34 1c 01 04 21 ba bf e7 22 96 86 57 0e c3 3f
       -0.102066278716123 0.14887517997364982
0005e0 56 0f 12 b4 15 bf 9e 3f 1c 87 3e 65 46 6f b2 3f
       0.030025805583604757 0.07201042148383546
0005f0 a1 cd 23 8c ca 09 c3 3f 0c 0e ad 3d 5d 21 98 bf
       0.1487363037373202 -0.02356477440777209
000600 34 c4 0b 31 bc c2 b5 3f 87 26 63 8a f4 89 c8 bf
       0.08500267217074581 -0.19171005971138674
000610 e0 a9 e7 2f eb b9 b7 3f 23 94 42 a7 c7 c8 cf bf
       0.09268064422182176 -0.24831481616016146
000620 6d f9 9e 9c 9b 67 9d 3f aa b2 a6 7d bd a1 dc bf
       0.0287155451148861 -0.4473718382894655
000630 8e 9b 96 25 42 5b bb bf 5c aa b5 ef 6c ca e1 bf
       -0.10686124246295334 -0.5559601480320668
000640 0f 6b f9 b3 58 4b b8 3f bd d4 c0 ee a1 0a ac bf
       0.09489969629195748 -0.054768619913752904
000650 44 52 f9 23 86 f6 c8 bf b6 f4 25 38 f2 f7 d9 bf
       -0.19502331501520775 -0.4057584331820395
000660 a0 1b bc eb 31 74 c5 bf 10 c9 58 99 71 44 da bf
       -0.1676084900902568 -0.4104274747397918
000670 7c 7c c5 c7 e2 f6 a7 bf 7c f3 99 c0 a9 9f d9 bf
       -0.04680546463600252 -0.40037006195762337
000680 c2 a3 74 ca 5f 46 85 bf d4 ae 5b a6 c6 0d d4 bf
       -0.010388134351687731 -0.313340818843
000690 40 c3 70 f6 cb 8e ba bf cf ab 76 7f d7 5f d8 bf
       -0.10374140516865982 -0.38084971854794686
0006a0 a7 65 cb 8e 16 5d c0 bf 6e a2 83 00 2b 52 d6 bf
       -0.12784082386387505 -0.34876513529028486
0006b0 60 c0 25 43 e7 fe c9 bf 04 ee 42 e1 b9 bb ce bf
       -0.203091533457612 -0.24010394572347604
0006c0 f8 ab 95 9d e9 8c a6 bf 3e 61 e9 1c 0b bb d4 bf
       -0.04404382752075969 -0.32391622374918316
0006d0 88 66 f9 a8 63 2f 82 bf 55 08 a4 12 50 f6 be bf
       -0.008879450411018355 -0.12094593482109535
0006e0 fd b3 5d 62 e6 d5 bd bf d7 c6 18 8c ea c0 c6 bf
       -0.11654510404123637 -0.1777623352114037
0006f0 f2 9a e7 da 5e e9 b3 bf 86 6a 3e 21 4e 71 ad bf
       -0.07777970165589546 -0.05750507503326667
000700 cf 29 bf 6f 4d fb c0 3f 71 c7 2c 8f 41 df a9 bf
       0.13266914326079735 -0.050531433799178134
000710 e5 31 a4 d1 e3 9c c0 3f 27 12 59 58 eb 20 22 3f
       0.12978790031810586 0.00013831017365552417
000720 7a 46 7e 58 db a3 bc 3f 1f 65 37 b3 e9 97 cb 3f
       0.11187525663833667 0.21557351351547369
000730 b5 fe 3a 9d 88 98 a4 3f 3c bc a7 3e 0b 74 ce 3f
       0.04022623938862805 0.2379163795407936
000740 dd 13 b8 00 71 8e 87 3f 02 9f 5e 81 73 74 c1 3f
       0.011502154192394027 0.13636630837321922
000750 c3 1b 73 59 73 08 9e 3f 3b 88 87 e4 ea 13 c1 3f
       0.029329111418316744 0.13342033537543493
000760 56 5b 68 a2 e6 18 86 bf 59 fb 32 bc 63 b3 c6 3f
       -0.010789682227409319 0.17734953584109794
000770 47 7f e3 0f 81 ed a1 bf 62 60 3d b9 c5 56 d0 3f
       -0.03501513785317783 0.2552961644155457
000780 37 dd 35 fa c3 57 b6 bf 8c 60 80 6a 81 63 b2 3f
       -0.08727669581081875 0.07183083391317008
000790 56 de c2 0e 34 66 a4 3f dd 10 a3 e0 cb ab 76 bf
       0.0398422496813821 -0.005534931560934289
0007a0 57 53 1a 6b 6a 8c ba bf c1 69 4e ae 28 02 98 bf
       -0.10370507349791801 -0.023445735586941078
0007b0 45 d5 a2 39 84 4c 7b bf 9f 54 26 29 5e 84 ad 3f
       -0.006664768700081429 0.057650511286888355
0007c0 e1 d5 c7 a3 0a dc ba bf 92 eb c1 98 87 72 a1 3f
       -0.10492006777334197 0.03407691707339845
0007d0 c9 6b d4 c6 ca 25 b2 3f 2d 49 25 18 37 92 b2 bf
       0.07088916162722038 -0.07254356708043437
0007e0 f1 9a a9 c7 56 ea ba bf 00 45 3d 28 ac 84 a8 bf
       -0.10513822912762884 -0.047887210762050714
0007f0 04 04 8a 78 f5 2b b5 3f e7 75 70 84 73 c0 91 3f
       0.08270200913285924 0.017335705717519103

module.linear1.bias f8 [64]
000000 45 cb ab 83 11 21 e1 3f 7e c8 5e e5 2a 2e da bf
       0.53528667180067 -0.409067844385511
000010 d2 8d 5b 2f dc 15 b1 3f 91 e7 a6 aa 9c be c0 bf
       0.0667398086184712 -0.13081701595893638
000020 f8 fa 88 f8 c5 cb e8 bf 83 12 31 18 1a f8 e2 3f
       -0.7748746732903262 0.5927858803266449
000030 d7 4c 16 63 37 82 ce 3f 52 3f 19 fd 2d 1c f6 bf
       0.23834888780820648 -1.381879795710081
000040 d3 ba c9 1a 27 b2 ca 3f e6 8c 9d ac f3 15 d9 3f
       0.2085617905426803 0.3919648347566195
000050 cf e5 80 ce 6c 11 c1 bf 94 41 0f 10 25 a5 e1 3f
       -0.1333442695920852 0.5514092744506791
000060 d1 22 2c 7b 5b 00 bf bf 28 88 90 be 84 9e b1 3f
       -0.12109920270098519 0.06882505085425861
000070 7a aa 7b e2 23 b2 de 3f a3 b5 58 8f 61 95 e4 3f
       0.47962281339156443 0.6432349967705487
000080 b2 32 7c e9 4f 30 c9 3f 5d dd 11 de b8 f1 e4 bf
       0.19678687000886935 -0.6545070969868153
000090 ac 18 8c b1 4b 9e c6 3f 7c 26 48 5f d6 4c c8 bf
       0.17670580071734798 -0.18984489109452685
0000a0 c6 0b 17 57 5e 4f c0 bf 4d 0c fd 75 03 3b e0 bf
       -0.12742213489954518 -0.507203798719624
0000b0 86 de 5e 62 02 1b d3 bf f7 fe c8 8c 36 5f b2 bf
       -0.29852351767065277 -0.07176533639085024
0000c0 88 9e da 7f fc d2 cc bf d9 62 4e 1e d7 39 df 3f
       -0.2251887916838664 0.48790529212560113
0000d0 09 5e 51 51 51 b7 cf 3f cb 9c d0 87 8e 3e c9 bf
       0.2477819106158992 -0.19722158080660387
0000e0 6c 55 49 6e dc d9 f2 3f e8 5c b2 78 c0 19 d7 3f
       1.1781887348236877 0.36094676768102696
0000f0 c6 18 f6 8a 3a 98 b3 bf 13 11 e0 7b 2e 37 ba 3f
       -0.0765415753613495 0.10240450405405381
000100 33 eb cf f4 a5 29 c7 3f 80 0e 82 c8 06 cc d0 3f
       0.18095850423545698 0.26245278912413283
000110 06 18 b1 24 31 04 af 3f aa c4 37 58 40 cc e6 3f
       0.06057885716340654 0.7124330256466653
000120 be 54 23 f4 9f f4 85 bf 33 81 e8 ce 0d 3e e3 3f
       -0.010720491064072465 0.6013249436546516
000130 d6 31 d6 45 ca 5b c8 bf 47 77 da 68 5f 06 d3 bf
       -0.19030121240611092 -0.2972639583548368
000140 bb b2 b4 a7 ee 83 e9 3f d2 90 f7 ca 80 cc cc 3f
       0.7973550105576445 0.22499093924046193
000150 d1 60 12 08 24 8a b1 bf 8b 82 31 6a ef d1 d4 3f
       -0.06851411053719693 0.32531342859696427
000160 56 7c 44 72 30 f6 93 3f a0 24 1f 40 4e 63 b5 3f
       0.01949382493432624 0.08354653420896563
000170 7a 41 bb 63 71 14 e1 3f e0 18 10 27 7f 38 bd 3f
       0.5337454746132118 0.11414332107242187
000180 b2 43 bd b3 31 00 e2 bf 6b d5 66 40 8f d4 c4 3f
       -0.5625236998113137 0.1627368034802815
000190 d5 36 94 44 3c b9 dc bf f6 61 38 ab 5b a5 a2 bf
       -0.44880587289013124 -0.03641783204165343
0001a0 d9 11 98 26 8c d7 d0 3f 0b 87 27 f9 fe c0 e2 bf
       0.26315597313830846 -0.5860590807244263
0001b0 ae 74 57 dd 80 ca a5 3f ad 92 e3 b3 24 57 b6 bf
       0.04256060316013453 -0.08726720229931102
0001c0 d8 cd 21 d3 55 d0 b0 bf ac c2 f2 b9 47 f5 e9 3f
       -0.06567894367781635 0.8111914283563997
0001d0 69 5c ab c9 8d 93 c6 bf 44 33 c4 a7 aa 00 bb bf
       -0.1763779864038242 -0.1054789218507724
0001e0 d4 1d 15 bd 48 53 d1 bf 46 47 f4 19 86 7a e5 3f
       -0.27070826020323335 0.6712065226476873
0001f0 2e e2 1c 3e b6 5b fc bf 3a 4e 92 76 7f 8e 9e 3f
       -1.772390596988895 0.029840461360960392

module.lstm.weight_ih_l0 f8 [256, 64]
000000 f2 7b 76 5d 60 eb e7 3f 91 f4 6b 08 87 66 c1 bf
       0.7474824738927721 -0.13594139014449927
000010 71 be 82 04 d3 0b d3 bf 05 76 0d 05 92 eb bf bf
       -0.2975966972398743 -0.12468826888422065
000020 f4 5c df b5 cd a2 d2 3f a6 de 3f 0f 31 67 c1 3f
       0.29118674050319204 0.13596165890316064
000030 5e ec b4 4b eb 3a 9a bf 18 58 52 20 a5 4f a5 bf
       -0.02561538362099857 -0.04162326831389879
000040 50 f6 ff f0 53 09 b3 bf a4 98 3e 6c 99 67 ad bf
       -0.07436108239922956 -0.057431024993364305
000050 09 fb b0 02 f4 d6 96 bf 9a 34 12 f3 10 54 b3 3f
       -0.0223043562548311 0.0755014985499706
000060 c1 0f 28 c8 60 a7 9e 3f a6 31 f8 4f 56 a3 d9 3f
       0.029935371605475106 0.4005943089439604
000070 78 89 e1 57 5a 63 ce 3f b2 6e 84 7c 0b b4 cd 3f
       0.23740700999321596 0.23205703334757782
000080 38 fd d7 bb af 1f aa bf f9 c8 44 1d 70 2c d0 bf
       -0.051022998504772266 -0.2527122770144526
000090 67 d3 2b 62 90 8f c0 bf fd d1 c7 ec 59 bd 97 bf
       -0.12938122552409512 -0.02318325526899122
0000a0 75 45 0e dc 3a 5b c4 3f 63 8e 8d cc 6e 9b e0 bf
       0.15903411621961153 -0.5189737315344697
0000b0 b9 28 89 30 be a7 b9 bf 76 37 08 57 92 65 d2 bf
       -0.10021580395656117 -0.2874494409487548
0000c0 f2 39 32 0b e8 ce 9a bf 84 f6 1a 5f 8b 72 de 3f
       -0.026179910357820142 0.47574123656873035
0000d0 6f 92 5f df 7c 2d d1 3f fd 6b 13 26 25 13 84 bf
       0.26840135396768167 -0.009802141403659087
0000e0 29 71 49 11 5f 87 b0 3f c6 f6 33 99 03 a6 b1 bf
       0.06456560298960724 -0.06893942346865875
0000f0 22 ce 87 3e 7d 4b ba bf 52 2f 57 22 3a e2 c3 bf
       -0.10271437431929845 -0.15534140278611602
000100 2b d4 7f 25 3e 81 c2 3f 10 fb fa f7 79 60 b6 3f
       0.14456917601606398 0.08740961364945243
000110 33 65 0e 8a a1 ab c5 3f 50 37 92 db 57 d9 d5 3f
       0.16930026284243524 0.3413905758142066
000120 2b 94 6f e2 bd 6d c6 bf 39 83 76 0f c5 11 e0 3f
       -0.17522405201376165 0.5021691610346358
000130 3f b8 82 c0 38 fe d5 bf 61 18 19 b0 ed 91 e3 bf
       -0.34364146041741955 -0.6115635337271322
000140 be 3b 57 b0 67 ef cc 3f 29 02 a5 47 34 ef 8b 3f
       0.22605606184376187 0.013639839588564477
000150 8d e3 4e b5 15 4b e2 3f 64 5e 5e cb 96 25 d7 3f
       0.5716656247305864 0.36166925296990926
000160 cb 96 72 60 24 dc ab bf c9 4d ef 81 d2 22 c7 3f
       -0.05441392590846091 0.1807501921126529
000170 5e 66 85 20 31 ac c4 3f 4e 27 38 75 28 5d b6 3f
       0.16150487983650214 0.08735897886086016
000180 e3 98 6a 3b c1 02 bc bf ec 79 fe 57 42 3c ee 3f
       -0.10941703510852423 0.9448558539041279
000190 98 e5 72 8f dc c9 c5 bf c2 aa 43 2e aa 88 ed 3f
       -0.1702228260453864 0.9229327109909138
0001a0 e4 fe 27 87 4a 7c bc bf f2 34 37 00 6b 0a a8 3f
       -0.11127153205597612 0.04695448281891314
0001b0 7c 40 98 d0 fd eb e1 3f 1d 66 51 19 7a 62 df bf
       0.5600575517764947 -0.49038555595834216
0001c0 c0 ef a2 b7 74 b6 de 3f ca c7 fc 39 2e c5 90 3f
       0.47988622601746656 0.01637718419005533
0001d0 d5 7d fa dd 8e a9 c2 bf 9d ed 67 a5 9b d8 b1 3f
       -0.14579950178902715 0.06971142566901851
0001e0 aa 70 51 8b db 92 af bf 59 2d 33 d6 4b 2c cd 3f
       -0.061667309528929806 0.22791431387882247
0001f0 cf 63 96 2b 22 d0 c6 bf d7 cc 4f 3c 75 5e d1 bf
       -0.17822672966283767 -0.27139025583092063
000200 21 4e 93 10 01 43 9c 3f 26 97 07 f2 bd 4b 98 3f
       0.027599350582773966 0.023726432702367316
000210 a4 bf df 4f c5 4b b8 bf 33 3b a0 85 d9 d9 ae 3f
       -0.09490616989182726 0.06025581127334192
000220 fe 96 03 89 95 91 9c bf 2e e3 bc b5 a8 fe 81 bf
       -0.027899109351799282 -0.008786504789541984
000230 d2 85 70 c1 7a 10 50 3f 53 67 de d8 4a 9d b2 bf
       0.000980491522348682 -0.07271259112021981
000240 a6 17 bd 51 86 ee b3 3f d6 d5 84 71 b3 27 af 3f
       0.07785834785053555 0.06084976921776401
000250 e3 ab 6a 7c 24 0a a1 3f 72 f4 6d e8 9a 4e b0 3f
       0.033280506312926915 0.0636994187788831
000260 d7 8c f0 13 96 a4 bd bf 1c 0f 99 38 6d 16 94 bf
       -0.11579263674552763 -0.019616800860844483
000270 9a a6 a1 30 00 3f b9 3f e4 89 39 20 d6 c0 89 3f
       0.09861756503382893 0.012574837549611702
000280 36 c3 94 a2 f6 c3 b2 bf 6a 33 5a ef 6c d8 ae bf
       -0.07330266446366526 -0.06024494573384838
000290 02 e8 b5 84 fa 41 ae 3f f3 bc b3 ee 11 b0 83 bf
       0.059097126674672054 -0.00961317071639065
0002a0 c2 43 fa 17 30 71 c1 3f 96 b1 00 2a 59 2f 81 3f
       0.13626671953946184 0.008391090959855057
0002b0 9f 34 26 4e 8e ae aa 3f de 41 6e 82 36 f0 98 3f
       0.05211300567598553 0.024353839598519993
0002c0 79 70 7f 16 cf 25 73 3f 8c 73 11 3a ad d6 a3 3f
       0.004674729287185036 0.038747227991485195
0002d0 c6 76 83 7f 6f 21 7a 3f f1 89 fb 4c 7d 71 cc 3f
       0.00637954286523063 0.22221342333712316
0002e0 6c b5 81 99 aa 72 9c bf 3b 0f 2a 99 11 ed b7 bf
       -0.027781167620948663 -0.09346113194811505
0002f0 4d 60 41 d8 b3 0c 89 3f 38 fd a7 2a fb 0b 78 3f
       0.012231259381380389 0.005870801086074899
000300 b0 5b 44 ac 61 02 ab 3f 48 75 e8 ce 3f 25 a0 3f
       0.05275254466885515 0.03153418923123269
000310 96 5e 61 45 e8 d7 9e bf 58 be 6e 10 d5 f5 b4 3f
       -0.030120496019974206 0.08187610293566061
000320 82 b4 47 dd 4d 88 9d 3f 66 c5 fb 16 fe e4 b9 bf
       0.028840271597733842 -0.10115039883728158
000330 2b 79 60 4c bf 09 c5 bf c7 7e fd a6 37 03 bc bf
       -0.16435996274317097 -0.10942409350308956
000340 7d 50 42 c0 11 23 a5 3f 80 62 3b 81 8f 3e bc bf
       0.04128318282997243 -0.11032959847524104
000350 13 f9 cd b2 a2 c0 c1 bf 84 cc 36 5c ce e0 93 3f
       -0.13869127016727897 0.01941225469427056
000360 6b 77 ec ea ed a4 d0 3f b7 c8 a4 9e cf fa 98 bf
       0.26006648961798956 -0.024394268091051354
000370 8a 0b 3b bf 06 c4 b6 bf d9 f6 f8 9e ea 44 60 bf
       -0.08892862480847277 -0.001985986942400025
000380 57 a5 8b 33 4f 7a 96 bf 50 73 eb 66 27 27 ca bf
       -0.021950948258483063 -0.20431988263490064
000390 ba 4b 23 fe 1b 72 7e 3f ac 23 20 47 c2 51 d6 bf
       0.007433041903101173 -0.34874016710142075
0003a0 7b 0e ee 77 db a2 be 3f 9e 2e fb c5 a8 c4 a0 3f
       0.11967250516868859 0.03275039116632893
0003b0 69 5f 85 16 70 93 a4 bf e4 5f 41 19 9d e7 c3 3f
       -0.04018736147798913 0.1555057881657823
0003c0 2b 07 0f e3 f8 64 99 bf b6 cb 52 86 28 af aa 3f
       -0.024799240931094573 0.05211760177316853
0003d0 3c 92 f7 a0 70 84 c1 3f a2 c7 de 49 4f 18 ae 3f
       0.1368542467090651 0.05877921845184565
0003e0 45 29 22 a7 21 2b 98 bf b1 7c bf e8 25 8a 9f 3f
       -0.023602033449188004 0.030800430613336875
0003f0 b4 3e eb 2a f7 50 a8 bf 31 9d c4 cb b7 f9 a0 bf
       -0.04749271773255029 -0.03315519678499824
000400 a7 b7 e6 7e 0a 9d ae 3f 9a 66 8f c1 f4 d6 af 3f
       0.0597918777378788 0.06218685972971834
000410 e3 c1 1e 30 c7 25 75 3f 73 0c bc 8f b7 7b 9d 3f
       0.00516298110771671 0.028792255542623168
000420 c4 44 06 a9 ac 94 97 bf 74 d3 60 ee cd 8f 84 bf
       -0.023028085533557854 -0.010039910161234046
000430 f7 51 4d 78 9d db b2 bf 8e ef b2 bb cd 77 53 3f
       -0.07366356074391676 0.0011882313836357491
000440 62 bb c4 1b 34 6b 78 3f 89 7c 64 12 25 0a b6 3f
       0.005961612271035617 0.08609229754482518
000450 37 7f c2 33 7d 4c 96 3f a0 65 9f a4 4d 59 c1 3f
       0.02177615765015092 0.13553782022681293
000460 f9 1e f7 d7 a1 58 a1 3f fc db de 39 18 f1 be bf
       0.033879335034326226 -0.12086631214957316
000470 08 7c a8 b4 4e 32 89 3f 85 4e 3c 5b 26 34 cf 3f
       0.012302985084771137 0.24377898650037735
000480 57 2c b5 be 82 d7 b0 bf 3a dc ed c0 c6 62 b6 bf
       -0.06578843265485666 -0.08744470796760676
000490 61 12 2f 6f 79 24 b6 3f 98 dc e2 d4 89 b8 7a 3f
       0.08649405445528081 0.006523645786891262
0004a0 37 28 83 63 8b 84 b2 3f e7 6d 29 db f6 42 86 bf
       0.07233496837139418 -0.010869911731041305
0004b0 fe e5 82 9f 26 2e af 3f 2e f8 2e 8b 46 68 8e bf
       0.06089897820625011 -0.014847327349226527
0004c0 85 1c d3 66 c7 6c 68 3f fa 04 43 34 50 4e b3 3f
       0.002981557327618458 0.07541371608660433
0004d0 ff fc 22 b5 32 ba ac 3f 7a 92 5e 9e 22 23 d0 3f
       0.05610807858601596 0.2521444841934578
0004e0 e0 11 2e 76 bb d7 d1 3f 77 e7 b4 ad eb bb ad bf
       0.27879225293170684 -0.05807434554522122
0004f0 d6 f5 5f bd 0d 89 b5 3f bf ab 7e b7 99 b9 56 3f
       0.08412252305421161 0.0013870240345379284
000500 4e ef b4 cd 61 76 b3 3f 5b 56 3c d0 91 93 b1 3f
       0.07602511665475939 0.06865798314933029
000510 07 36 5d b6 bb 66 88 3f 13 ea 11 12 5d 61 89 3f
       0.011914698126612512 0.0123927374972839
000520 9f b2 83 4a 5d a1 aa 3f e4 26 9d 21 0e 55 cb 3f
       0.05201236281013632 0.21353317872335886
000530 9d 44 d5 8b dc 48 91 bf 1a 93 f0 5c aa ab b1 bf
       -0.016879507097944047 -0.06902565735851987
000540 0b ba 83 d8 1f 36 bf 3f af 57 8b e9 83 f2 b7 bf
       0.12191962276458683 -0.09354423953786183
000550 a7 f5 39 84 c3 99 b3 bf 66 1a d6 c4 6d 15 97 3f
       -0.0765649984186526 0.022542681826531207
000560 14 cd a8 82 27 33 c4 3f ac 48 30 50 67 b5 47 3f
       0.15781110648968222 0.000723529287258514
000570 69 d8 86 b9 c5 31 be 3f 48 ac f0 d4 98 4a 97 3f
       0.11794696597539346 0.022745502468904527
000580 15 56 f1 22 3b e2 ab bf c1 5d a4 4c ef a5 c5 bf
       -0.05446038056895134 -0.1691264271000659
000590 ae f0 27 a5 41 a9 b7 bf ca a8 24 d8 43 e7 d5 bf
       -0.09242639810685446 -0.3422402964375918
0005a0 c0 34 26 d6 64 8f c2 3f 11 1e 1d 31 de 2c 79 bf
       0.14500103432184197 -0.006146305024067115
0005b0 43 15 f7 20 81 75 c2 bf bf e0 f7 33 a8 f9 ad 3f
       -0.1442109499895797 0.05854535707834562
0005c0 41 ee 5c 7e e0 dc b7 bf 88 76 1f a3 ea c7 ca 3f
       -0.09321406445536075 0.2092259689806506
0005d0 04 cf e6 e0 28 26 bb 3f a1 8f 81 bf f6 0e a0 3f
       0.10605102053414944 0.031364165188988886
0005e0 60 17 23 8f 15 c7 8b 3f e7 15 bd 63 1b a5 a4 3f
       0.013563316755959398 0.040322166371463734
0005f0 e8 10 d5 4c 6e 4a be bf 62 3f 1b c1 67 85 ae 3f
       -0.11832322479046165 0.059611551592410064
000600 ac 1d d3 7c 69 d7 cc bf fe c5 89 11 6c 7e d2 bf
       -0.22532385439829505 -0.28896619522774347
000610 9a 0b bf af 68 01 b8 3f ba 9e 7e 90 0e 89 b8 3f
       0.09377149859123649 0.09584132220936228
000620 84 b5 19 9b 73 19 a8 bf 2d c6 1e 2b 99 9d b7 bf
       -0.04706918018642184 -0.09224850943316971
000630 a9 2b e5 bb 52 92 b1 bf f6 a6 3c bd 60 af c6 3f
       -0.06863896453175634 0.17722710838398087
000640 a2 62 ad 40 4f 74 b3 bf 63 cb 84 46 90 6b c9 3f
       -0.07599349335704145 0.19859507983491217
000650 24 0f c4 a6 d4 34 b5 3f 35 4a 81 da fd bb c8 3f
       0.08283738204414398 0.1932370488089689
000660 d1 3e 6d 28 47 3c d8 bf 8a a9 72 2f c2 28 b7 3f
       -0.37867907474445156 0.0904656759109114
000670 1a 27 e1 ad 1d 76 8a bf 66 c1 f8 c7 78 a5 70 3f
       -0.012920600766068758 0.004064056207014088
000680 f5 22 62 1d f0 c8 a8 bf 5a ce 59 1d a0 c0 b7 3f
       -0.048408034884294716 0.09278298107693086
000690 a0 8d db 3f a1 90 cd 3f 77 5d 83 4a ad 20 8e bf
       0.23097625368164376 -0.014710763775311204
0006a0 24 ed 8e a2 99 2a ad 3f 70 38 d5 f8 76 5f d0 3f
       0.056965638249915324 0.255826704979774
0006b0 52 c0 b2 f7 bc 03 b1 3f 9e af 5b 27 e6 8f c1 3f
       0.06646328971214757 0.13720395013603776
0006c0 3f 07 d2 d5 b7 41 aa 3f fc 0c 25 d9 01 05 c3 bf
       0.05128263936150156 -0.14859030821580876
0006d0 2f 2c 2d 58 7b 78 b6 3f 21 9d 92 cf b7 14 a1 3f
       0.08777590658898825 0.0333611908802658
0006e0 4a 85 ad 82 95 96 ce 3f 5f 73 54 00 dd be b8 bf
       0.23897045975449266 -0.0966623426251778
0006f0 96 12 8d a7 75 64 ba 3f 2a c4 41 2f a4 3a b0 bf
       0.103095391660711 -0.06339479593022249
000700 3c d7 29 95 16 3c 85 3f 0a 2c dd db e9 9c a9 bf
       0.010368515421969364 -0.05002528008352421
000710 83 01 9e 3e 24 96 58 bf 4a 88 12 19 5c 76 b4 3f
       -0.0015006402922780055 0.07993102657431553
000720 de 11 e6 25 b5 4a ca 3f 2a 43 45 59 e9 68 cd 3f
       0.20540489531062084 0.2297641454593074
000730 98 74 f6 ac 15 18 c9 3f 56 55 29 9e 85 ab be 3f
       0.19604750581212183 0.11980471717227678
000740 81 46 64 93 83 6f 97 bf c1 80 d2 4f 43 0a 9a 3f
       -0.02288632952792691 0.025429774996724278
000750 e5 4b 1b 88 ec 0e ea bf dd fd bf 53 76 c7 c7 3f
       -0.8143217714626841 0.18577460374215962
000760 2b 17 37 6d af 85 b8 3f 1c 41 3e df 35 b6 a3 bf
       0.09578987518679287 -0.03849953031670081
000770 1d 8e 1e 2a 78 c4 b3 3f f9 1f 56 ec af 49 c1 bf
       0.07721663502029981 -0.13506125488152046
000780 89 8b 05 8c 10 42 75 3f f7 7e 8c 9a d7 48 d1 bf
       0.00518995727211092 -0.27007093517930464
000790 1f b1 9a b8 9e 3d b2 3f 58 2b d4 aa a7 1a c1 3f
       0.07125274664821689 0.13362594453095755
0007a0 40 c0 d9 3b c4 96 b5 3f fd 3a 76 28 b7 42 b9 bf
       0.08433176480480231 -0.09867424714887459
0007b0 1a 1f 01 c5 83 b3 b9 3f 01 17 25 7a d3 02 a4 bf
       0.10039542731930987 -0.03908406129862208
0007c0 e2 d1 2c 12 83 ba d7 bf 2e 7a 7d 42 e5 d3 cd 3f
       -0.37075878882322233 0.2330290388735689
0007d0 cd 2f d6 8b 45 aa a0 bf 34 f8 18 a1 c5 19 c2 bf
       -0.03254906970968783 -0.1414114987000531
0007e0 a8 75 a5 27 fb 7c 82 3f 1c 59 61 80 9c 32 9e bf
       0.009027444980058544 -0.02948994191714248
0007f0 fc df c9 0b 0b fb ae 3f 6e a4 6a ec f9 1e c5 3f
       0.06050905722526065 0.16500782054689317

module.lstm.weight_hh_l0 f8 [256, 64]
000000 61 97 d0 2f 9c c9 b0 3f 5e 99 3d 47 42 b3 90 bf
       0.06557632605890042 -0.016308818433935605
000010 25 a2 19 1a ed c5 b2 bf 56 d3 55 fb 27 1b a7 3f
       -0.07333261382303442 0.04512906020219158
000020 a5 14 7d a9 5d e9 aa 3f 48 71 a2 7c 25 a6 b3 3f
       0.052561690272832785 0.0767539433749721
000030 17 97 c5 c8 fb b8 b3 bf 79 c9 43 f7 c3 23 af bf
       -0.07704137469917459 -0.0608197440468698
000040 33 1d 18 7e e1 4b 90 3f a5 90 08 55 2d 03 b2 bf
       0.015914462395838668 -0.07036097837459694
000050 99 2b 4a a4 1a 9c a6 3f 0b b0 3e 77 1c ef 9c 3f
       0.04415972953309861 0.028255886819962977
000060 fa f9 34 28 01 63 ad 3f d5 ad 34 ae b4 ff 91 bf
       0.05739596954161992 -0.01757700265186009
000070 e1 41 2c 1d 2f 4c ab 3f 26 1a 52 bd 91 b0 b1 3f
       0.05331561308969746 0.06910048362815555
000080 9e 2d e4 c0 09 7b 90 3f fc cd df ce 60 2e a9 3f
       0.01609435310187523 0.049181962254717576
000090 e0 53 47 fa 28 ba ae bf 0c 07 12 7f 10 ac 81 3f
       -0.06001403861197452 0.008628968122369261
0000a0 ff 28 69 88 46 07 9b 3f bc ba c8 f2 3e 10 89 bf
       0.026394941402295476 -0.012238017830069274
0000b0 41 46 63 58 16 0c aa bf 02 70 67 ae 89 a5 72 3f
       -0.050873468675160634 0.004552400414890913
0000c0 38 e9 fa 63 33 9e a8 3f 29 80 6c 75 20 df 99 bf
       0.04808197589359725 -0.02526522366235909
0000d0 3e 4c 4e 43 a2 67 aa bf a8 ba 48 29 ee 69 a4 3f
       -0.051571913448377846 0.039870684184611094
0000e0 46 95 a9 43 4d fa 90 3f 25 8f 83 b3 83 c0 b3 3f
       0.01657982564429019 0.07715628750480315
0000f0 4b 44 da 2b 0a a0 ae 3f 05 99 7c b3 af e4 80 3f
       0.05981475625333895 0.008248684563636486
000100 b2 60 aa 84 07 1b 6b bf b3 4a fb 65 90 12 ac bf
       -0.00330878704455636 -0.05482913250820811
000110 bd 7f a8 2c 29 75 9c bf 94 bf 37 dc e1 11 a7 bf
       -0.027790683127136385 -0.0450583058662907
000120 3d 24 68 d1 34 42 a6 3f 06 c6 c0 e6 59 c9 aa 3f
       0.04347386413798702 0.05231743757066103
000130 a3 66 c9 5b ec 7d 9a 3f 17 f4 61 a3 32 1c 82 bf
       0.025870984174935285 -0.008842845545808982
000140 70 6e 1a bb 9b a4 a3 bf 8c 3a a1 67 a8 ac af bf
       -0.03836523684477988 -0.061864149713632605
000150 dc a2 60 01 4b 96 a7 3f eb ce 85 f8 07 b9 a2 3f
       0.04606851951422694 0.036567925536386735
000160 6a 53 52 bb 6d b1 a8 bf 91 d1 a2 57 49 25 a9 3f
       -0.048228673092274146 0.049112598369364886
000170 27 f6 c8 74 a0 d8 a7 bf 6b be e6 a2 56 d4 97 bf
       -0.04657460618589609 -0.02327094430228131
000180 76 9f 36 74 89 f1 92 bf 25 00 8d fb cf 73 97 3f
       -0.018499515264607656 0.022902726868096707
000190 ca c3 af ea 6c 32 a8 3f 88 db 66 20 96 c1 a8 3f
       0.047259715698494256 0.0483519472649539
0001a0 ca c3 b7 7f 09 e4 8f 3f 85 09 8d bd 42 a7 89 bf
       0.01557166501058473 -0.012526055726657112
0001b0 3e b3 ed db 9a b3 9b bf 88 21 98 5d 21 0d a7 bf
       -0.027052325890895228 -0.045022051501351135
0001c0 51 7e 70 4b 75 df b2 bf 79 1e 54 3f cf d8 b0 3f
       -0.07372220126898667 0.06580825134380487
0001d0 12 8c 1f 9e 21 20 ad bf fc 75 b8 07 e9 f4 a1 3f
       -0.056885767509605625 0.03507164210553168
0001e0 97 cb 5c 7f 81 be a1 3f a0 66 58 e5 34 3e 76 3f
       0.03465656928746979 0.005430418610126303
0001f0 1c c3 84 1e 2f 31 a9 bf d4 70 bc 69 ca 0e b0 3f
       -0.04920336959401636 0.06272568780372306
000200 2c 98 c1 ca 80 8f a5 3f 06 9b 3a 26 b7 5d ab bf
       0.042110466719165934 -0.05344936696683615
000210 c2 1c 19 cd fc eb a2 3f 7f 57 de ec 2a 0b ac bf
       0.03695669177664619 -0.05477270261250932
000220 77 fb c9 24 c0 57 b3 bf 5e 40 f1 64 f5 03 b1 bf
       -0.07555771730583936 -0.06646665300763874
000230 92 0e 40 f7 6a d5 5d 3f ba 61 01 c3 e5 7d b3 bf
       0.001820902308282611 -0.07613979349969827
000240 bc aa 57 6e 3a 7d b1 3f f1 e7 2a f7 a7 39 42 3f
       0.06831708139331288 0.0005561895507846232
000250 fb a0 c7 ad 62 ed 91 bf 33 80 f3 f4 f8 35 a7 3f
       -0.0175071161810658 0.04533365240217826
000260 07 c3 da 85 d7 0c b3 3f cc ef 2d e4 f4 2e 98 bf
       0.07441470163281504 -0.023616625239341535
000270 4f 90 ab 07 ad 0e b2 3f 18 47 4a d5 06 da b1 bf
       0.07053643643627193 -0.06973307330397593
000280 c9 47 27 a0 20 42 b0 bf f3 77 f4 d0 00 c1 aa 3f
       -0.06350902471538612 0.052253747470089616
000290 6f 9b 6d 7e 2f d8 aa bf 04 c4 e0 1c 94 85 a6 bf
       -0.05243061464607634 -0.04398787357821024
0002a0 eb b7 93 a4 38 74 aa bf 73 76 b7 02 ca cf 9f 3f
       -0.051667947854966055 0.03106609002667544
0002b0 1c 83 0a a1 ac e9 a0 bf 33 80 3a ae 2b cb a4 bf
       -0.03303279367287912 -0.04061256887257549
0002c0 37 3f 5d 41 91 c3 af 3f 97 9f cf bb 1c b1 ac bf
       0.06203893587973968 -0.05603875916113948
0002d0 9e 0f 50 96 0d 7b b3 bf 91 b6 65 3a 30 89 b3 bf
       -0.07609639091248119 -0.07631207872119662
0002e0 25 01 01 ae ce 3c 76 3f 4d 46 9f 8f c4 84 58 bf
       0.0054290841508762054 -0.0014964980641604287
0002f0 5e 69 93 9f de 78 9e 3f 5f 86 b1 f2 0d 47 b2 bf
       0.029757956018195635 -0.07139670539029329
000300 75 6a b8 3d b6 f7 97 bf 51 91 0d 95 59 d7 b2 bf
       -0.02340588332854528 -0.07359847916592811
000310 80 b3 9f 5a 1c fd 86 bf fe 2a 91 1d a0 22 a2 bf
       -0.011224957957858939 -0.0354204212277036
000320 3a 71 e4 05 cb aa 98 bf e8 09 35 c7 88 38 b0 bf
       -0.02408902381385867 -0.06336264480072595
000330 a5 6d 2c fa 99 b7 a4 bf 91 66 87 10 cf 5a b1 bf
       -0.040463268078578175 -0.06779188302552998
000340 5a 18 c5 4b 20 01 a5 bf 1d 42 d7 df 6e 98 93 bf
       -0.04102421688962528 -0.019136173641358768
000350 5b 38 48 90 1e 85 b1 3f 95 0b 95 23 54 4c ae bf
       0.06843749067795228 -0.05917609152176976
000360 26 74 18 3e 26 aa a5 bf e1 9c fc 4c 3d 85 a3 bf
       -0.04231376178743344 -0.038125911376761364
000370 a5 ba 09 7c 9b 30 93 3f 5f 26 39 92 f3 24 6a 3f
       0.018740109868697136 0.0031914479493806848
000380 7c 11 97 60 62 12 a0 bf 96 03 dc a4 53 c2 9b 3f
       -0.0313902609737253 0.027108485161992123
000390 5b b7 55 7b 27 84 a0 3f 99 b3 e7 ed e1 3f 98 bf
       0.032258256726761934 -0.02368119253690146
0003a0 fb 23 f3 54 42 0f ac 3f dc 01 bf 13 94 98 9d bf
       0.05480391776070089 -0.02890235300560727
0003b0 ee 06 28 91 48 36 aa 3f 3e e8 03 39 cf 6a 91 bf
       0.05119539997032328 -0.017009008269248442
0003c0 32 6a ac 1f 27 0f b1 bf ab a9 40 ed 54 de 79 3f
       -0.06663746379164406 0.00631554770010682
0003d0 4a 93 42 fc d3 8c 95 3f 33 5e 6f 48 93 d0 a0 bf
       0.021045028945667434 -0.03284130343643845
0003e0 17 7e 85 eb 38 b9 a6 bf dc fc 50 33 5a 16 6e 3f
       -0.04438188433664097 0.0036727678039195476
0003f0 49 49 1c 6f 20 71 9a bf 90 0a ab 79 d7 2c b1 bf
       -0.025822169095655743 -0.06709048004544571
000400 f9 1a 62 6a 18 e2 a9 bf e5 7f 8c ae 02 87 92 bf
       -0.05055309580443707 -0.01809314909326067
000410 1f 33 0d c5 07 83 a2 3f a7 77 da 7c 75 54 9e bf
       0.03615593223967139 -0.029619060273595867
000420 d0 22 3c 8b 0d 8c b2 bf ed 93 4e 63 bd 81 9d bf
       -0.07244953774728491 -0.028815230547156224
000430 1c c3 3b 95 ba 3b b3 bf 91 f1 d3 9c a8 e6 36 bf
       -0.07513013976473498 -0.00034944168585562216
000440 3a 80 d3 b3 ec 4e 86 3f de 27 51 4f 3a 97 8a 3f
       0.010892724264010768 0.012983756585658254
000450 c4 ff 76 ab 0f 08 a3 3f b2 fa 02 67 11 61 aa bf
       0.037170877152220366 -0.05152181990114481
000460 73 6d 9a b3 c2 1c b3 3f 82 f2 c5 63 9a 01 a4 bf
       0.07465760121197267 -0.039074730567311824
000470 cc a9 c3 9e c0 d6 a2 3f 75 3b 7b c0 fd 38 67 bf
       0.03679468095818414 -0.0028347927180684637
000480 00 10 56 45 51 d9 a3 3f 35 1b 26 f6 19 81 9e bf
       0.03876737567318855 -0.02978935780404442
000490 61 9c 34 c5 9a 24 9f bf 2a 27 6f ea 4f 74 ae 3f
       -0.030413072859257876 0.05948114144082546
0004a0 16 e8 b3 e3 70 0c ac bf 3c 78 ed cf 44 9c b2 bf
       -0.05478241710257252 -0.07269697262151537
0004b0 e9 d0 d5 64 42 66 a1 bf a7 3a 03 0d dc 5a ad bf
       -0.033983301934229555 -0.057333828533605406
0004c0 c4 e9 fb 79 de 3a aa bf 08 b0 a9 b2 76 54 b0 bf
       -0.051230385199193346 -0.06378881322751806
0004d0 24 f7 0e e0 ef c6 91 bf f0 32 9d e7 fd e8 b0 3f
       -0.01736044697803786 0.06605517296447849
0004e0 a9 bc e0 a5 eb 50 93 3f ec 96 3d b9 22 ba a2 bf
       0.018863374709493872 -0.0365763522266159
0004f0 46 52 16 c3 34 4e 8d bf 07 eb 71 8d 0e 21 a9 bf
       -0.014309322551335001 -0.049080328718409
000500 27 0a 24 a0 5a ef a6 bf 29 2e 89 63 c7 d0 65 bf
       -0.044794876144824074 -0.0026630300820096498
000510 75 2c 6c 0a 8b 76 b1 3f d9 7e 10 34 b1 55 a5 bf
       0.06821507458168859 -0.04166940460731689
000520 9b 56 79 50 c0 85 98 bf f5 5b af 3d 79 d9 ab bf
       -0.023947720443479353 -0.05439356687536893
000530 79 a7 98 95 e7 27 9f 3f 51 21 6d 19 b3 2d 7c 3f
       0.030425661569246174 0.006879520041202917
000540 ec ea 0f e3 58 1f a0 3f 55 3a 2b 15 4e 76 75 bf
       0.03148916026835544 -0.005239777575026657
000550 78 73 21 5c d1 bd a7 bf 9d 7c ed 72 d0 f1 7b bf
       -0.04637006997720666 -0.006822408918053882
000560 6e 2c d7 d6 cb 70 a8 3f 1c b0 25 35 a7 ff 9d bf
       0.04773556706967318 -0.02929555189022902
000570 c7 97 98 ab 2b de 9c bf d0 f1 7a 98 6d 1a a4 bf
       -0.028191263531105706 -0.0392641304619904
000580 8f 6f b9 37 1d b7 ab 3f 98 a5 1e e9 70 8c 90 bf
       0.05413142495373712 -0.01616074011659449
000590 01 4c aa f6 87 82 a0 3f b9 e2 74 0a 40 9d 86 bf
       0.03224587331819607 -0.011042118376836428
0005a0 9e 41 c4 10 da 52 9f bf e6 86 b3 38 5b 58 b0 bf
       -0.030589492104867604 -0.06384821066196941
0005b0 23 8b 43 54 ec da a0 3f 36 9a 0b 8a e7 d0 b1 bf
       0.03292025116549826 -0.06959387893912425
0005c0 b6 ce ed 07 ba d8 b3 bf 83 46 9b 4c 84 6e 8d bf
       -0.07752573674752736 -0.014370950305792057
0005d0 3b a2 e0 d8 88 f0 b2 bf 34 04 af 80 91 a1 ab bf
       -0.07398276610241165 -0.05396704383702691
0005e0 af e4 cf 5b 50 4b b0 bf 61 81 2e 9c a6 06 b2 bf
       -0.06364919892793595 -0.07041398346928453
0005f0 83 5d 39 f8 60 c0 84 3f be 92 08 71 d6 6a 6e 3f
       0.010132558417508935 0.0037130535422583424
000600 dc b8 2b 15 2c 37 a5 3f 41 1d ea 48 f6 e1 89 bf
       0.04143655546600808 -0.01263801965730116
000610 20 71 f2 5b 78 53 b3 3f c0 f4 54 60 d3 e9 b3 3f
       0.07549240345764874 0.07778664686061898
000620 dc c6 95 a6 cb ce 9b bf 21 9b 63 80 ec 04 83 bf
       -0.027156049768968113 -0.00928673521816631
000630 7d f7 f1 17 30 8c a0 3f c2 f3 1c 64 f0 82 b0 3f
       0.03231954853343575 0.06449797100226731
000640 84 4d b0 6a eb ea b1 bf 6c 76 3b fc 5e 22 b2 bf
       -0.0699908385725419 -0.070836960392137
000650 60 4e 84 9e a6 a2 ab bf 04 26 0b cb e9 2c b1 3f
       -0.05397530255336558 0.06709157187574283
000660 f9 41 35 03 a2 55 7b 3f 16 52 6e ed dc 6c 9c 3f
       0.006673462735605978 0.027759029380449794
000670 c7 ab c2 21 bc 98 ac 3f e3 cc d6 dd 1b fa b3 3f
       0.05585277473559063 0.07803510824196595
000680 fc b8 8c e9 2e 70 a6 bf 51 9d dc 95 25 ed 7c 3f
       -0.04382464028309305 0.007062098329505177
000690 14 53 8d 1a f9 6e b1 bf f2 12 f9 57 07 40 ae bf
       -0.06809956453555471 -0.05908225010765546
0006a0 1d 33 b0 be 71 a8 a5 3f 1e f2 5c 7e ea 53 a3 bf
       0.042300753142717286 -0.037749603200129864
0006b0 d3 00 56 20 b5 99 92 3f af 45 ec f5 ca 85 a8 3f
       0.01816447267401673 0.04789575817097657
0006c0 be 51 98 65 e7 ef 9d 3f 59 44 1c 0e 67 57 a9 bf
       0.029235473228327306 -0.049494953606093524
0006d0 5c 55 f8 b8 9b 90 8c 3f 4c 47 42 90 6b b5 7c bf
       0.01394769342645457 -0.007008953256574756
0006e0 16 7e 29 ab 01 29 91 bf 5d f8 ff e8 ac d6 af bf
       -0.016757989951996143 -0.062184718553894604
0006f0 b1 d2 45 93 1b 11 a4 3f 00 2b 0e 2c 87 1b 87 bf
       0.03919302151453986 -0.011282974273645774
000700 3f 37 e3 7a 00 63 9b 3f 36 24 fd cb 38 7f 96 bf
       0.0267448496822944 -0.021969687891474098
000710 c5 f9 7a 10 03 83 ae bf 03 cd 5d 5a 4c 65 a4 3f
       -0.05959329200912892 0.03983534434419236
000720 6b b9 2e 15 10 0c aa 3f b2 97 2e 72 93 77 a6 3f
       0.05087328203750271 0.04388104218314427
000730 49 d0 73 3d 44 a8 b1 3f d4 4d 33 69 fb 49 a8 3f
       0.06897379398634586 0.04743943843063972
000740 cd e2 fd 2d 9f 0b 93 3f d9 e9 3e ee ab 8c a6 bf
       0.018599021131623417 -0.04404198916695962
000750 b3 a3 26 78 bd 66 ae bf b1 76 ba b8 66 64 ac bf
       -0.05937759486852858 -0.05545350079522161
000760 5b c3 3d 5d d2 5c b3 3f 30 2a a4 ea 79 b0 a0 3f
       0.07563509727857591 0.032596406834347724
000770 b6 ea 6c af fb 37 95 3f b8 7a 92 b9 37 d1 a2 bf
       0.020721371252174513 -0.03675245418820822
000780 f0 9a 2e 4a 45 76 a4 3f a3 7b 6b 45 a6 42 aa 3f
       0.03996483355085967 0.05128974530611365
000790 b0 8d 92 fc ec 6a 8e bf ee 02 8c 99 45 cc b2 bf
       -0.014852382142925474 -0.07342944143966765
0007a0 43 0b 64 60 fb 9e 74 bf 03 87 7d 4f 0f 4c a4 3f
       -0.005034429492527806 0.03964279027310449
0007b0 7a 9e ab a3 41 33 a0 bf 9e 15 bb 08 cd 7b a8 3f
       -0.031641055325789716 0.04781952601983196
0007c0 cb d7 7b 7d 77 3e a2 bf a5 cc be ec 31 9d a5 bf
       -0.035632833545534114 -0.04221492781598472
0007d0 08 62 d0 32 85 24 74 bf 49 5d b1 b3 61 18 af bf
       -0.00491764097844128 -0.0607328922130202
0007e0 e1 7a 2f 01 01 72 a0 bf fa 6d ec fb bb eb 92 bf
       -0.03211978091689161 -0.01847738003844588
0007f0 c5 c2 48 fd e2 70 b1 3f 97 94 13 f5 15 3f b3 3f
       0.06812876399704766 0.07518136246979377
