carla_with_centerline_new/final.ckpt (torch, 37117 bytes, 4 tensors)

linear1.weight f8 [64, 64]
000000 00 00 00 80 db 3a b2 3f 00 00 00 00 d1 c3 bb 3f
       0.0712105929851532 0.10845667123794556
000010 46 d4 46 e3 4e 30 bd bf ac 3a 9d 46 1c d8 a7 bf
       -0.11401837395426737 -0.04657066690434894
000020 dc c5 ac 7e 96 73 b6 bf fa 3d cc d6 05 1f b3 bf
       -0.08770123093270094 -0.07469212049567622
000030 e7 53 ba 42 89 71 a7 3f b4 c6 90 2f e6 b0 b5 bf
       0.04578808726834165 -0.08473051701801176
000040 13 41 1e c8 52 75 b4 bf 22 7c d3 fc af 4b a6 3f
       -0.07991521249482884 0.04354619942909489
000050 63 62 e7 ec d3 3a b3 bf 05 52 20 c4 fb 0a bf bf
       -0.07511639150414733 -0.121261344320665
000060 dc 5d e4 ed dc bc b6 3f 1f ee 1f 42 25 8f be 3f
       0.08881932075416138 0.11937172760365698
000070 3c 62 55 86 3d cc b2 3f f2 b4 97 85 c3 70 b9 3f
       0.0734289601290436 0.09937688838518335
000080 e0 dd e4 28 0c 9e ab 3f 66 65 66 0d 9d 5e b9 3f
       0.05394018172449555 0.0990999372210318
000090 f7 70 8d bb 45 7b b6 bf ad 87 27 6e 1e ec 9d bf
       -0.08781848744314745 -0.029221034501354094
0000a0 9b ef 9f 03 c7 14 94 3f fa 6e c3 7c 2e ed a1 3f
       0.019610509487378285 0.03501267693510886
0000b0 3c 9b 36 82 d8 1f be bf 90 30 75 e0 34 93 ae bf
       -0.11767342738185688 -0.059716846847181704
0000c0 fe ba b5 0a d9 ab b1 bf 93 8a c4 64 77 05 b8 3f
       -0.06902843963119307 0.09383341035985841
0000d0 b5 20 2d 37 4f 7d 9a 3f d1 c8 3c cd 02 aa b0 3f
       0.025868642561619654 0.06509416113547963
0000e0 29 e0 d6 bf 5c 46 b3 bf 85 5a 6f c3 ab f7 a9 bf
       -0.07529239352777552 -0.05071770439797255
0000f0 b4 e6 b3 a0 c1 37 7f bf 5e 03 74 62 7e 53 98 3f
       -0.007621532781962582 0.023756003150086406
000100 6a 3e 0b 5a 82 31 b1 bf 4f fe c5 4e 25 67 ae bf
       -0.06716170023286741 -0.05938068949307917
000110 1e 15 97 6e e9 03 be 3f 53 98 fc ae 30 e6 bd 3f
       0.11724718999819969 0.11679367324959004
000120 9c f6 d1 83 e5 a7 bf 3f 10 89 81 2c 76 18 a4 bf
       0.12365564792886591 -0.03924912732397179
000130 b6 58 12 4a 87 96 a1 bf 76 c3 eb ef e2 48 a9 3f
       -0.03435156611628669 0.04938420466158437
000140 20 c4 83 07 4e d9 a4 bf 28 7d 5f 71 37 34 b1 3f
       -0.040720404069255034 0.06720301168342202
000150 d2 2e a3 f2 fc a1 b8 3f bb 60 51 28 6d 43 8e bf
       0.09622174190297564 -0.014777043145088311
000160 54 ea 31 d6 e9 96 af 3f a9 0b 6e 76 e9 b8 bb bf
       0.061698253056381575 -0.10829028264383446
000170 0f c9 48 23 98 4f a1 3f c7 2f aa 45 03 3d a1 bf
       0.033810381228606905 -0.03366861558342254
000180 e1 ae e7 8c a6 30 78 3f 02 24 c5 42 5a c7 bb 3f
       0.005905771815814837 0.10851062898758815
000190 6d ca da 6f 5f b7 af 3f 19 ce 3d 2f 6c 9c bf 3f
       0.06194589844144081 0.12348056939463738
0001a0 93 bd 3d 68 b5 1b b9 bf 08 23 64 e0 59 58 68 bf
       -0.09807905001593147 -0.0029718165780007223
0001b0 62 5f df 1c 30 c5 be 3f 21 d0 5f b9 e9 b3 aa 3f
       0.12019634919067593 0.05215387714261533
0001c0 e7 e1 c4 4b b6 b5 76 3f 4f 70 fe 03 73 4f b3 bf
       0.005544387906688964 -0.07543104979998926
0001d0 5b a0 e4 8a f0 57 af bf ad 99 01 fc 76 4a 9a bf
       -0.061217801050873454 -0.02567468560337154
0001e0 31 b1 d5 c4 35 b7 88 bf b1 a7 20 80 a2 a0 91 bf
       -0.01206819540922108 -0.017214335508618898
0001f0 9c 67 48 e5 a6 d0 a3 bf 61 37 5f a2 10 d7 5e 3f
       -0.03870126294005091 0.0018823301738737019
000200 00 00 00 00 eb 02 b7 bf 00 00 00 00 0a 48 a2 3f
       -0.08988827466964722 0.03570586442947388
000210 e7 ea e1 5f df 32 7d 3f 1a 8a 46 e0 f3 ef 96 3f
       0.007128593975830744 0.02239972168320934
000220 c7 1a c0 9a fc 9f 86 3f 11 df 67 00 5d 50 a4 3f
       0.011047337982757267 0.03967562322571728
000230 53 d4 21 7e 0a 85 b6 3f f4 7a b0 77 f3 04 bf 3f
       0.087967544359189 0.1211692969522849
000240 88 5d 39 cf f0 bd be 3f bb 1e af 68 27 b3 57 bf
       0.12008576449567532 -0.001446522221827991
000250 91 83 a6 9a 56 18 b9 bf 69 e0 c9 8c 4a 8f b6 3f
       -0.09802762294431334 0.08812395035954669
000260 cb 51 ab fb 2b 80 b9 bf 97 77 01 06 48 88 75 bf
       -0.09961199659603108 -0.005256921140327628
000270 7b 88 4d 82 9c 4e a2 3f 1d b4 ca 01 80 cf a7 3f
       0.0357560071049798 0.04650497457382861
000280 6c d1 17 1b e5 dc 92 3f 32 ac 9b 60 97 ce a8 bf
       0.018420772341373334 -0.04845116667078066
000290 cc 12 5c b2 d8 64 b3 3f d3 9d e3 d9 5b 12 ae bf
       0.07575754503711635 -0.05873381647853262
0002a0 1a 18 f5 e8 3a af b8 3f 1a f8 f0 27 11 0a b7 bf
       0.09642379939495563 -0.08999736046914145
0002b0 1f 33 40 dd 7b 5f 92 3f f2 f1 66 67 b0 51 b5 3f
       0.0179423669615516 0.08327772640672729
0002c0 c8 86 d4 95 d1 4d b8 bf ca ae 1f b2 ae 35 b2 bf
       -0.09493741901362818 -0.0711316285011733
0002d0 89 49 79 51 49 9d ba 3f 1d 25 da f4 b4 2f 9a bf
       0.10396249999147335 -0.025572612232768955
0002e0 71 3a 2c 95 56 dd a8 3f fc cb ab 43 11 9c 39 3f
       0.04856367655712724 0.00039077207081489296
0002f0 50 b7 d1 2d 6a 44 be bf 2f 37 a8 48 e4 a5 bd bf
       -0.1182314264167108 -0.1158125569711188
000300 a4 6e a3 5b 68 b4 ad bf d1 c8 57 b7 fe 33 b0 3f
       -0.05801702612526796 0.06329338050980772
000310 72 55 c5 8a f2 ad bd bf af 95 2a 54 16 8a 85 bf
       -0.11593547714195099 -0.010517286723664336
000320 20 94 32 9b 1a d3 b8 3f c2 a8 4d 9b c1 be b7 3f
       0.09697119034770241 0.09275445977769706
000330 2b 1d 67 ba a9 e8 bc 3f 1b 4b dd 2b ff 80 a8 bf
       0.11292515564774834 -0.04785916719870028
000340 9d aa 52 8e 87 d7 ab 3f 4a 00 62 7f e6 fc 94 bf
       0.05437873470630914 -0.020495988392667898
000350 56 83 4c d7 e7 4f 7c bf 15 9d 05 02 0f 95 9c bf
       -0.006912141446066075 -0.02791236352768774
000360 53 b3 b2 75 ff b8 7c 3f e6 50 95 ba 71 a9 99 bf
       0.007012365235976886 -0.02506044102968099
000370 b5 26 5e 29 26 b6 a6 3f 53 46 53 13 f7 51 9e bf
       0.044358437108781436 -0.029609547190210538
000380 a4 97 0c c7 d8 34 ae bf c6 75 26 92 21 5a 9a bf
       -0.05899693898963612 -0.025734447999288944
000390 3c bf bc 96 d2 54 a3 bf ae 25 73 5c 6e 36 a3 bf
       -0.03775652017645689 -0.03752465132272263
0003a0 3b 8f df 9a 7f a2 b3 bf 84 25 ee 93 4d 9b c1 3f
       -0.07669827967725677 0.1375519726100657
0003b0 0d 5a 53 d6 20 f0 a8 3f df dd 37 4c 49 a4 b6 bf
       0.04870703331259927 -0.08844431029125797
0003c0 52 02 a9 b5 71 c6 80 3f 30 bf c9 5a d8 4c 84 bf
       0.008191002231911746 -0.009912195463783385
0003d0 17 55 dd f4 ae 56 98 bf 93 23 44 90 26 8c b9 bf
       -0.0237681710198859 -0.09979477903483618
0003e0 f8 a9 47 4d 25 c8 b4 3f 18 80 c8 9f d0 69 c0 3f
       0.08117898117749422 0.12822921564020429
0003f0 58 d4 73 a2 7a f8 ad 3f 05 ca bf eb b6 1d af bf
       0.05853636963903658 -0.06077357890889704
000400 00 00 00 00 ef 77 ad bf 00 00 00 40 e2 55 b4 bf
       -0.05755564570426941 -0.07943548262119293
000410 f8 c5 7f 21 5c 72 bd 3f ef 95 98 96 cc 07 bf 3f
       0.11502624338006473 0.1212127559343441
000420 af 1a 09 9d 60 f9 b6 3f 6f 46 43 47 a8 f4 bc 3f
       0.08974269708515224 0.11310817470373434
000430 a6 5c c0 e8 aa ef be bf 4c 87 c2 01 3b 7b b2 bf
       -0.12084453756721078 -0.07219284813848253
000440 ce d3 b4 c2 98 00 a9 3f a6 63 58 36 47 46 a5 3f
       0.04883267761980613 0.04155180490869918
000450 d4 d8 04 f4 75 09 a4 3f ef f6 43 42 ff c0 b9 bf
       0.03913467983004329 -0.10060115211305364
000460 3a 03 af eb 47 2e a2 3f c5 5f 3f b4 0c bb 48 bf
       0.035509345550514174 -0.0007547199279498365
000470 14 00 dc d4 eb c5 ae 3f 5c bf 3b 03 eb 2f 9b 3f
       0.06010376904851014 0.02654998023257292
000480 a8 8d b9 54 8d 01 a1 bf 69 42 e3 4e e2 48 ba bf
       -0.03321496638525484 -0.10267462182970068
000490 e6 98 f2 63 76 d7 be 3f 56 c3 03 1b c8 01 ba 3f
       0.12047519626739564 0.10158968600786741
0004a0 f6 98 05 f4 13 b2 b4 bf c5 6d 6d 04 6e 37 9c 3f
       -0.08084225375714368 0.027555197735052567
0004b0 40 e1 b4 a4 b5 63 bc bf 72 0a 3e b4 6e 47 ae bf
       -0.1108964469066267 -0.059138736250152216
0004c0 4d 3e 87 6a fb e6 b9 bf a4 7c f4 07 60 c9 b4 3f
       -0.10118075705326497 0.08119774049963496
0004d0 b7 63 5e cc 67 a3 b9 3f 4b 47 40 b6 bf 92 b8 bf
       0.10014961947889743 -0.09598921012391519
0004e0 8c 24 36 8a 62 26 b3 bf 68 48 4d ac 2e 27 b1 bf
       -0.07480445741943437 -0.06700412470425621
0004f0 04 16 9d 9f 9e b9 a0 3f 3e 24 4e e2 d0 92 bd 3f
       0.03266616533668912 0.11552148366003309
000500 06 8b ce cf 79 95 b6 3f 3e 24 4e a2 73 ed b4 3f
       0.08821832011612338 0.08174822533159529
000510 b1 a2 be 7d 50 41 c0 3f a0 98 b5 ea 9b 94 b3 3f
       0.12699323787571395 0.07648634414872157
000520 fa 4f 1c 8d aa 43 b8 3f 7a 5f cf 99 ab 28 c2 3f
       0.09478250451167006 0.14186615953689935
000530 b1 71 13 bf 38 09 a6 bf 93 ee 48 78 fd 44 b0 3f
       -0.043039105725003586 0.06355270563738662
000540 ed f6 39 88 0a ef bb 3f 1f 21 de 61 52 58 95 bf
       0.10911622835007125 -0.020844733451242378
000550 49 5d 1a 8c fd b8 a7 bf 0a c3 3b 77 33 cb a5 bf
       -0.04633323989144828 -0.04256592588888537
000560 7a d8 8e 32 c1 70 b6 3f 82 9b a5 55 ef df b6 3f
       0.08765799984289116 0.08935447541226263
000570 41 a4 05 bc 96 cd b9 bf 36 58 85 77 60 37 ae bf
       -0.10079328623182084 -0.05901624163622936
000580 49 7e d1 81 f4 34 ad bf 7d 1a ef 4b 23 be c2 3f
       -0.05704464039513064 0.1464275475284075
000590 38 5b 5b de d6 33 ad 3f 67 7a 23 46 50 36 c2 3f
       0.05703612770383021 0.14228251862273852
0005a0 ec 8b 16 07 58 93 89 3f 36 2c 2d de 8b 0e 83 3f
       0.012488067356406028 0.00930508872774825
0005b0 8f 5a 4d 5a 2f b5 c0 3f 7e 93 9f 4f 0d 9d ad bf
       0.13052932652745539 -0.05783883664097454
0005c0 4f 27 a0 89 b8 cf b3 bf 00 aa 66 d5 f6 97 c0 3f
       -0.07738831863403316 0.12963757915470353
0005d0 23 df 24 85 79 9d b7 3f a1 7e 19 64 79 c2 c0 3f
       0.09224662304484048 0.13093488109278886
0005e0 fa b2 e8 70 e4 cb 94 bf d4 ec 01 a1 a7 4b a6 3f
       -0.02030903758184175 0.04354595032142475
0005f0 b5 bb 5d 29 67 6c b9 3f 0c c6 63 c9 e4 33 a8 bf
       0.09931034812846813 -0.04727091749544962
000600 00 00 00 80 f4 07 b4 3f 00 00 00 00 4e 93 a4 3f
       0.07824638485908508 0.04018634557723999
000610 ae 1b d7 6c fd 5d bb bf a4 c7 2b 6b ac f3 87 bf
       -0.10690292269928989 -0.01169523908672316
000620 58 1b fb 7a 11 d0 ad 3f 8d 20 01 1a 8c 9e b5 bf
       0.05822806001884001 -0.08445048937676543
000630 f1 a2 de fd d2 07 87 3f da e2 d7 d3 fd bd b4 bf
       0.011245392200934986 -0.08102404043155378
000640 c1 d7 64 1c a8 99 bf bf ba 59 32 b5 b1 8e ac 3f
       -0.12343836491785877 0.05577617012857013
000650 b5 4c be dc 61 ac af bf 4d 18 74 26 3b c4 90 bf
       -0.061862047382555664 -0.01637356207086098
000660 2b f6 d6 2c c9 99 b4 3f b8 ce dd 08 0c 79 97 3f
       0.0804715857002171 0.022922695199169424
000670 01 49 c9 23 7b af 37 3f da 1e a0 da 80 b2 a8 bf
       0.00036141163198978593 -0.04823687237518266
000680 a9 3e f2 90 97 18 b2 bf c9 d7 2b b9 be 96 b7 3f
       -0.0706877449867941 0.0921439363554263
000690 46 f7 6b 6f bf f7 5f 3f 43 9a b7 1d 63 ba a3 bf
       0.001951157520749773 -0.038531396272266004
0006a0 9f 16 fb 22 40 b5 a9 3f 25 03 34 cd 4f 43 bc 3f
       0.05021095683109177 0.1104020954117116
0006b0 a8 84 a6 28 ad 88 aa 3f e5 4b 55 bd 88 2d 87 bf
       0.05182400819035965 -0.011317318227758786
0006c0 83 43 05 37 7f ac 95 bf 1f be e4 2b 0b 43 b9 bf
       -0.0211658360797773 -0.09867925473803794
0006d0 3e 92 63 fd b9 3c a3 bf 22 b5 ab ac 7b 6f a6 bf
       -0.03757268159987291 -0.043819298580141344
0006e0 dc 8f d1 1b e6 ca b4 bf de 42 59 b2 28 ce b6 3f
       -0.0812209909359462 0.08908323625770317
0006f0 80 f4 70 fc 89 b2 b3 3f 1e 67 a3 76 fa e6 a7 bf
       0.07694303906551347 -0.04668410013409939
000700 07 e9 e1 f8 ee 2d a1 3f e2 98 5c 89 a0 e5 ae 3f
       0.03355356968036643 0.0603456657102457
000710 69 22 9d 6b 93 fe b0 3f 0c 16 e6 50 67 61 9b bf
       0.06638451936044877 -0.02673875266329699
000720 ce c6 3d d0 af 47 bb 3f 8c 9d 22 15 e9 31 82 3f
       0.10656260332123255 0.008884259183402653
000730 2d a6 b6 0e 30 c0 b8 bf 46 ba 61 e9 75 52 b8 3f
       -0.09668255194869664 0.09500824878498645
000740 b4 8f 71 a9 c1 fc ac 3f 8a cf c2 6d 02 0f ba 3f
       0.05661587899592693 0.10179152660094651
000750 4b 0a 73 ef 53 eb b9 3f da 8d 6b 09 db 7a b5 bf
       0.10124706836635615 -0.0839058778761265
000760 b1 1b e4 e0 e1 e2 b6 3f 7b 2f 2a ae 25 ee af 3f
       0.08939944973472681 0.062363793859815574
000770 03 58 60 a2 f0 14 b5 3f ec 32 74 22 21 17 b4 bf
       0.08235076870218454 -0.07847792712363927
000780 79 6d 8b 7c eb 48 bb 3f 2b fb 30 f1 94 fb a5 bf
       0.10658141890183072 -0.042935041849423726
000790 80 ae 38 46 99 67 92 3f 26 91 90 d6 90 a4 bf 3f
       0.01797332278344621 0.1236048244323383
0007a0 e8 d9 6c 0e f5 d2 74 bf 26 bc ca d0 93 a4 a9 bf
       -0.005083997012482723 -0.050083750951096115
0007b0 fb 28 41 56 db 4d b7 bf bf fb c1 3c b3 8b bd bf
       -0.09103175025771641 -0.11541290505736777
0007c0 d4 6f cd 57 af 71 b9 bf e4 e6 0b c4 ba db b6 bf
       -0.0993909444200079 -0.08929030691424661
0007d0 23 b1 dd 62 11 5e b9 3f 70 40 bf b2 e0 d0 94 bf
       0.0990916124698669 -0.02032805529580667
0007e0 d2 9c df f7 d5 58 c2 bf 08 e8 0d 9f a7 82 ba bf
       -0.1433360538787612 -0.1035561335865226
0007f0 94 3d 3b f8 fa ae ba 3f 6c a4 46 d7 0e 0a 8e 3f
       0.10423248825394743 0.014667621559811127

linear1.bias f8 [64]
000000 03 93 88 df 69 f1 ba bf 6c af 9c 9b 16 75 ba bf
       -0.10524617869721102 -0.10334912585375172
000010 a6 fd e4 d3 bd 5c 7b 3f c9 05 af bb 60 55 bc bf
       0.006680242075446518 -0.11067776281472343
000020 d7 34 19 6a 36 33 a8 bf ec ca 91 cf 53 65 81 3f
       -0.047265720797989345 0.008494047901171219
000030 de 61 3b a9 d9 8f af 3f 9f 7a a8 95 4e 6c b3 3f
       0.06164436522312021 0.07587138322603913
000040 c3 33 c0 7d 2a a2 b2 bf fd d9 91 82 08 a8 b0 bf
       -0.0727869565018429 -0.06506398380029306
000050 a8 69 e7 2e e0 f8 a0 bf 71 1f e4 4f 3e 12 b4 3f
       -0.03314877102430397 0.07840337229219842
000060 07 ed ca 80 f1 c8 b7 3f a6 d1 ca c1 62 c8 97 3f
       0.09290990251877328 0.02322534854711624
000070 c0 f4 b1 91 ed e3 aa bf 3a 26 28 f2 e1 8f 95 3f
       -0.05252020267014634 0.02105668106563583
000080 d3 0c 44 67 52 48 a6 bf eb 15 c3 e5 3d db 74 bf
       -0.04352052221840954 -0.005091897761479096
000090 bc 21 bc d2 28 d4 ab bf 85 33 c3 c8 c6 41 b6 3f
       -0.05435302326629052 0.08694116975239126
0000a0 36 3b 3b bd 2e 02 9f 3f 49 76 1c 1b 28 c8 ac bf
       0.030281763362661716 -0.05621457415530224
0000b0 31 56 d1 f0 60 33 94 3f d4 ae 2e 7f 91 9a a6 3f
       0.019727244089457755 0.04414801290053352
0000c0 3c 5c b3 85 2b 63 b9 3f f3 6b c7 0b ff 8e b3 bf
       0.09916946424651568 -0.07640069997380276
0000d0 ee c0 e8 ee 95 d0 bf 3f 5c 04 50 27 c5 69 a5 bf
       0.12427651484245292 -0.04182258705987671
0000e0 f2 52 b9 a0 8d 94 8a bf 26 37 d9 18 49 78 bf 3f
       -0.01297865530720219 0.12292916161206033
0000f0 da 9e 25 5b b4 cc b6 3f 91 b3 53 73 a7 12 91 bf
       0.0890610430266138 -0.01667272225761313
000100 4b da c6 95 33 36 ba 3f 58 c7 8c f5 cf e2 b0 3f
       0.10238954931887993 0.06596088166113867
000110 10 aa dd 60 03 55 91 3f 89 78 9e 97 45 aa 96 bf
       0.016925862109397782 -0.02213391054066752
000120 71 8f cf fe 88 89 b1 3f f4 52 f9 6b f0 18 b7 bf
       0.06850486966101045 -0.09022429119188385
000130 15 94 56 28 ae 88 bb 3f 5d a0 46 b8 ae 60 7a bf
       0.1075543259126593 -0.0064398598664539815
000140 aa 3d f1 1b 14 08 b2 3f 77 fc bf 91 65 6a 82 3f
       0.07043576891123018 0.008991998205600133
000150 a2 cb ed 75 f8 ad 98 3f 16 16 89 26 c4 87 b0 3f
       0.02410114497929395 0.06457162800605717
000160 42 cf 6b f6 71 42 af bf e5 f2 44 a5 01 3a b6 bf
       -0.06105381138868761 -0.08682260785003455
000170 f7 14 4c 6e df f6 a1 bf 52 d4 fa 32 84 5d aa 3f
       -0.0350866148128634 0.05149472353279151
000180 ef 4d f1 61 64 88 a2 3f 4e a7 46 7f a6 66 81 bf
       0.036196839290507536 -0.00849657131114481
000190 63 bc a3 c2 2c d7 be bf f7 da 6c b6 13 14 b2 bf
       -0.1204708075708694 -0.07061885074368122
0001a0 81 aa b7 bd 54 82 be bf d3 fd 65 16 c4 18 b6 bf
       -0.11917619354032107 -0.08631539866291087
0001b0 86 ea 19 58 95 a5 a9 bf b9 24 f7 7c 18 fb 99 bf
       -0.05009142590002562 -0.025371916415484395
0001c0 d8 d1 08 b0 b9 18 b6 bf da c1 d7 da 57 4c 95 bf
       -0.0863147787829982 -0.02079903863153896
0001d0 ba fa ee a0 cd fe b6 3f 88 8b 72 10 7b 7a b8 3f
       0.08982548884430744 0.09561890746640078
0001e0 aa a5 e8 69 0e a6 b6 3f b3 1d fb 51 fe f3 b2 3f
       0.08847131810821077 0.07403554440963127
0001f0 d3 1e 91 1c 78 9d 9d 3f 95 f0 86 22 a0 0b 96 3f
       0.028921009772857453 0.021528722865455114

linear2.weight f8 [4, 64]
000000 7c c1 3e e3 3b 31 7a 3f e3 96 be 03 82 37 94 bf
       0.0063946093904835265 -0.01974299571852257
000010 a4 37 fc d2 de ea c3 3f 2c 1b 9f 75 a0 1e a3 bf
       0.1556051759911813 -0.03734303890046528
000020 9e 82 d0 d6 dd bd bb bf a8 b6 30 cf 1b 71 aa 3f
       -0.10836588377470455 0.05164420036485967
000030 a3 39 7b ae 12 89 95 3f bf f1 1a a8 2d 5f be 3f
       0.021030704402443267 0.11863980631000624
000040 a5 2e a9 5f d0 3e b3 3f 85 d0 68 aa e0 c5 c4 3f
       0.07517721496076975 0.16228874512455974
000050 29 33 30 c7 f3 27 af bf 6b 9b 2e ca fe c8 c5 bf
       -0.060851686539626755 -0.17019638893290376
000060 95 f0 e3 a4 c4 af 84 3f 65 01 07 df 38 00 8f 3f
       0.010100876123481132 0.015137142473464047
000070 bd 0d 0d f4 46 ce c1 bf 42 7b 21 98 0c 5e b7 3f
       -0.13910757938911714 0.09127882684832136
000080 0b dd 14 5a 27 3b b0 3f d8 4b 23 9b 46 94 84 bf
       0.06340261410956687 -0.010048438653404476
000090 af 69 1d b8 9f c6 bf 3f 9e 7f fc bc ad 4c b0 bf
       0.12412451024048353 -0.0636700235741032
0000a0 e5 7f 0f c2 70 da ad bf 11 19 eb f8 2c 00 90 bf
       -0.05830719345954075 -0.015625670140047513
0000b0 fa 97 ae 72 3e d6 c7 bf 3a 95 72 91 e3 7f b6 3f
       -0.18622570609767292 0.0878889303299574
0000c0 65 6b e0 65 6d 1a ad bf 05 10 85 e1 df d5 c0 3f
       -0.05684224957095444 0.13152693282802388
0000d0 86 29 c4 c4 d4 05 b7 3f d8 11 1f c2 e4 2c c3 3f
       0.08993272594321952 0.14980754355032277
0000e0 06 65 89 2c 58 de 63 3f 4e 14 20 62 4f 9b c7 bf
       0.002425358023441351 -0.1844271878364076
0000f0 f0 bd e9 5f 36 d4 c3 bf b0 7e 79 e9 bd 51 9a 3f
       -0.15491370852713215 0.02570244538799099
000100 54 7f 30 75 b1 0c c0 3f 7e e8 7b a8 8c c8 a9 3f
       0.12538736555233732 0.05035819584550526
000110 6d e8 ce 1f 83 e0 c2 bf f0 33 e8 d7 89 c1 c3 3f
       -0.14747656872879436 0.1543438247903448
000120 96 64 2f b4 29 71 9e bf b8 cc 35 5f 34 c1 b8 bf
       -0.029728557226779438 -0.0966980678984325
000130 26 da 19 c3 39 bb a2 3f 10 48 08 79 87 d3 7a bf
       0.0365846682224638 -0.006549386206204502
000140 84 90 d7 cf b4 e1 aa bf c5 2c 90 7c a5 57 b0 3f
       -0.052503252383560045 0.06383737841695154
000150 73 77 57 15 ae bb 82 bf de ec 77 0f 76 10 bc 3f
       -0.009147033716484043 0.10962617757461454
000160 9c 91 0c 25 f1 f3 9d 3f ab 6f d9 a1 b8 85 b5 bf
       0.029250877271935857 -0.08407167388344187
000170 34 2d de 64 31 15 ad 3f 85 09 67 e1 53 64 bd 3f
       0.05680231434151964 0.11481212857237295
000180 a6 17 8f 2f 84 5f c9 bf 1e 5d d0 e8 e6 02 b0 bf
       -0.19822742769445972 -0.06254428085263838
000190 fb 77 aa cd a6 33 aa bf eb 81 db 89 78 a5 b2 3f
       -0.05117532024927126 0.07283738485012463
0001a0 d5 85 6d 8e f6 90 be bf 93 a1 e3 d2 8f 22 c2 3f
       -0.11939946152917653 0.14167974278758474
0001b0 df 7d 6b c1 8a d3 b8 3f f5 ec f2 64 02 a0 c8 bf
       0.09697787496724385 -0.19238309792658695
0001c0 1c ee 66 c3 f1 ab b1 3f 10 ca 62 7c 81 a9 91 3f
       0.06902991314466828 0.017248175827896672
0001d0 17 a1 5d ec 38 5d c2 bf 88 6d 0f c7 ec 8b a8 3f
       -0.14346992055221428 0.047942542361592067
0001e0 60 4c c2 11 94 56 ad 3f 04 41 2e 02 92 2d b6 3f
       0.057301165740818005 0.08663284829367873
0001f0 b1 21 f0 1d 97 8d cb 3f a5 24 8f 7d 03 7c ba bf
       0.21525849305932135 -0.10345479789170271
000200 f6 93 1c 73 4b 09 92 3f cb 58 13 91 91 4e ac 3f
       0.017613581562859047 0.05528693099920331
000210 f4 1f 8d 72 0f d0 c5 3f e8 3b d4 95 5f 73 88 bf
       0.17041199773143456 -0.011938807258529097
000220 0a 66 0e 8b 68 eb b6 3f f4 8d 31 9c a1 3c 82 3f
       0.08952954668929905 0.008904707507276101
000230 4c c3 c1 2a 29 cd 98 bf 60 82 9c 81 54 f0 b6 bf
       -0.02422012637584041 -0.08960464634265852
000240 b8 50 a1 87 c9 04 c4 3f 0f 84 46 f2 7b 29 9c 3f
       0.15639609453740433 0.027501999533004858
000250 83 07 4f 4d 82 4a a9 bf d5 bc 64 52 d7 17 a0 3f
       -0.049396583497141065 0.03143189316539866
000260 3d 9a 59 32 cb 96 8f 3f a4 2b 9a 30 de 76 79 bf
       0.015424334978161197 -0.006216876916037704
000270 c4 35 c4 f2 66 ca c3 3f 19 41 d1 7f 1e d7 c7 3f
       0.15461432317571966 0.18625241509517634
000280 97 0f 75 15 d5 28 75 bf 94 e9 87 1d dd ba 74 3f
       -0.005165893896734184 0.0050610196417387905
000290 81 6b 0c 40 62 09 b9 3f 18 77 80 1b fb ef b6 3f
       0.09779943526920755 0.08959931775504193
0002a0 f2 fc aa 19 08 4f c0 3f 4d f1 80 01 6a 83 92 bf
       0.12741185429874907 -0.018079429952409232
0002b0 2a 4b 6a e6 91 3a b8 bf a4 d9 03 a1 fa 54 bd bf
       -0.09464370608683895 -0.11457792693167917
0002c0 24 8d e0 b6 3c b5 be 3f 4d 85 f7 35 2c 54 b8 bf
       0.11995295967840441 -0.095034373450763
0002d0 5d d3 ca 7c ae 50 b1 bf 80 b1 c9 84 4d de aa bf
       -0.06763735338865957 -0.052477285823303355
0002e0 db 7e a5 bb 21 dc ab bf 15 e2 d3 d0 80 e9 c2 3f
       -0.05441384711843763 0.14775095173514843
0002f0 c9 d0 33 ec dc 78 ae bf 6a d6 fd 8e 83 56 c5 bf
       -0.059515861352254236 -0.16670269472131177
000300 14 f0 cb 43 4f c1 ad 3f c2 25 4d a3 ac 07 aa 3f
       0.05811546042056662 0.05083980077194951
000310 58 ac b4 32 ad 89 c0 3f ed ea d1 c6 56 6e c1 bf
       0.12920155502192432 -0.1361797781754243
000320 83 c6 fe 2e c4 73 71 bf 60 28 6b 69 5b fd b8 bf
       -0.004260794012155625 -0.09761592220016402
000330 f2 65 92 bd 4c 8a bc bf 32 65 01 4c f4 f2 bb 3f
       -0.11148528698176799 0.10917593818284813
000340 23 67 8a d6 ed a5 ac 3f 0f 11 80 85 2e de ab 3f
       0.05595343822387935 0.0544294870342431
000350 5d 73 81 d5 23 ea a9 bf 93 29 81 4a 7f 61 ba bf
       -0.05061447125692695 -0.10305018967588912
000360 fd 5f 25 e3 70 fe b1 bf c7 d7 fb 84 92 4c c2 3f
       -0.07028871102863828 0.14296180241916387
000370 ff 92 1b a3 3d 16 be 3f d2 2a 25 27 4b b8 9d bf
       0.1175268672191798 -0.029023336662514172
000380 bb bd fb 80 4e 42 c5 bf a1 66 9f 3c 43 be a0 3f
       -0.1660860185433942 0.03270158877394392
000390 34 21 1f 01 cc d3 b0 bf 74 b8 f7 94 9b 48 c8 bf
       -0.06573176410086462 -0.1897158124333519
0003a0 77 04 65 6e 4a c0 bd bf 39 d4 b1 a7 19 ec 92 bf
       -0.11621537394695901 -0.01847877584483035
0003b0 f5 36 68 86 6d 15 a3 3f 8e cb 47 d9 6c c5 bd 3f
       0.03727285638534098 0.11629371933649521
0003c0 2d fa 74 2c 9e 1c bf 3f 06 c5 c1 cf 4a 66 ad 3f
       0.12153042397856302 0.05742105280013203
0003d0 a8 16 f3 94 6b 03 d0 bf 26 2f d7 be dc 87 b2 3f
       -0.2502087549768057 0.07238559397881925
0003e0 db 43 8a 12 8d e9 b0 bf 4e a4 ba 3a f7 01 82 bf
       -0.06606370642317876 -0.008792811851281137
0003f0 00 03 0b bd ce 48 91 3f ef e1 39 7b 6d 00 c5 bf
       0.01687930134608262 -0.16407555119418712
000400 00 00 00 00 88 de 6e bf 00 00 00 c0 09 16 bc bf
       -0.003768220543861389 -0.10971127450466156
000410 00 00 00 00 ff 63 be bf 00 00 00 00 ce 44 9d 3f
       -0.11871331930160522 0.028582781553268433
000420 00 00 00 00 db 98 ad bf 00 00 00 00 65 03 a0 bf
       -0.057806819677352905 -0.03127589821815491
000430 00 00 00 00 b4 d3 9a 3f 00 00 00 00 fb 05 be 3f
       0.026198208332061768 0.11727875471115112
000440 00 00 00 00 bf a8 a3 bf 00 00 00 80 c8 09 b2 3f
       -0.03839680552482605 0.07046177983283997
000450 00 00 00 40 e5 22 b1 bf 00 00 00 80 bc cd b9 3f
       -0.06693871319293976 0.10079553723335266
000460 00 00 00 00 b6 6b 8f 3f 00 00 00 c0 49 0c b9 bf
       0.015342161059379578 -0.09784375131130219
000470 00 00 00 80 04 21 b9 bf 00 00 00 40 63 89 ba 3f
       -0.09816005825996399 0.10365886986255646
000480 00 00 00 c0 91 e3 b6 3f 00 00 00 00 20 12 88 3f
       0.08940993249416351 0.011753320693969727
000490 00 00 00 80 4b 9d a7 bf 00 00 00 00 c8 cb a9 bf
       -0.04612194001674652 -0.05038285255432129
0004a0 00 00 00 00 43 87 9c 3f 00 00 00 00 0e e4 a2 3f
       0.027859732508659363 0.03689616918563843
0004b0 00 00 00 80 1c b5 aa 3f 00 00 00 00 84 2a 78 bf
       0.0521630197763443 -0.0058999210596084595
0004c0 00 00 00 80 d1 14 a1 3f 00 00 00 00 54 22 b3 bf
       0.03336195647716522 -0.07474255561828613
0004d0 00 00 00 00 6c 40 b1 3f 00 00 00 40 b2 ed b8 3f
       0.06738924980163574 0.09737695753574371
0004e0 00 00 00 40 a5 a7 b1 3f 00 00 00 40 40 2f b9 bf
       0.06896431744098663 -0.09837724268436432
0004f0 00 00 00 40 a0 f3 bb 3f 00 00 00 80 65 61 bb bf
       0.10918618738651276 -0.1069549024105072
000500 00 00 00 80 59 e0 bc 3f 00 00 00 00 c6 97 9a bf
       0.1127983033657074 -0.025969594717025757
000510 00 00 00 00 20 93 57 bf 00 00 00 c0 cf 85 b6 3f
       -0.0014388859272003174 0.08797930181026459
000520 00 00 00 80 ea 7c b7 3f 00 00 00 80 d9 21 a6 bf
       0.09174981713294983 -0.043227002024650574
000530 00 00 00 80 e9 12 b0 3f 00 00 00 80 53 ac af 3f
       0.06278857588768005 0.06186161935329437
000540 00 00 00 00 7a 73 a8 bf 00 00 00 00 01 3d a8 bf
       -0.04775601625442505 -0.04734042286872864
000550 00 00 00 40 f9 51 b0 bf 00 00 00 80 30 7c b0 bf
       -0.06375081837177277 -0.0643949806690216
000560 00 00 00 00 bf b1 b3 bf 00 00 00 c0 39 4f bc 3f
       -0.0769309401512146 0.11058388650417328
000570 00 00 00 00 cc 66 96 bf 00 00 00 00 a3 e2 ba 3f
       -0.021876513957977295 0.10502070188522339
000580 00 00 00 80 7d 83 b5 3f 00 00 00 80 95 40 a7 bf
       0.08403763175010681 -0.04541461169719696
000590 00 00 00 00 c2 f3 8a 3f 00 00 00 80 4a 09 b7 bf
       0.01316024363040924 -0.08998551964759827
0005a0 00 00 00 40 bb 91 b2 bf 00 00 00 00 40 70 65 3f
       -0.07253618538379669 0.0026170015335083008
0005b0 00 00 00 00 74 11 b7 bf 00 00 00 c0 a4 5e b4 3f
       -0.09011006355285645 0.07956914603710175
0005c0 00 00 00 00 69 39 a0 bf 00 00 00 80 b5 4f a5 3f
       -0.03168800473213196 0.04162375628948212
0005d0 00 00 00 80 66 4a a2 3f 00 00 00 80 d6 e0 ad bf
       0.03572387993335724 -0.05835600197315216
0005e0 00 00 00 00 7a a5 96 bf 00 00 00 40 e4 36 bf bf
       -0.022115617990493774 -0.12193132936954498
0005f0 00 00 00 00 db 37 a4 bf 00 00 00 80 6d 4a a9 3f
       -0.039488643407821655 0.04939596354961395
000600 00 00 00 40 b5 9d ba 3f 00 00 00 80 f2 b9 b4 bf
       0.10396893322467804 -0.08096233010292053
000610 00 00 00 c0 45 6f b9 3f 00 00 00 c0 8e dd b3 bf
       0.09935413300991058 -0.07759945094585419
000620 00 00 00 80 7d 16 b1 3f 00 00 00 00 03 f6 af bf
       0.06674942374229431 -0.06242379546165466
000630 00 00 00 00 ea 9b 91 3f 00 00 00 00 87 19 b9 3f
       0.017196327447891235 0.09804576635360718
000640 00 00 00 80 52 53 b6 3f 00 00 00 00 44 c3 83 3f
       0.08720889687538147 0.009649783372879028
000650 00 00 00 c0 2f e5 bc bf 00 00 00 00 1a a7 b7 3f
       -0.11287210881710052 0.09239351749420166
000660 00 00 00 80 25 da a5 bf 00 00 00 00 b6 4c b7 bf
       -0.04267995059490204 -0.09101426601409912
000670 00 00 00 80 a9 eb b6 bf 00 00 00 00 f8 51 7c 3f
       -0.08953341841697693 0.006914108991622925
000680 00 00 00 c0 a2 bb bf 3f 00 00 00 00 67 ea 9c 3f
       0.1239568442106247 0.028237923979759216
000690 00 00 00 00 21 c6 9c bf 00 00 00 00 e3 dd 96 bf
       -0.028099551796913147 -0.02233080565929413
0006a0 00 00 00 80 f3 3f a8 3f 00 00 00 00 34 10 7f 3f
       0.047362908720970154 0.00758381187915802
0006b0 00 00 00 c0 b1 47 b9 bf 00 00 00 40 35 1c bf bf
       -0.09875021874904633 -0.12152417004108429
0006c0 00 00 00 00 80 e7 6f 3f 00 00 00 40 b3 ba b3 3f
       0.0038945674896240234 0.07706756889820099
0006d0 00 00 00 00 46 f0 8b bf 00 00 00 00 c8 c0 a1 bf
       -0.013641878962516785 -0.03467392921447754
0006e0 00 00 00 80 30 31 b1 3f 00 00 00 00 f4 45 9f 3f
       0.0671568214893341 0.030540287494659424
0006f0 00 00 00 00 d4 05 a9 3f 00 00 00 80 a4 41 bc bf
       0.04887259006500244 -0.11037662625312805
000700 00 00 00 00 9a da 8e 3f 00 00 00 00 ef 6b be bf
       0.015065386891365051 -0.11883443593978882
000710 00 00 00 00 f5 9e 99 3f 00 00 00 40 6a 52 b5 3f
       0.025020435452461243 0.08328880369663239
000720 00 00 00 80 eb d9 bf 3f 00 00 00 40 aa 90 bd bf
       0.1244189441204071 -0.11548866331577301
000730 00 00 00 00 95 25 97 3f 00 00 00 80 33 b7 bf 3f
       0.02260430157184601 0.12388917803764343
000740 00 00 00 00 24 1d 74 3f 00 00 00 40 90 46 b1 bf
       0.004910603165626526 -0.06748296320438385
000750 00 00 00 00 47 80 a5 3f 00 00 00 00 c3 04 bf bf
       0.041994303464889526 -0.1211664080619812
000760 00 00 00 c0 1d 12 b0 3f 00 00 00 00 1f 08 b0 bf
       0.06277643144130707 -0.06262391805648804
000770 00 00 00 80 b1 72 a9 bf 00 00 00 00 f1 34 94 bf
       -0.049703165888786316 -0.019733205437660217
000780 00 00 00 00 42 3c be bf 00 00 00 00 5c da 9b 3f
       -0.11810696125030518 0.027200162410736084
000790 00 00 00 40 6d 89 b3 3f 00 00 00 00 57 23 b5 3f
       0.07631571590900421 0.08257049322128296
0007a0 00 00 00 00 94 87 73 3f 00 00 00 00 39 3e a7 bf
       0.004767969250679016 -0.0453965961933136
0007b0 00 00 00 00 bc 66 99 3f 00 00 00 80 0d 7a be bf
       0.024805963039398193 -0.11904987692832947
0007c0 00 00 00 00 38 af 7a bf 00 00 00 80 9a e3 a0 bf
       -0.006514757871627808 -0.03298647701740265
0007d0 00 00 00 00 69 51 9f bf 00 00 00 00 e0 fd b0 bf
       -0.03058399260044098 -0.06637382507324219
0007e0 00 00 00 c0 bd 96 bc bf 00 00 00 00 b7 c8 ad bf
       -0.11167512834072113 -0.05817195773124695
0007f0 00 00 00 00 00 a5 a0 3f 00 00 00 00 91 58 bd 3f
       0.03250885009765625 0.11463266611099243

linear2.bias f8 [4]
000000 0c c1 6a d8 f2 44 bc bf 23 e7 d9 a1 b7 69 a6 3f
       -0.11042707236879695 0.04377530909273577
000010 00 00 00 80 5d e5 b0 bf 00 00 00 00 71 a5 b3 3f
       -0.065999835729599 0.07674318552017212
