checkpoints/final_with.ckpt (torch, 272271 bytes, 8 tensors)

linear1.weight f8 [64, 2]
000000 29 50 4e f7 e7 d5 da bf 31 41 11 92 bd 54 df 3f
       -0.4193057932945999 0.48954715027231815
000010 3b 90 2e a9 fd 37 df 3f a1 a7 19 26 7d 2b a7 3f
       0.48779241105717447 0.045253668690590894
000020 89 70 91 3f 96 d4 c5 3f 4c 99 e2 ca ad 28 e3 3f
       0.1705501375571468 0.5987156832314127
000030 fc ef 83 29 2b 76 de 3f ae 4e 5d 61 c9 60 b3 3f
       0.47596243910061253 0.07569559695303482
000040 8e 5f 57 e9 84 f9 a2 bf d1 3e 5a ad f4 75 cf bf
       -0.03705993030933917 -0.24578722443083348
000050 d2 71 82 00 01 f0 a6 bf cd ad ac de e5 39 d0 bf
       -0.04479983454914173 -0.25353380914267803
000060 a3 d8 06 26 21 68 e6 3f 34 39 4d ba 3c 20 d3 bf
       0.7002111189565493 -0.29884260362168225
000070 94 7e 5f f5 74 db cc bf 2b 6f fa 66 b9 f1 e4 bf
       -0.22544729214768167 -0.6545073519987218
000080 4b c1 7c 7d 53 1b d2 bf ae 23 12 aa 69 ff e2 bf
       -0.2829178548299935 -0.593678314370768
000090 84 91 fe cd c7 26 da 3f 2f 11 5e 77 53 79 d5 3f
       0.4086169730819835 0.335530153817916
0000a0 76 c2 f3 d0 c5 af b1 bf 0b dc a7 29 71 db cb 3f
       -0.06908832885143021 0.21763433965654175
0000b0 de 6d b4 78 b7 0e dc bf 7c 49 a1 29 06 7a e0 3f
       -0.43839823520258203 0.5148955166899181
0000c0 34 61 8c b7 da 1d e3 bf a2 ec 96 a5 8f 5b ab bf
       -0.5973943314484473 -0.05343293091160574
0000d0 8d be 22 ed c2 b9 7f 3f 97 b8 ba 07 1b 75 b0 bf
       0.007745515280631954 -0.06428688944535775
0000e0 ea 2a 43 cd c3 5f d7 3f 7a 03 34 5c ac 2a d4 bf
       0.365220022632157 -0.31510457042900664
0000f0 25 da 04 f8 3c 9c d8 3f 93 96 42 cc 22 cf d0 3f
       0.38453602047539653 0.26264257380749106
000100 15 30 f5 c1 95 55 e2 bf 09 35 19 9a 87 b1 e1 bf
       -0.5729473865735623 -0.5529211053596167
000110 00 00 00 80 d0 f9 c9 bf 00 00 00 00 eb e5 c6 3f
       -0.20293623208999634 0.17889153957366943
000120 0c 3e 45 9d 1e 47 e3 bf f5 e7 b4 81 7d 0e e4 3f
       -0.6024315902413391 0.6267688306172646
000130 b3 26 34 c9 23 fd ab bf 80 eb 12 4e f8 45 d8 3f
       -0.05466567832088511 0.3792706263008583
000140 59 8d 84 5c 4f 2a e5 bf e8 1a 7a 93 e4 35 e6 bf
       -0.6614147955882955 -0.6940787201318388
000150 c2 40 58 ce bf bc e2 3f ec e3 92 1f 6f 5e e2 3f
       0.5855406789942423 0.5740275971103279
000160 ce df 34 a1 1a f2 cf 3f 0d 24 7d 06 a5 c1 d7 bf
       0.24957592841542325 -0.37119413026499687
000170 16 c7 c0 3b 6c 2c e0 bf 8e 05 53 b7 e8 6b e3 bf
       -0.505422703461792 -0.6069224911263278
000180 73 45 0b 96 c2 07 e0 bf dc 08 84 ec ac 39 d5 bf
       -0.5009472780749732 -0.3316452321743222
000190 f2 04 dc b7 b3 b5 e4 3f eb 1b 7c 10 be 3a 98 bf
       0.6471804228787319 -0.023661584621574788
0001a0 ee fc 52 87 7f e7 d9 3f 74 15 a9 dc f7 a2 b7 bf
       0.4047545262837521 -0.09233044755190695
0001b0 d8 f0 38 40 ff 1f c6 bf 01 35 02 1b 91 4f dd 3f
       -0.17285147319660754 0.45798137319145843
0001c0 6b 78 8d 3c 70 85 b9 bf 9f 2f aa eb eb b6 d6 bf
       -0.09969235876403253 -0.35491464628352704
0001d0 d5 bb 8e 1c a7 c1 c1 3f 4e 6e 0e 11 f6 dd b2 bf
       0.13872231382762715 -0.073699359096673
0001e0 a3 5d ac bb 6c 60 d4 bf b9 fd bd c3 9d fc c1 bf
       -0.31838529899092743 -0.1405217366955023
0001f0 c7 03 23 9d 10 c2 d8 bf 18 87 fa c5 93 37 e5 bf
       -0.3868447813547928 -0.6630343310136793
000200 08 c6 8e e5 11 9b e6 bf cf b5 c0 b2 69 a2 e0 bf
       -0.706429432253743 -0.5198257914795991
000210 87 5d f9 b1 47 39 bb bf b7 12 99 15 47 49 92 3f
       -0.10634277434416194 0.017857657140001062
000220 ef df 17 78 a3 df c2 3f b1 e8 7f dc da 4b e3 3f
       0.14744990695885415 0.6030096346505812
000230 50 be 0a 6a 67 f9 aa bf 75 80 dd 51 bd d3 e0 bf
       -0.05268405122239683 -0.5258471106462951
000240 67 de cb b0 d4 46 d4 3f 69 c8 9a 88 45 53 e6 3f
       0.3168231703307129 0.6976649921473498
000250 25 e7 4b 71 9f 6d dc 3f 15 a1 78 67 7c 1d d0 3f
       0.44419084610091125 0.25179967980013035
000260 6b 14 80 d8 84 9e cb bf 56 80 9f e8 47 77 e5 bf
       -0.21577511378578448 -0.6708106559199318
000270 c6 af 3e 92 6b 43 c6 3f 51 02 48 c7 af 91 da bf
       0.17393250122893117 -0.4151420065027525
000280 2f 70 e3 b5 a5 f0 d7 3f b3 6c ae 0b b4 e2 e5 bf
       0.3740629459623532 -0.6839237430716792
000290 cd 82 6e 6b a4 45 e6 bf 2d ba 4b 78 22 c9 e2 3f
       -0.6960012529635492 0.5870525693442851
0002a0 5f 55 a7 68 33 c6 d8 3f b5 54 04 08 3f e2 d5 bf
       0.3870972177513376 -0.34193397314931967
0002b0 b6 f9 57 89 62 62 e1 3f ac da 57 11 3d ab da bf
       0.5432598764889949 -0.41670157140417063
0002c0 8c 6c 3f d3 96 da e0 bf d9 a4 41 bb 2c 23 e2 bf
       -0.5266832471783274 -0.5667937905647263
0002d0 cf 32 2a 31 eb f4 aa bf 4d 68 5b fa 26 1d 9d bf
       -0.05264983153492652 -0.028431519537527362
0002e0 aa 05 22 35 a1 56 ca bf fc b4 29 e0 d3 54 dc bf
       -0.2057687291563018 -0.4426774682131762
0002f0 7a 90 ad 65 1d 3f e2 3f 17 ae f9 f8 0b 67 da bf
       0.5702044473550949 -0.4125394755744493
000300 35 98 e7 86 27 68 e6 bf 3c e7 9c 04 8b fc e2 3f
       -0.7002141604286921 0.5933280077071923
000310 6d dc d5 42 2d 52 a8 3f 96 98 7e e2 df b3 d7 bf
       0.04750195923673393 -0.3703536712513452
000320 f7 9a e9 40 2a 27 c7 bf 30 0a aa c2 13 06 dd 3f
       -0.18088272256428414 0.4534959221856836
000330 00 00 00 20 70 cd e5 bf 00 00 00 c0 61 a7 d1 bf
       -0.6813278794288635 -0.2758411765098572
000340 05 73 e7 aa be b0 b1 bf b8 7d 16 b6 21 93 c2 bf
       -0.06910316154921865 -0.14511510268219552
000350 7b 7e b8 73 f0 10 d7 3f 6f bc e9 f2 22 9b d4 bf
       0.36040889073226595 -0.3219687816808294
000360 00 00 00 80 ea 38 c2 bf 00 00 00 20 ec df ba 3f
       -0.14236193895339966 0.10497928410768509
000370 8a 00 75 11 17 35 ae bf 0a 6a e0 95 70 50 e0 3f
       -0.058998795395838036 0.5098193099286743
000380 36 70 d3 f3 2d 3f be 3f 43 2e 82 59 64 fb e3 bf
       0.11815154269010084 -0.6244374988759279
000390 ff 78 13 d9 04 34 d1 bf 5b a0 a8 b4 c2 d3 be bf
       -0.26879998396715615 -0.12041870985615459
0003a0 06 9d 66 78 7c c0 bb 3f e3 9f 58 a3 01 2a d3 3f
       0.1084058565089557 0.299438867109073
0003b0 14 7b 57 f3 15 85 da 3f 5c c9 fe 3f ca 79 e0 bf
       0.41437290920104997 -0.5148669481189176
0003c0 fd d8 91 22 fe 60 d9 bf ec be ca a4 0c c6 b1 bf
       -0.39654496551464985 -0.06942824385873408
0003d0 df 43 db 5c 4a f6 e2 3f 99 82 c7 e1 0d 0e c8 bf
       0.5925647557834245 -0.18792890095121065
0003e0 d0 c7 27 8e 6b 7d e2 bf 05 fc d8 1d ae 6c e1 bf
       -0.5778100754234803 -0.5445166190110063
0003f0 c7 c5 58 ec ea c0 e4 3f ee 9f 52 13 4e fd df 3f
       0.6485495201251802 0.49983550917613584

linear1.bias f8 [64]
000000 d6 ca be e8 62 37 d1 bf 45 3e 0a 03 14 ef c3 3f
       -0.2690055153754377 0.15573358677328222
000010 f7 f3 c8 6f d3 f7 ba 3f 86 38 8b 63 28 f8 e4 bf
       0.10534402350545223 -0.6552926964011625
000020 af f7 31 ee 09 71 e0 3f 03 4f 8c f1 a3 84 e4 3f
       0.5137986805200309 0.6411914556251478
000030 28 65 c2 3c f0 7c c6 bf 1a 11 43 74 76 18 dc bf
       -0.17568781821027213 -0.43899308541974025
000040 8b 5e d8 ff 9f af 98 bf 6f 34 a8 70 9f c4 d2 bf
       -0.024107456198264415 -0.29325090409913107
000050 88 75 98 b9 60 54 c3 3f 45 d7 6b 0c 94 39 de bf
       0.15101250707895653 -0.4722643014241508
000060 1c c3 e8 a6 b4 85 97 3f 81 a3 8c 60 bf d7 d4 bf
       0.022970984160738714 -0.3256681864609661
000070 2d 04 1e 8a 66 29 de bf 87 4a 37 c1 2a 67 6d bf
       -0.47127688873303236 -0.0035892329267224773
000080 45 61 30 54 49 ec e2 bf 00 00 00 40 b5 ce b7 bf
       -0.5913435596767519 -0.09299786388874054
000090 06 ed 78 b4 a4 22 c8 bf 94 a2 66 21 d6 53 e1 bf
       -0.18855723201873092 -0.5414839413034138
0000a0 43 a2 9e 04 7e f3 e0 bf d4 ce 7c 08 aa d9 e0 bf
       -0.5297231760242272 -0.5265703359386529
0000b0 9a 13 61 3c 9b a3 d6 3f 69 fa 32 d5 2e ef d5 bf
       0.3537357415810277 -0.34272356815555455
0000c0 ba 76 35 1c 14 48 bb bf a8 2e 74 e5 10 fe 8e 3f
       -0.10656858147327855 0.015133029940009493
0000d0 36 22 eb cf 1d 2d d1 3f 4e 19 0f 7b 1c 56 e5 bf
       0.2683786898092281 -0.6667616275306416
0000e0 be 6c ba e3 99 e6 d1 3f 42 33 b7 b5 ac 69 e4 bf
       0.27969977606853635 -0.63789973727544
0000f0 2d e5 7e 9b ee a5 e0 3f 46 46 75 79 b7 a2 e3 3f
       0.5202553784394347 0.6136128780582986
000100 b7 20 50 3b 8a 77 b5 bf c0 53 25 77 33 fd dc 3f
       -0.08385528514930028 0.45295416484196593
000110 fb 5d 08 10 80 ce e4 3f 1d 1f aa 34 ec fc d8 bf
       0.6502075493944511 -0.3904371752073404
000120 3b df 67 27 0d 69 e6 bf 45 16 22 4e 95 e3 91 3f
       -0.7003236550944857 0.017469723600262794
000130 f0 e6 db 9b 9c e6 d3 3f a8 78 2c e6 25 56 e1 3f
       0.3109504243908381 0.5417661185818092
000140 82 c2 7e 32 02 51 68 3f 45 8f fc c6 43 5d e5 3f
       0.0029683154025053624 0.6676348577934524
000150 01 95 29 8f 8a 3a c4 bf 38 e4 a9 df f7 eb e5 bf
       -0.1580365370784094 -0.6850547188215677
000160 bc fe 55 03 5d 34 46 3f d4 60 ae 4d 1c fd d8 3f
       0.0006776289143743601 0.3904486425976874
000170 e7 35 e1 56 56 18 c5 bf 84 86 e3 e6 7a 11 d1 3f
       -0.1648052143304277 0.2666918997548253
000180 e1 c4 4b 2b df 79 e0 3f d0 a5 8e 02 44 0d e2 3f
       0.5148769231438132 0.5641193437524468
000190 52 b3 e5 e9 e2 a3 d1 3f 00 00 00 c0 0f b3 c7 bf
       0.2756278309014323 -0.18515202403068542
0001a0 90 80 fa 0d fd 96 b5 3f 84 f2 38 2d 04 65 e0 bf
       0.08433515158913196 -0.5123310931445109
0001b0 00 00 00 e0 93 39 e5 bf 3b 5f 82 27 0b 70 c2 bf
       -0.6632785201072693 -0.14404429845012054
0001c0 5c a1 94 c1 6c 81 e2 3f 63 de c5 69 96 79 d3 3f
       0.5782989292975276 0.3042961152018277
0001d0 ea 9e b4 d2 03 9b cf bf 5b 92 b4 57 e3 67 d5 3f
       -0.24691818035466123 0.33446582379318607
0001e0 01 a9 3a 84 bf 61 7f bf 1e 8c 50 36 e2 3c e2 bf
       -0.007661579238325667 -0.5699320851166509
0001f0 64 b7 a1 3f 1a 42 e0 3f a0 56 11 ea 5a 52 d9 bf
       0.5080691569143991 -0.39565155847717826

linear2.weight f8 [3, 64]
000000 a5 aa 7b 04 7e 83 b5 bf 37 15 1b dc 98 f5 dd bf
       -0.08403766259622587 -0.46811505789476676
000010 b9 18 e3 ac c0 eb e4 3f 2f 99 8b b5 39 10 e5 3f
       0.6537783981991857 0.6582306428725014
000020 3e 3c e3 5e 18 52 a3 bf cc 1e 91 ad c9 3d e2 3f
       -0.03773571165367472 0.5700424566247988
000030 4e d1 fd 9c cc 9d 9e 3f 47 b1 80 7d 96 fb 9a 3f
       0.029898831445693212 0.02635035649306985
000040 78 1b 6b de db 0a e3 3f 78 b4 65 7c 4d 17 e5 3f
       0.5950755447491778 0.6590945653566811
000050 ef 22 e0 fc 94 44 e4 bf c0 d7 43 ef d9 cc d4 3f
       -0.633371824166799 0.32500313153957094
000060 f0 be 09 5f 16 17 e7 bf f3 23 b3 d2 6a b6 e3 bf
       -0.72156828462718 -0.616017734072669
000070 5b 68 b5 a0 1b e8 e4 3f 97 e3 92 44 2b 4a b8 3f
       0.6533334864464097 0.0948817293564289
000080 9c 44 4b 5c 08 de e2 bf 4e 76 41 99 4c 8c dc bf
       -0.5896035959832662 -0.44606318441751547
000090 39 d4 ef 5f 60 8a e0 bf 2f 4b 76 47 6c 41 a7 3f
       -0.5168916581884623 0.04542101261463071
0000a0 30 8e 37 43 36 ab e0 3f 96 d3 76 12 d7 c3 e2 bf
       0.5208998978454868 -0.586406265318703
0000b0 b8 17 5d 0e ee be e3 bf 66 ba f1 2f b9 8f 88 bf
       -0.6170568733730226 -0.011992880607263955
0000c0 cb 94 59 20 b3 01 b8 3f 95 39 66 a4 a1 ad df bf
       0.09377593555253154 -0.4949726205312797
0000d0 f8 aa 5a 7c fc 47 dc 3f 77 3b fa 9b 50 e1 df bf
       0.44189369338953055 -0.49812712890791694
0000e0 07 8e ab 20 cd 9b e5 3f 72 f7 77 f8 d6 7f 66 bf
       0.6752687109078018 -0.002746505608000876
0000f0 9f 90 e8 d3 2b 87 b6 3f 6e 79 4e ea d8 ac e4 bf
       0.08800004886194522 -0.6460995270061127
000100 f4 c8 94 34 45 68 a4 bf eb 93 c8 06 60 e0 df 3f
       -0.03985801951275106 0.498069769501227
000110 25 e4 8d ea ae a8 d9 bf 7d dc a4 97 27 06 e1 bf
       -0.4009206095284433 -0.5320013009831112
000120 b3 77 b6 23 3f 71 da bf 00 35 bd 4d 1c 4d e4 bf
       -0.4131620262868367 -0.6344129103032685
000130 fd d3 95 89 58 49 e3 bf 0e 16 65 51 d3 11 a1 3f
       -0.6027033507549501 0.03333912247266478
000140 66 39 1c cc d4 88 e3 3f 32 38 3e 74 0a 60 e5 3f
       0.6104530321625077 0.6679737348911259
000150 0a e0 a4 21 5f 1f e3 bf 56 71 a3 a7 31 ee a2 3f
       -0.5975795418844438 0.036973525727918385
000160 bc 14 94 ea 7d 40 e0 3f ab 6a cd 76 d6 cb b6 3f
       0.5078725415811713 0.08904781723451076
000170 40 23 95 6a e9 eb e4 bf 6c f9 ae 37 33 c8 a3 bf
       -0.6537978250208667 -0.038636780307103574
000180 55 d6 81 b0 27 91 e2 3f 50 92 33 90 cc 20 e1 3f
       0.5802191207319064 0.5352537933764072
000190 75 fb e2 78 99 76 de 3f f0 4e bd 9f da be cb bf
       0.4759887390645681 -0.21676190185336663
0001a0 1e e6 bb 79 5f 3b e1 bf 97 1a 29 05 ce 1a b5 3f
       -0.5384976747147368 0.0824402582739857
0001b0 25 d8 58 9d 75 8d a6 3f 42 9a 38 e5 99 4c dd bf
       0.044047999818232854 -0.4578003633963911
0001c0 ef 6a bb 2f 7c 4a e5 bf f9 da 40 7b e1 89 c9 3f
       -0.6653424198405825 0.19952028768758348
0001d0 ac b6 5a 68 2c 1d e7 bf 18 89 ea 7f 53 81 e0 3f
       -0.7223112142725845 0.5157868860590353
0001e0 0f 9e 7f 17 a6 53 93 bf 2a dc 57 ab 30 83 e5 bf
       -0.018873782333598096 -0.67226441827268
0001f0 65 06 0b 78 20 72 d2 bf 6a 3a e9 ab 26 7d b7 3f
       -0.28821574900584884 0.09175340363547382
000200 7b d1 9e 54 16 14 99 bf ae 9b e3 b0 0b 16 b7 3f
       -0.024490689196413378 0.0901801401956692
000210 f4 44 33 1d e1 d4 ab bf 20 c6 bc f8 b4 3b b3 3f
       -0.054358515562521165 0.07512980530443558
000220 f9 ec 07 50 44 e9 72 3f 79 53 55 39 9d dd b5 bf
       0.004616991850066692 -0.08541281366099253
000230 f8 36 a0 f2 e3 c0 9a bf 50 c7 47 b2 c8 40 bb bf
       -0.026126443561273555 -0.10645727493809187
000240 4a f9 f7 47 83 e6 b7 3f aa c2 b0 e8 5e b1 8d 3f
       0.09336109644934712 0.014498464084767921
000250 97 87 46 0a a2 2b 9a bf bc c9 a4 0b 84 7a b6 bf
       -0.025557071568648473 -0.08780694278974627
000260 06 1f 75 f3 4a a4 b0 3f 39 54 09 fa 2d f7 b2 bf
       0.06500690883433088 -0.07408416132359798
000270 7f 28 1a 17 a7 ef a6 3f cb 3f 68 eb 07 f3 bb bf
       0.044797154970255264 -0.10917710778471627
000280 fc 29 00 0c 72 a8 92 3f 3d 3f e4 76 d3 04 a6 3f
       0.01822069357153032 0.04300556970895151
000290 ea f2 e0 3c 68 55 9c 3f b4 15 3e 13 48 54 83 3f
       0.027669552531949394 0.00943809803699023
0002a0 71 bf 16 21 d1 1e bb 3f 81 33 cb c8 5c fa aa bf
       0.10593897874673332 -0.052691363821941735
0002b0 41 e3 7a a9 c6 bd a3 bf 1e c6 56 f3 96 7a 96 3f
       -0.03855725115631126 0.02195201740477703
0002c0 1a 02 99 bf 3d bc a0 3f e1 c8 42 52 e7 36 b2 bf
       0.032686166418447196 -0.07115026243517121
0002d0 11 87 cc a0 26 f1 a2 3f 12 dd 92 62 48 06 b1 3f
       0.03699608528974186 0.06650211721977353
0002e0 05 1a 9c 23 37 c7 bf bf a2 ca 14 4f 2f 48 b0 bf
       -0.12413353556994629 -0.06360145264333508
0002f0 39 01 c0 94 48 95 b8 3f 04 b3 e0 85 8e 47 92 bf
       0.09602788573829892 -0.017851092263458504
000300 ca b8 c5 86 3d 3a b1 3f a3 6c 16 56 d1 f9 a9 bf
       0.06729492702808951 -0.050734082945575375
000310 7a 70 67 11 89 61 b9 bf 90 47 81 8e f0 76 a1 bf
       -0.09914452242759522 -0.034110562701825775
000320 5e de eb ed 39 a0 b6 bf b7 54 9b ca 5a 18 b8 3f
       -0.088382359110136 0.09412162252859245
000330 17 76 d5 85 d3 98 b2 bf a2 36 7e ce 6d 1c bb bf
       -0.07264444367816512 -0.10590254107793354
000340 da c4 35 fc 6a 59 99 3f 7a ca 87 f5 96 b3 a0 bf
       0.024755164760283367 -0.032620160552956315
000350 df 53 be 0b 6d 77 ad bf e6 87 83 eb 2a cc 56 bf
       -0.05755177276947853 -0.0013914507999790381
000360 64 c4 e0 b0 17 a1 bb 3f db a0 16 ce c9 7d 9a bf
       0.10792682712851015 -0.025870469287526326
000370 83 e9 13 53 cc 88 a8 3f 26 31 24 e4 bd 2e b6 bf
       0.0479186870015438 -0.08665072269304072
000380 8a 2f 20 2c 08 7c b6 bf 14 fb 78 bf be bb ab 3f
       -0.08783007695472925 0.05416675650893957
000390 0a 56 84 d2 dc 8b b1 bf bd 21 b1 bd 31 bd b7 bf
       -0.06854038371633223 -0.09273062592649857
0003a0 27 5a e1 13 f4 54 a9 3f 72 05 3c 07 1d 1a b7 bf
       0.04947626822165701 -0.09024220873472702
0003b0 88 c5 c6 59 ef af bf bf ab 50 0a 07 aa b8 b1 3f
       -0.12377830449874783 0.06922400161630786
0003c0 e0 f2 fa 44 80 77 bb 3f 52 17 c2 54 7d 3f 9f bf
       0.10729219135368906 -0.03051563100645833
0003d0 82 5d ac 39 dd 38 b3 bf c4 8b 95 e9 f8 c2 9d bf
       -0.07508642824210734 -0.02906407285389513
0003e0 fd e9 8e c4 01 5f 9c 3f cb 27 10 94 6f 2d b6 bf
       0.027706172582591993 -0.08663079609701112
0003f0 1e be cf 61 25 ec a2 bf ba 54 5e fa 19 7b 46 bf
       -0.03695790118205998 -0.0006860615583145415
000400 00 00 00 00 3e b1 95 bf 00 00 00 c0 f8 bb b1 3f
       -0.021183937788009644 0.06927447021007538
000410 00 00 00 00 bd 68 92 3f 00 00 00 80 5d e2 b9 bf
       0.017977669835090637 -0.1011103093624115
000420 00 00 00 00 12 a8 99 3f 00 00 00 80 b7 ed b2 3f
       0.02505519986152649 0.07393977046012878
000430 00 00 00 00 a8 bf b8 bf 00 00 00 c0 b1 fe b5 bf
       -0.09667444229125977 -0.08591757714748383
000440 00 00 00 00 f4 79 bd bf 00 00 00 80 20 73 aa bf
       -0.1151421070098877 -0.05165959894657135
000450 00 00 00 00 61 d1 a0 bf 00 00 00 00 03 18 91 3f
       -0.032847434282302856 0.01669315993785858
000460 00 00 00 40 c4 a2 b5 3f 00 00 00 c0 c7 bc be 3f
       0.08451487123966217 0.12006805837154388
000470 00 00 00 c0 f8 c7 b0 3f 00 00 00 00 f5 e1 bb 3f
       0.06555132567882538 0.10891658067703247
000480 00 00 00 00 b9 52 a9 bf 00 00 00 00 96 d6 aa bf
       -0.049459248781204224 -0.052418410778045654
000490 00 00 00 00 1c 01 90 3f 00 00 00 00 c8 81 91 bf
       0.015629231929779053 -0.017096638679504395
0004a0 00 00 00 00 a4 ce 90 3f 00 00 00 00 fd 7a 90 3f
       0.01641327142715454 0.016094163060188293
0004b0 00 00 00 00 0d af a5 3f 00 00 00 c0 8a af b5 3f
       0.04235115647315979 0.08470980823040009
0004c0 00 00 00 00 e3 93 98 bf 00 00 00 00 6e b6 90 3f
       -0.02400164306163788 0.016320914030075073
0004d0 00 00 00 c0 e8 8a bf 3f 00 00 00 c0 ff a4 b0 3f
       0.12321333587169647 0.0650176852941513
0004e0 00 00 00 00 64 8c ae bf 00 00 00 80 25 09 ae 3f
       -0.05966484546661377 0.05866353213787079
0004f0 00 00 00 00 4b 8c aa 3f 00 00 00 40 f9 b8 b8 bf
       0.05185160040855408 -0.09657247364521027
000500 00 00 00 00 66 3f b2 bf 00 00 00 80 1b c0 bf 3f
       -0.07127988338470459 0.12402507662773132
000510 00 00 00 40 8f d4 b9 bf 00 00 00 c0 ac 2f b3 3f
       -0.10089965164661407 0.07494620978832245
000520 00 00 00 00 2f 74 a9 bf 00 00 00 00 71 42 be 3f
       -0.04971453547477722 0.11820131540298462
000530 00 00 00 00 fc b6 bb bf 00 00 00 c0 a7 ba ba 3f
       -0.1082608699798584 0.10441063344478607
000540 00 00 00 80 4a 22 a0 3f 00 00 00 80 25 f3 aa bf
       0.03151161968708038 -0.05263631045818329
000550 00 00 00 00 68 23 7f 3f 00 00 00 00 20 2f 8d 3f
       0.007602125406265259 0.014250040054321289
000560 00 00 00 00 74 7c 77 3f 00 00 00 00 51 dc bc bf
       0.005733922123908997 -0.1127367615699768
000570 00 00 00 40 45 26 b3 3f 00 00 00 00 a8 b4 66 bf
       0.0748027116060257 -0.0027716904878616333
000580 00 00 00 80 70 bb b2 3f 00 00 00 00 1c 8f 76 3f
       0.07317259907722473 0.005507573485374451
000590 00 00 00 00 44 db af 3f 00 00 00 80 0e 8a b7 bf
       0.06221973896026611 -0.09195032715797424
0005a0 00 00 00 40 3b 1e bb bf 00 00 00 00 41 27 a1 3f
       -0.10593004524707794 0.03350260853767395
0005b0 00 00 00 40 75 59 b9 bf 00 00 00 80 e4 51 ba bf
       -0.09902127087116241 -0.10281208157539368
0005c0 00 00 00 80 64 d3 b5 bf 00 00 00 00 20 2a bc 3f
       -0.08525684475898743 0.11001777648925781
0005d0 00 00 00 80 8b 2f be bf 00 00 00 00 9c 7c 7c 3f
       -0.11791297793388367 0.006954774260520935
0005e0 00 00 00 00 3f 64 b1 3f 00 00 00 c0 71 c2 be 3f
       0.06793588399887085 0.1201544851064682
0005f0 00 00 00 80 98 db bd bf 00 00 00 80 81 b9 b5 bf
       -0.11663201451301575 -0.08486184477806091

linear2.bias f8 [3]
000000 d0 46 8b 71 12 7b e0 3f f6 71 06 7e 3d 71 aa 3f
       0.5150234429986202 0.05164520419495837
000010 00 00 00 40 2d 95 b5 3f
       0.08430750668048859

encoderlstm.weight_ih_l0 f8 [256, 64]
000000 86 a5 3f c8 d9 0f be bf 8b 9b 6f 3e ff b9 b1 bf
       -0.11742936266786871 -0.06924433969798664
000010 30 00 6b 6d 3e 10 b0 3f 92 97 b6 70 22 7e c0 bf
       0.06274786158883283 -0.12884932044579195
000020 4e 7c 40 4a b0 39 bf 3f b1 e1 1e 4c 87 d7 a4 3f
       0.12197400868215988 0.04070685199934888
000030 63 d8 cd 8c 44 77 b3 3f 8d 6d 6c f8 3c 7e a5 bf
       0.07603863179778751 -0.04197874577058789
000040 d9 bf a4 fb 6f 8b a8 bf 8d e2 dd 37 29 0c a9 3f
       -0.04793882319279392 0.048920906133337196
000050 e2 1c 54 6e fd f1 bf bf 98 01 1b d8 e4 92 95 bf
       -0.12478622382706164 -0.02106816834452871
000060 e0 ce a9 52 e0 40 b5 bf 50 6d 0a 34 67 33 bb 3f
       -0.08302118318698204 0.10625309963727614
000070 e1 26 d8 8e 52 0c c0 bf 14 90 c7 f4 20 ad bd 3f
       -0.12537605261632392 0.11592298484862368
000080 85 20 1b 2a ac 1b a5 bf 00 00 00 00 30 50 a1 bf
       -0.041226749553573895 -0.03381490707397461
000090 2d f9 08 f5 3e c7 8c 3f 51 3e 11 29 21 c2 a5 3f
       0.01405190644538531 0.04249671579657089
0000a0 93 7d 92 29 63 87 b5 3f a5 97 1d 7b c0 cb a4 3f
       0.08409709706255901 0.04061700346828382
0000b0 a7 19 e8 df 7d 17 bb bf af 54 4d eb 3e cf be bf
       -0.10582720486136186 -0.12034981960944678
0000c0 a7 a5 09 57 02 81 99 3f 22 76 2c 46 86 d5 bf bf
       0.024906193315848004 -0.12435187543129492
0000d0 20 81 53 7a 5f ba a0 3f 8b bd b1 90 a6 f9 b7 bf
       0.032671912844081996 -0.09365311653686186
0000e0 5d 07 a7 36 46 0a ba 3f 2b 42 65 a1 e0 0f ac 3f
       0.10171927294052581 0.05480863542709743
0000f0 3a 75 c8 f3 da 6b ad 3f 50 b6 82 8a 02 b8 97 bf
       0.05746349550120518 -0.023162879661575098
000100 0e 64 58 4d 7d ed bb bf fd 11 b8 d2 0c 4b bf 3f
       -0.10909255159675998 0.1222389234972709
000110 b8 3f ed ad fb 82 9e 3f 43 1b 57 0d 67 19 ab bf
       0.0297965359598604 -0.05292818105549781
000120 7d 41 67 2f 57 11 91 3f 20 6e 04 e0 bf bb b2 bf
       0.016667711513777207 -0.073177330199933
000130 f2 c7 7d f5 48 1a a0 bf 6b 46 4b 98 d8 83 88 bf
       -0.031450538603976855 -0.011970226428647387
000140 aa a5 87 8b e8 cc 8b bf 9a 73 8b fb 24 6e ae bf
       -0.013574425466645963 -0.05943408556570447
000150 bb 1d 68 9c 96 8b b9 3f e6 96 6c af 3c af a9 3f
       0.09978619879267729 0.050165077604374095
000160 4b 35 60 df b3 9a bd bf 7b fd 8e e5 5b 26 b2 3f
       -0.11564182475577416 0.07089781145531575
000170 8e 0a 3e f0 c9 0c bf 3f 2c 8c 09 8c c0 cd ba bf
       0.1212888919381305 -0.10470202845458293
000180 8b cc 1b da 62 86 b7 bf 06 88 a5 4d 60 f8 a1 bf
       -0.09189431977192634 -0.03509808490595394
000190 88 50 0e b3 77 a6 b8 bf 00 00 00 40 25 21 ba bf
       -0.09629009362680752 -0.10206826031208038
0001a0 41 26 d9 e5 ee 63 a8 bf 53 44 4e 5f 06 7c 9d 3f
       -0.04763742976917885 0.02879342991542828
0001b0 00 00 00 40 7f b9 b1 bf 70 13 48 dd c9 bc 80 3f
       -0.06923671066761017 0.008172585549809347
0001c0 7e e3 6c 9b d7 3a b4 bf ae 10 eb 49 10 9b a2 3f
       -0.07902286095203512 0.0363392915947157
0001d0 88 25 f0 64 d1 76 aa bf ea d3 e9 ee 83 53 95 bf
       -0.051687758990804744 -0.02082639833175285
0001e0 ec c3 2a 7f 72 83 a4 bf b5 30 6a 09 21 bb 95 3f
       -0.040065362952539235 0.02122165317500509
0001f0 63 fb 2b eb fe 98 b6 bf 5f 52 bf 78 5b 25 b6 3f
       -0.08827203027247559 0.08650752733167043
000200 c4 df af 69 8d ec b6 bf e0 9d f3 85 eb 15 87 3f
       -0.08954700308083746 0.011272277856234802
000210 d8 38 77 7d 8d 72 aa 3f da da 46 7f c2 b4 8b bf
       0.0516552177101503 -0.01352836562078379
000220 18 d7 34 a1 94 bb 99 bf 73 20 86 15 c3 78 be 3f
       -0.025129625643976444 0.11903018260466229
000230 9c 7f 66 79 44 77 b7 bf da 28 82 56 28 f1 53 bf
       -0.09166362728001193 -0.0012171644139323174
000240 bf 20 cb 5a 8b 20 b3 3f 61 55 0b 73 a6 5a 78 bf
       0.07471533743512547 -0.005945825760780594
000250 88 40 9a f7 27 b5 91 bf 76 12 1a dd d8 9d b9 bf
       -0.017292618262729792 -0.10006480596536868
000260 41 83 8e aa c1 6d b2 3f fb 85 c1 27 2c 68 9b 3f
       0.07198725141507813 0.026764573980818423
000270 1d b8 b6 92 34 79 b4 3f ec 6c 0b 06 44 17 8e bf
       0.07997444707754693 -0.014692813333957187
000280 68 75 a1 91 94 f6 b9 3f 00 00 00 00 da 1c a1 bf
       0.10141876750409085 -0.03342324495315552
000290 32 38 6b 7a 5a 80 b7 bf 05 b8 41 12 3b d5 b0 3f
       -0.09180226792088389 0.06575364299507676
0002a0 45 a0 b0 55 5b 3d ba 3f dd 2f 14 c8 f0 63 b0 bf
       0.10249873010673223 -0.06402497181642226
0002b0 d6 4f bb 79 59 21 bc bf b7 8e e9 0d 82 86 a3 bf
       -0.10988387319531454 -0.03813558978870673
0002c0 74 67 f5 67 fa 94 a8 bf 8f f3 77 53 a5 08 8e bf
       -0.04801161307359694 -0.014664928064115816
0002d0 49 cd 33 1b d7 6e 9e 3f 9f 19 48 a6 8b 24 b2 bf
       0.02971969703226066 -0.07087014016733527
0002e0 8b b9 16 ba 25 25 b6 3f e1 93 ed 45 6c f6 b0 bf
       0.08650432389433697 -0.06626011569240077
0002f0 a2 86 02 a1 49 c4 b8 3f ff 1f c6 89 9c 21 a7 bf
       0.09674511128334953 -0.04517831022081963
000300 e8 73 0d 11 be cc b8 3f 40 11 6c 18 db 4e 78 bf
       0.09687412182161348 -0.005934577790643936
000310 39 bf 65 4f 56 0f 80 3f e3 18 fc fa 20 47 b7 bf
       0.00784175329019342 -0.0909290898090123
000320 01 b8 44 52 db 41 b1 bf c3 67 d6 d8 8e 82 a9 3f
       -0.06741114386088044 0.04982420346205132
000330 b0 c0 64 9f 43 dd bd 3f 3a 04 e7 07 3c c3 b8 bf
       0.11665747300571883 -0.09672904198579682
000340 29 70 65 ad 31 3a b7 bf 8a 96 17 76 c6 1c ae 3f
       -0.09073172076517778 0.05881328765444234
000350 c1 ba e4 f2 61 97 b3 3f 92 67 1e 97 97 ac b4 3f
       0.07652866535202475 0.08075854720519107
000360 db 50 64 9c ff 0e b9 bf cc e1 3f 61 14 b3 98 3f
       -0.09788510864410986 0.02412063449443895
000370 cb 25 59 ef 0b a9 aa bf 67 ef 56 ed 7d 28 b6 3f
       -0.05207097336512908 0.08655535740302654
000380 cd e6 81 f1 0f b1 ac 3f 45 16 8e 7f f4 53 ac bf
       0.05603837798203202 -0.0553280263621159
000390 b6 8a 55 1d b3 88 b0 3f 00 00 00 40 8f 9c be 3f
       0.06458587137380331 0.11957640945911407
0003a0 2c ee a6 f0 13 ae b1 3f 22 90 cb 85 ed ba a2 bf
       0.06906246781630249 -0.03658239610902593
0003b0 00 00 00 00 ae 87 a7 3f 67 78 30 27 d6 a1 a5 3f
       0.04595702886581421 0.04225033977876152
0003c0 b0 18 0e a2 5d 35 8a 3f 3a 58 df 3e c2 8b b4 bf
       0.01279709959795769 -0.0802575496194046
0003d0 0d 01 d0 14 35 22 a5 bf f2 e7 0f a3 06 6d 93 bf
       -0.0412766063600448 -0.01897058840038563
0003e0 69 b7 77 7f 96 3c b4 bf d5 75 f1 d9 a9 6a a8 bf
       -0.07904949771883953 -0.04768877778472428
0003f0 99 26 95 5e be eb b5 3f 41 89 f3 71 9c 36 b8 3f
       0.08562841233392716 0.09458329946531753
000400 e7 32 f4 d4 91 de b6 3f 76 d1 92 5c f8 8a ad bf
       0.08933364342756143 -0.05770088319823945
000410 0f 29 54 80 0e ea be bf dd 58 82 55 2e ea b1 bf
       -0.12075892098451767 -0.0699795683634394
000420 6c 57 24 09 8f 53 a1 3f 2e b9 f0 ea 70 49 b4 bf
       0.033840627542459284 -0.07924562202308458
000430 c3 d3 7c c6 8e bf b8 bf ac 74 a5 56 8a 26 ad 3f
       -0.09667293878449272 0.05693466479963524
000440 f2 87 bd 74 84 4a a7 bf 99 e5 93 d4 13 80 bc bf
       -0.045490397692233744 -0.1113293069828586
000450 08 a0 85 35 7f cf b8 3f f1 f3 46 69 aa 01 b9 bf
       0.09691615158737943 -0.09768166609042318
000460 36 9a f9 72 c5 2a af 3f 39 01 56 4f 35 fb 90 bf
       0.06087319401267559 -0.016583283393175583
000470 86 e4 86 a0 43 c6 b7 3f 02 eb c5 dc 4f ce 4b bf
       0.0928690211211621 -0.000848568911848119
000480 4a 7e fe 68 a3 05 99 3f 00 00 00 80 b5 60 aa 3f
       0.024435570987064538 0.05151908099651337
000490 3b 95 a4 6f bf d6 8a 3f a4 1c ce 39 2f a5 bb 3f
       0.013104911417551981 0.10798926507242129
0004a0 5c 2f 2a 8a 46 8e 9c 3f e2 b8 76 7a 34 29 98 3f
       0.027886488135251283 0.02359468457660164
0004b0 10 46 e1 1e 42 cb bb bf ed 81 63 f0 f2 2e b1 3f
       -0.1085702252760472 0.06712263459076669
0004c0 1a e1 79 3e 85 8b ae 3f 6a 6b ac 46 c3 f5 c0 3f
       0.05965820682189556 0.13250008536200691
0004d0 e5 fd b4 31 22 04 b1 3f 9e d5 bd 4f ef 77 a9 bf
       0.06646932328748496 -0.04974315498740654
0004e0 6e 8f 5c 97 a3 17 be bf a9 e0 53 f8 99 b3 a7 bf
       -0.11754820294714616 -0.04629212528556199
0004f0 d5 05 0c df ce 67 6d bf 15 28 f3 73 23 b1 bc 3f
       -0.0035895386175759194 0.11207791882330327
000500 83 fe 27 1c 4e 7b b3 bf 18 dc 57 c2 9e c9 b0 bf
       -0.0761002367726125 -0.06557647938448985
000510 c7 51 ce 1e 6e eb 9a 3f 84 80 ba 28 77 32 bb bf
       0.026288719778294636 -0.10623879188870161
000520 49 7b 6f 7f dd e3 b9 3f e1 ab 6a 72 23 19 77 3f
       0.10113319741456651 0.005639208283052506
000530 99 45 56 1f b0 77 b7 3f 0e 77 c2 aa 30 fe ab 3f
       0.09167004361213173 0.05467369160144929
000540 d8 cf 29 0a 33 50 a7 3f 85 ab 3e 3d ff 31 b1 bf
       0.04553374766410884 -0.06716914410814752
000550 e5 ca 61 bd bc bb b5 bf d5 66 ac e2 c0 9a a6 3f
       -0.08489589332183874 0.04414942519197288
000560 4d 72 94 4d 4e 86 72 bf 5f 15 96 db de f2 bd 3f
       -0.004522615309977396 0.11698716031067623
000570 38 7f 8f 5c 22 32 ad bf 23 73 16 62 9c bf ac 3f
       -0.05702311878098815 0.056149374936671735
000580 ae bc 51 e8 b2 a0 a7 bf b4 58 f2 67 87 e3 b6 3f
       -0.04614790998390937 0.08940931594620133
000590 6f fb c3 2c 17 1e bc 3f 00 00 00 00 68 68 74 bf
       0.1098341450014979 -0.00498238205909729
0005a0 5c 53 b8 53 bb 76 b9 bf da c1 47 e0 0d 82 91 bf
       -0.0994679526705346 -0.01709767991445852
0005b0 00 00 00 00 64 74 73 bf f6 3b 10 c5 7a 5e ba 3f
       -0.004749670624732971 0.10300414382093934
0005c0 ad b3 a7 c1 c1 11 b1 bf 5e 0d 63 55 cc fd a4 bf
       -0.06667719819934233 -0.04099882643051943
0005d0 e6 d2 ff 4b d6 d2 a2 3f 38 15 1e 8a 91 72 a9 bf
       0.03676480939603781 -0.04970221339230324
0005e0 bd 9d a8 f4 94 c2 95 3f 28 b6 5d f1 f4 40 b4 3f
       0.02125008338239608 0.07911616223074047
0005f0 82 88 f1 07 ea fe a1 bf d6 43 08 c1 6a 68 b0 3f
       -0.03514796587912007 0.06409327709867738
000600 70 29 3f 61 3b 23 7a 3f 15 c0 25 fc de fd 63 bf
       0.0063812560583279415 -0.0024403910803627673
000610 c1 c4 d7 4a 02 b2 b8 3f 7b 0b e9 03 97 8b bb 3f
       0.09646620108812255 0.10759872289149357
000620 3b 25 42 72 ea 4b 92 3f a1 cc cc 15 86 06 b7 bf
       0.01786772081735431 -0.08994329483248233
000630 d7 9d 50 49 3d 2e be 3f 16 b1 39 d0 58 f6 a1 3f
       0.11789305725016362 0.035082602899679724
000640 e7 47 0d b5 5b 64 b0 bf 02 c4 ec 12 73 5f 89 bf
       -0.06403134508334994 -0.01238908673767192
000650 f5 84 0f e5 2d 0c ba bf c5 ff 6d 07 22 50 a3 3f
       -0.10174834101009707 0.037720740706390234
000660 58 72 b7 27 42 8f bf bf 48 6e 1b 66 fc 17 84 bf
       -0.12327969998973154 -0.009811374536574338
000670 bb 9d 66 84 51 90 ba 3f 7a 0d 7f ea 18 a0 59 3f
       0.1037646244282006 0.0015640490837406083
000680 64 ae b7 ab 50 82 a6 3f 00 00 00 00 70 6d b4 bf
       0.04396297546540209 -0.07979488372802734
000690 63 6f f1 d8 be 46 98 bf 5f 6f 00 8c 04 29 a8 bf
       -0.023707372656971325 -0.04718794068341369
0006a0 17 c7 73 28 b8 6e a7 3f 02 e5 14 8f a5 2f aa bf
       0.04576659673501931 -0.05114476558305549
0006b0 14 3b 9c 83 50 e8 af 3f 54 58 9d 07 e1 d3 b2 bf
       0.062319294038493706 -0.07354551731018094
0006c0 d5 0c 80 13 5a fe a8 3f 01 9b 91 11 00 cb a5 3f
       0.04881555069007396 0.04256439413511793
0006d0 86 ee d4 ec 00 77 a8 3f 03 3f 44 68 ea 50 b7 3f
       0.04778292552006484 0.09107842488833388
0006e0 3f 83 2b 66 25 7a a3 3f c3 87 07 99 d9 be 9b 3f
       0.03804127571289095 0.02709522243993213
0006f0 5b 62 23 f3 3a e2 bc bf d6 20 1b 51 f0 2e bf 3f
       -0.11282700000755012 0.12180997829557624
000700 8d 9a 86 7f cf 13 98 3f 99 7a 49 e5 88 24 b3 3f
       0.02351307121139228 0.07477622602298552
000710 80 f0 7a e4 97 32 a4 3f 87 71 e2 7b b5 e9 82 3f
       0.03944849647584281 0.009234826892048143
000720 8b 81 47 5e e4 d4 a3 3f 45 82 33 1a 02 7d 99 3f
       0.03873361254568682 0.024890930985636456
000730 96 ce 58 1d db 78 93 3f 06 35 41 e1 40 98 a4 bf
       0.019015716234390988 -0.04022410154048299
000740 33 9b d9 be 88 f6 b9 bf fa 4a f3 d4 55 e4 b5 3f
       -0.10141806277679848 0.08551536988242595
000750 4a e4 87 da cf 15 b5 3f c0 0c 7e 98 26 5a b9 3f
       0.08236407361245415 0.09903184149702593
000760 24 17 ae 7e 5d df 8f bf c3 90 5d 9d 2d 25 96 bf
       -0.015562754085987125 -0.021626198510958938
000770 b7 be 0e de 07 1f 9d bf 3d 43 bf 28 81 6d 9f 3f
       -0.028438685348816075 0.03069116412354166
000780 f0 25 a0 65 eb da 80 3f 1c c8 26 ef c8 02 bf 3f
       0.00823005584608702 0.12113624418887564
000790 1d 1a 0a 88 2f b0 b4 3f 00 00 00 00 1c cc aa bf
       0.0808133799674597 -0.052338480949401855
0007a0 f5 e5 bd ca 42 7d af bf 39 6a a7 56 aa 08 a5 3f
       -0.06150253987193458 0.04108173663890508
0007b0 00 00 00 40 d6 7d b3 3f b0 20 87 10 62 96 be bf
       0.07613886892795563 -0.1194821634627512
0007c0 e1 55 a8 bd 14 37 9f bf 75 20 e0 90 37 c6 96 bf
       -0.030483554912356218 -0.022240513055323114
0007d0 8e 3d ea df e9 d4 7d bf 79 6e 94 08 92 bd a0 bf
       -0.0072831283311097905 -0.032696307704296275
0007e0 66 bb c8 e1 bb 8a b8 bf 7a ad 1e d5 61 62 a3 bf
       -0.09586691152865753 -0.03785997129974823
0007f0 41 a1 87 a7 23 d3 b3 bf ed 5c e5 7f d1 15 b7 3f
       -0.0774404796608268 0.09017667171916673

encoderlstm.weight_hh_l0 f8 [256, 64]
000000 63 f5 0c 95 ae 06 9d 3f e9 d1 1f c7 c6 99 b1 bf
       0.028345802161529387 -0.0687526928084662
000010 c6 48 1e 9a b7 2d 9b 3f c1 61 7f e2 94 f1 b3 3f
       0.026541584760317226 0.07790499238706784
000020 b0 60 bc d8 4b 0c b5 bf 65 5f cf d8 e6 4f b3 3f
       -0.08221887627985569 0.07543795388425918
000030 f0 f1 18 c0 b7 91 86 bf 1a f5 ba 62 9d 0f be 3f
       -0.011020122098778423 0.1174257627526071
000040 21 55 af 86 0f ba 5c bf 17 63 3c f4 f6 9a ae 3f
       -0.0017533446905322952 0.05977603656191926
000050 9d 94 78 96 b7 15 b3 3f c9 5d f5 9b ff 6e bc bf
       0.07455012725457029 -0.11106870229320188
000060 23 fd 9e eb 73 3e be bf 2d b4 2c 56 f4 73 ad 3f
       -0.11814045431582491 0.057525287169802965
000070 d7 c0 05 db 02 c1 ba 3f c2 85 c1 cd f0 4c 96 bf
       0.10450761649349559 -0.02177788024744643
000080 d1 95 96 10 d3 6b 6a bf f2 e3 72 fd 21 cf a6 3f
       -0.0032252428397494333 0.044549047649930076
000090 0e 5d 7a 7a 21 85 73 bf 85 35 5c a1 fd 1a 9b bf
       -0.004765635275951098 -0.026470149015087614
0000a0 cd 94 8f 0f 16 05 b4 3f 7f 32 50 0e 27 a1 bf 3f
       0.0782026088705436 0.12355274295277673
0000b0 47 26 38 92 d5 40 a7 bf 21 7f c1 bd c3 97 bb bf
       -0.04541652116683941 -0.10778449423514448
0000c0 a5 1a 5d b9 b1 4f ba 3f 6e 88 32 34 10 70 86 3f
       0.10277853751640949 0.010955931275308663
0000d0 52 f2 2e 96 bd c4 a3 3f fc 09 7c c8 68 e6 b7 3f
       0.038610386450703374 0.09335951704637319
0000e0 98 67 a4 66 8c a5 a3 3f 6e c5 65 d0 ac 11 a2 3f
       0.03837240937191594 0.03529109996714906
0000f0 da c4 30 eb 88 95 b2 3f f3 3b 3a 50 d4 13 ba 3f
       0.07259422056155831 0.10186507185629505
000100 08 96 c2 b7 f6 5e ba bf c6 4c 8c 71 65 76 ad 3f
       -0.10301153169947252 0.05754391680798103
000110 7e 47 fa f3 93 99 a0 bf 64 6b 20 16 64 87 bb 3f
       -0.03242170670740928 0.10753465213967456
000120 39 af 87 88 27 4b b0 bf ae 23 76 7d cf aa ac 3f
       -0.06364676554920558 0.05599068075668555
000130 a2 c7 64 68 d1 7e bd 3f b2 8b be df ac c7 a6 bf
       0.1152163390986787 -0.044492151558436346
000140 de 9c 59 31 9a 08 7f 3f 3b 8d 5c 7a 34 6e 88 bf
       0.007576563182374955 -0.011928949340989639
000150 06 d0 6f 86 28 d2 b3 bf 71 37 50 bc 39 f7 b8 bf
       -0.07742551118991522 -0.09752236220830725
000160 bf 6b ad ef 53 36 b6 bf 7b 94 e6 bd 87 99 b3 bf
       -0.08676647759914057 -0.07656143556831012
000170 cb 75 b6 4e f3 ff b6 3f b7 e3 cd 17 c5 47 a1 3f
       0.08984299346635465 0.03375068584040924
000180 38 a7 ca 2d 75 a8 92 3f 71 c1 64 e9 a6 17 8b 3f
       0.018220740241907424 0.013228706357580862
000190 80 a8 5e 1f 2d d4 b6 bf 93 d1 7e f7 a2 04 b8 3f
       -0.08917505279410598 0.09382074873321349
0001a0 d4 4c d4 d8 e7 39 a4 bf 5b b6 57 4f 3b f7 87 bf
       -0.039504285067005235 -0.011702025755734249
0001b0 0f ab c2 5e 39 f4 ae bf b6 18 60 a9 04 6d bb 3f
       -0.0604570320295662 0.10713223586216966
0001c0 13 d0 19 94 fd 0d a5 bf bb 05 bc 11 34 fe b9 bf
       -0.041122364357676265 -0.10153508599252963
0001d0 e4 6a f1 63 f8 c5 be bf 7a 0b 3f c6 3d 21 b3 bf
       -0.1202082866670185 -0.07472597208020018
0001e0 a8 95 83 9a 74 3d bc bf 90 45 74 5c cd 06 b3 bf
       -0.11031273624720106 -0.07432254321272169
0001f0 4e 3a 84 61 2e 04 6c bf 21 44 af b4 46 45 bd 3f
       -0.0034199624898357045 0.11433832083936625
000200 10 39 0d d1 7a 5f 98 3f 99 6b 47 f5 c7 e6 7d 3f
       0.023801726350307695 0.007300168119821837
000210 30 3c 8d 86 9b 5d b1 3f a3 21 3f 14 08 98 bf bf
       0.06783458743051152 -0.12341356748868874
000220 bf 75 be 47 f7 02 86 3f c2 2c e3 70 61 f8 ae 3f
       0.010747844578697817 0.060488743810844806
000230 aa 3e 73 d0 1b 6f bf 3f 5a d0 70 7f a7 59 78 3f
       0.12278913344493483 0.00594487599214596
000240 08 59 b1 6a a6 de 99 bf 21 cb 96 75 6b 78 b7 3f
       -0.0252634050960632 0.09168120976282214
000250 e2 17 73 75 72 88 85 3f 35 40 4e 2b 53 63 a8 3f
       0.010514158448483305 0.047632788692795115
000260 e6 8d 18 88 6b 15 bc 3f d0 65 c7 63 a5 ab a7 3f
       0.109701843954603 0.04623143046383016
000270 b2 f4 4e 6a fb 72 b7 bf 03 01 93 a3 a9 8b 9b bf
       -0.09159823747082177 -0.026899958237437193
000280 4f f1 67 c7 f9 97 a6 3f 72 24 8d 30 a8 69 a9 bf
       0.04412823256640996 -0.04963422386806195
000290 d8 32 35 8c 0e ee a5 3f 0f 0c 16 c5 08 b3 a8 3f
       0.04283185445328791 0.048240922983517114
0002a0 87 79 b4 24 53 33 a3 3f 0c 3f 5c 0a 8e 19 b0 bf
       0.037500951986873914 -0.06288993599832454
0002b0 ce 34 92 ed f5 95 87 3f f9 2f 8d 7e 8e a7 bc 3f
       0.011516496002764855 0.11193171109806589
0002c0 9a 10 46 e7 cf d1 a8 3f 6e e4 84 0e 21 54 aa bf
       0.04847573946156665 -0.05142310430751072
0002d0 ad a1 e5 92 eb 76 b6 3f c4 7a d4 fc b1 aa bb bf
       0.08775207840301986 -0.10807335302932147
0002e0 4d 15 2a 04 0f 7a b6 3f 7f 1c e5 a3 aa 3f b1 3f
       0.08779996730489366 0.06737772466031976
0002f0 67 e7 e7 42 48 c2 a3 bf 85 cc df 57 20 db b0 bf
       -0.038591631095143346 -0.06584360261313023
000300 b3 39 93 16 d4 1a b7 3f a6 f7 71 03 7f 12 a8 3f
       0.09025311995649225 0.047016114397578065
000310 59 ea b1 f9 72 58 94 3f 6d 3e ef 2c da d3 b1 3f
       0.01986865662591195 0.06963885876688787
000320 34 57 52 ae 17 a5 87 3f 88 20 02 4a b9 14 bf 3f
       0.011545357711195338 0.12140996987193564
000330 d0 85 63 b9 28 2f a6 3f 00 21 7c cf e9 d5 b1 3f
       0.04332854521795648 0.06967030826138298
000340 f8 aa c7 c8 0c e0 b2 3f ee d7 c9 5f fa f5 a8 bf
       0.07373123075346288 -0.04875166339199653
000350 5d 4f 80 2e b5 db a2 3f db 83 e2 44 21 93 bd bf
       0.036832487036149365 -0.1155262749839631
000360 49 52 66 58 18 fb be bf 12 f9 c3 4a ef 6a ba bf
       -0.12101890714831955 -0.10319419455843029
000370 4d fb 6b fd bc 58 b2 3f 80 05 47 9e ea d3 b9 bf
       0.07166653811507935 -0.1008898388309003
000380 64 4d d7 18 4e 64 a6 3f 32 f7 57 37 f7 5d ab bf
       0.04373401692614712 -0.05345127630788084
000390 11 c8 45 ac bc f5 b3 3f 60 31 04 a9 9e 5d b2 3f
       0.0779683991038669 0.07174102426887918
0003a0 cf c2 08 54 dd 34 a2 3f 83 ed 8a c8 6f d4 b1 3f
       0.03555957461174374 0.06964777608930288
0003b0 17 02 a3 1d a7 23 8d 3f 32 73 d7 e9 79 fd bb bf
       0.01422815856165109 -0.10933649024032091
0003c0 a4 a6 3e de 99 07 bd 3f 65 d7 70 d6 f4 0f b0 3f
       0.11339723277947172 0.06274347529764908
0003d0 ba 62 86 5f 84 e8 ae bf 57 d8 63 c6 a4 68 9a 3f
       -0.06036771455837227 0.025789808853879794
0003e0 c6 cf f7 4a 18 c1 73 bf 43 db 6c b5 9f 07 83 3f
       -0.004822821515961756 0.009291885112913461
0003f0 09 f1 0c 78 6d 13 b1 3f 69 df a1 c1 4a 68 b2 bf
       0.06670269184991552 -0.07190386988974996
000400 cd 61 9f bf 6f 04 ba bf 1c ba c9 e9 d6 9d bb 3f
       -0.10163019588743012 0.10787718970980403
000410 0c e3 41 ad 07 61 b1 bf 46 c3 3a 9f 80 7e a6 bf
       -0.06788681011120107 -0.04393388694496152
000420 d0 56 39 f3 a2 3c b4 3f a6 05 e1 03 df 3f b4 3f
       0.07905023992619964 0.07909959644987072
000430 6b 05 30 af 17 4d 7e 3f 21 9e 95 ce bd ef 8f bf
       0.007397739903354998 -0.015593989245373642
000440 2e 0c cd 48 96 99 b0 3f 1d a9 ab 63 83 c7 bc 3f
       0.06484355237357484 0.1124193304382612
000450 7c 37 e0 9b 1d 9b 93 3f a9 7c 71 6e 2c 48 b3 3f
       0.01914640678301492 0.0753200311314567
000460 60 24 e6 16 e3 f0 87 3f 1b f8 2e 90 72 a3 88 bf
       0.011689924370118898 -0.012030501389627848
000470 f6 4c 39 86 bf a5 b2 3f e3 79 e4 4e 08 0e 8a 3f
       0.07284161593388547 0.012722077281577654
000480 a8 d6 a3 73 8d 3a bb bf 62 42 9d 91 2c 33 b7 3f
       -0.1063621909450726 0.09062460475002745
000490 03 e0 08 a9 ad f9 aa bf cd 7d 8d 7e 30 25 84 bf
       -0.052686144718279614 -0.009836558210451063
0004a0 7c cb 77 c1 2e bb ad 3f 80 7b 60 25 d5 48 bd bf
       0.05806871520680709 -0.11439258730432122
0004b0 1b 12 32 29 69 3e 90 3f cc ee c9 e6 19 d5 b4 bf
       0.015863078250292966 -0.08137666592113674
0004c0 d2 4c 64 a1 02 a9 a9 3f 89 e6 ba af 33 53 94 bf
       0.050117571068904035 -0.01984864006110468
0004d0 3e 9d f2 50 0f 90 bf 3f 22 7b d6 51 14 8e b7 3f
       0.12329192854177948 0.09201170919412197
0004e0 e0 43 0e 56 46 f9 a2 3f 78 ad f6 09 34 f2 a2 3f
       0.0370580654190531 0.03700411435724055
0004f0 0c d5 04 e1 d6 86 a2 3f b5 4c 80 8c 3b 20 bb bf
       0.036184992759823315 -0.1059605806370197
000500 43 49 43 7b d9 5c 88 bf 74 e8 eb 64 d2 a4 b7 bf
       -0.011895846437628982 -0.09235873187927429
000510 ba 91 c4 5c 69 58 a0 bf 5d a6 4d f4 4c a2 bc 3f
       -0.03192452676219966 0.11185151066242711
000520 97 7f 9e 23 37 a7 94 3f 56 0f 7a e6 84 9f 7f bf
       0.020169126080531532 -0.007720488683506796
000530 5a 27 13 33 77 6a 83 bf 1d c7 50 ea 1f a1 b9 bf
       -0.009480410810642038 -0.10011481733888812
000540 a5 f2 47 7e 28 82 8a 3f 77 22 33 07 26 b4 a4 3f
       0.01294356952075166 0.04043692434203632
000550 af 9b 3f 7e 27 48 bc 3f 4c 59 81 96 52 1a ac 3f
       0.1104759867881586 0.054888325569367596
000560 19 7c e9 ad 0f bd 85 bf a9 3b d3 1a d3 8e b4 3f
       -0.010614511961817329 0.08030433087263468
000570 0a 6a 65 03 e5 f8 a0 bf 07 5d 06 8e 1f a3 a0 3f
       -0.03314891497094059 0.0324945317144572
000580 91 91 26 62 f9 b2 8d 3f 1c f3 cc d7 5c 0b b1 bf
       0.014501522357769388 -0.06657963055199584
000590 7d 0b c1 f0 65 a1 92 3f 92 87 78 11 dd 5d 9f bf
       0.018193810290778146 -0.030631498519262453
0005a0 db 0e 49 c7 2d 6a a1 bf ca 8d ce 15 2b 41 b2 bf
       -0.034013205124691935 -0.071306889366091
0005b0 49 08 48 eb 9a 50 82 3f 34 08 ca 30 b5 86 45 bf
       0.008942804627626215 -0.0006569275588648228
0005c0 2f 8c 16 07 df 87 bf 3f ea fa ec 49 5b 0f b0 bf
       0.12316698000954383 -0.06273432307078122
0005d0 58 67 8b e7 22 0e b5 3f 63 08 03 36 db 95 b1 bf
       0.08224695351546296 -0.06869287556313135
0005e0 69 85 01 f8 c6 6d b3 bf 7f 7d 89 53 23 64 be bf
       -0.07589381747086112 -0.11871548451880719
0005f0 3d 25 9e 72 7a cc b1 bf 69 e2 79 1c cb f4 a0 bf
       -0.06952634142193843 -0.03311762545212533
000600 3e a2 cf 96 86 19 b7 bf 89 5b 48 48 75 c3 ba 3f
       -0.09023324186240075 0.10454495444024138
000610 46 8d 5d f4 76 9f 9e bf 47 79 f7 5a da 6e bd 3f
       -0.02990518442619574 0.11497273178927002
000620 8d c5 0b b2 7b 97 75 bf 53 bf 18 58 4f 35 93 bf
       -0.005271418748394108 -0.018758048774713498
000630 46 c5 f9 1f c3 b9 a7 3f b7 ea f1 84 23 90 b1 3f
       0.046339128163604346 0.0686056327412342
000640 4c b4 4f 4c 72 ab ad bf 25 5d 14 6b 85 db bc bf
       -0.05794865781340572 -0.11272462715384231
000650 2c 2c 35 97 60 90 a9 bf db ce 92 53 6e e8 82 bf
       -0.04992963643834289 -0.00923238937898623
000660 fd 91 38 0e 00 9f b8 3f 45 5d a3 ac 16 b8 95 bf
       0.09617615077201687 -0.02121005467128369
000670 5f be e8 ed c9 11 ae 3f ca 5d cf c8 14 87 b1 3f
       0.058729467670102 0.06846742537106035
000680 d9 fd e7 b0 60 61 96 bf f0 c6 8c 07 25 fd a8 3f
       -0.021855841443537336 0.04880634038125986
000690 7a 40 f5 7f db 3d a4 bf 5b 61 aa 94 9e 3a 59 bf
       -0.03953443467128266 -0.001539854873646793
0006a0 74 d9 b8 7d 6b 36 ba bf 74 f8 39 3b c9 7b b8 3f
       -0.102392881578316 0.09563882537801921
0006b0 e4 6e 59 bd 9a 2d 86 bf 53 cf a1 10 83 b9 9d 3f
       -0.010829171088679819 0.029027984514370896
0006c0 df 40 10 62 6b 1d b5 bf ca da 86 2c fe a9 bb bf
       -0.08248015541198893 -0.10806263529853335
0006d0 c9 a2 a8 b0 32 84 5a bf 32 3f b2 05 62 7d b2 bf
       -0.001618432523750867 -0.07222569121426828
0006e0 80 c2 85 f4 f8 b8 b7 3f 34 06 c5 34 51 cc bd 3f
       0.09266620607173515 0.11639888323136277
0006f0 fa b1 05 f7 74 92 ba bf 9a 7e 1f b0 ee cd ad 3f
       -0.1037972548562677 0.05821176433505322
000700 8a 65 48 66 d9 12 bb 3f a9 dc bc 27 f4 a3 a5 bf
       0.10575636622561127 -0.04226649270133837
000710 41 65 a0 24 14 07 b4 bf 80 5a c7 16 12 49 b1 bf
       -0.07823301214411506 -0.06752121978875358
000720 5e 12 1f 06 5d 6a a6 bf 8e 83 d2 d3 02 62 be bf
       -0.04378023814891628 -0.11868302985614163
000730 07 65 52 59 63 4b 9a 3f 78 55 fc b0 ea 20 b1 3f
       0.02567820770909626 0.06690851994456704
000740 4b 66 59 93 a6 cd b7 bf 77 47 42 1f f1 2d b3 bf
       -0.09298173043625828 -0.07491976750523387
000750 a7 4b 42 72 2a c4 bb bf 42 70 fc c0 ec cb 9d bf
       -0.10846200265431936 -0.02909822395223239
000760 6e f1 98 18 f4 f3 91 3f 2a d1 1b e5 10 76 b4 3f
       0.017532171250637267 0.07992654412720826
000770 f9 3a 91 88 be 55 b0 3f 72 b0 d5 bc ff bb a3 3f
       0.0638083537498736 0.03854369335280773
000780 12 ea b6 14 b0 49 bc 3f 57 b6 ca 7b 5f 6b b4 bf
       0.11049938684201546 -0.07976338169347606
000790 ae eb be 06 48 2b bf bf b4 66 14 92 04 f1 bd 3f
       -0.12175417103473649 0.11695889059447034
0007a0 c8 dd ca c4 ba 60 71 bf fd 80 ff 1b 21 95 b0 3f
       -0.004242639127077515 0.06477553304239687
0007b0 ee f4 90 c7 0f e1 b1 bf 36 54 ca fd 0e d5 b9 3f
       -0.06984041807386962 0.10090726562550931
0007c0 d7 04 56 b2 1e bd a0 3f d1 67 b8 41 a7 b7 b3 bf
       0.032692870397122036 -0.07702107767582268
0007d0 7c 27 1e 84 95 a9 bf 3f 66 cb 80 8c 60 c4 ae bf
       0.12368139720470411 -0.060091988707788244
0007e0 c4 9a 1d a4 a1 f7 b4 bf e4 bc d5 b0 4e 74 bc bf
       -0.08190355545739708 -0.11114970986612921
0007f0 75 6f 7d 05 8d 61 a9 bf a8 1c 51 a0 e2 1b aa 3f
       -0.04957237903610593 0.0509939976405403
