checkpoints/final_without.ckpt (torch, 39681 bytes, 4 tensors)

linear1.weight f8 [64, 70]
0	0xbfa8337fe0000000	-0.04726791009306908
1	0x3fbc18f380000000	0.10975572466850281
2	0x3fb4c83ee63ea0d7	0.0811805069084842
3	0xbfa94eb2c2b05882	-0.0494285452515877
4	0xbfa85aed67057ca8	-0.0475687206514917
5	0x3f932a48953e9df6	0.01871598635594115
6	0xbfbc20428d441d7e	-0.10986724804762635
7	0x3fb2874b5bf77b3e	0.07237692828446726
8	0x3fb37de838fa8358	0.07613994017675674
9	0x3fa14054553e9df6	0.03369391956885785
10	0xbfb14074c0c6dbcf	-0.0673897715231384
11	0xbf9fb69afae37517	-0.030970021784800652
12	0xbfb883d59a883af5	-0.09576163313634452
13	0xbfb0cb0208110985	-0.06559765526711743
14	0xbf9e5f651126688a	-0.029660777255778238
15	0xbfb829f3096935c7	-0.09439009647140671
16	0xbfa1ac614d72ac02	-0.03451828070077313
17	0x3faf1ca9d18b86a8	0.06076555903360986
18	0x3fb5185e2a51c058	0.08240307362734833
19	0x3f71381ec4744cfd	0.00420391100421402
20	0xbfb2755e59188089	-0.0721034019011332
21	0xbfb2bcb8a489399c	-0.07319215790741967
22	0xbf9a3613f55e4856	-0.02559691605672073
23	0x3fa8102b156dea7b	0.04699835430706841
24	0x3fb2cfb339a5158c	0.07348175198884216
25	0x3fbd389b1454620e	0.11414498564079897
26	0x3fa0c278af220c2c	0.032733699205913375
27	0x3fb162e0ec7adc58	0.06791501782832776
28	0x3fad0fa0a3c7c5e4	0.056759853356094486
29	0xbfb2538cc604d7a9	-0.07158737024732766
30	0x3fa8799a70faf5f7	0.04780275944856876
31	0xbfb9b0a3d31dba4c	-0.1003515615864014
32	0x3fc171bc7bb5a3c5	0.13628345528129962
33	0x3f9937c8034bfc42	0.024626851273748203
34	0xbfa7819a0e9e5989	-0.04591065815400259
35	0x3fb1a672ba34fe08	0.06894604726857534
36	0xbfb34212cacb1b55	-0.0752269501782455
37	0x3fb575628e5ce230	0.08382240272192898
38	0x3fb63a350ed43050	0.08682567226441162
39	0x3fbb6a587e3bd5d0	0.10709145624044614
40	0x3f90654bdb50c12e	0.016011414776756876
41	0x3fb3cc271e3bd5d0	0.07733387458923535
42	0x3fb52fe3ff0a8a86	0.08276200272170273
43	0x3facec666972fccf	0.05649108922215761
44	0x3fc0bd664fa0725f	0.13078001869225184
45	0xbfb78c9374c8d904	-0.09198876954255658
46	0x3fb3dbb74f773f01	0.07757135095675595
47	0x3fae25f123699f1c	0.058883224079919055
48	0xbf8344f70293362f	-0.009408883825382379
49	0x3fa116ac7064f04b	0.03337611076355581
50	0xbf8076c0c0e06455	-0.00803900326359234
51	0xbfb34da3814fdf49	-0.07540342242270727
52	0x3f93398bb06936c5	0.01877420677401777
53	0xbfb663d79ad236b4	-0.08746097116292156
54	0x3fbe506a8050a7ea	0.1184145510930247
55	0x3f9b7bd66eadc796	0.026839590554522973
56	0x3fa4325196a35d8f	0.03944640125126419
57	0x3fb47a29f2e46d36	0.07998907260882934
58	0x3fab30d2ffc25b7a	0.05310687419949196
59	0xbf96a7d4779e70cc	-0.022124595452269344
60	0x3fa6817428e1595b	0.04395640372301798
61	0xbfaaedaffd674b45	-0.0525946614103732
62	0x3fb6bb7b09002ba5	0.08879822702162572
63	0x3fb03004c88050eb	0.06323270697641063
64	0x3f94c4e3163eaa66	0.020282314522470556
65	0x3fb711fc0fb44773	0.09011817344096844
66	0xbfb48bd9ade0d672	-0.08025894637179379
67	0xbfa2cdfb922f83ec	-0.036727773280070014
68	0x3f985ec02abaa20c	0.023798945053075157
69	0xbf810ba86f1e5b37	-0.008323017016477514
70	0x3fa9d75ae0000000	0.05047115311026573
71	0x3fb4f5e240000000	0.08187688887119293
72	0xbfa6d89879ef4aa4	-0.044621243366824076
73	0x3f7e186693ec3637	0.007347489065762817
74	0x3f93494a3842d56c	0.0188342663611442
75	0xbfba2ddd6d827939	-0.102262343631513
76	0x3fa0626df2322011	0.03200095731250497
77	0x3fa343c057789454	0.03762627666245835
78	0x3fae9c5e7842d56c	0.0597867509654105
79	0x3fb7209204fb0d8e	0.09034073468779111
80	0x3f9369185ca7158f	0.018955593733854633
81	0xbfa103e0838c5e1e	-0.03323270421804757
82	0xbfa6b2ee7b9bbfdd	-0.04433388956920201
83	0x3f793928f789454b	0.006158027674773091
84	0xbf83836b162c2a0a	-0.009528004278327468
85	0xbfb7fbcc8f48a848	-0.0936858987630852
86	0x3fb02de7e76c7d4b	0.06320046806330486
87	0x3f9a2f9930182072	0.025572198448600543
88	0xbfb746dc7f7d40d9	-0.09092500793963455
89	0x3fa6a9214879988f	0.04425910958961864
90	0xbfaacd8447a0da78	-0.05234921812409693
91	0x3f718774e61b037c	0.004279572139865514
92	0x3fbdcc78c2beebc8	0.11640124086890957
93	0xbfb024fb54160cf1	-0.06306429674991755
94	0xbfbcf96be6e1bb53	-0.11318086992990332
95	0x3fa7531ddf2bfdcf	0.04555600499406475
96	0x3fa3a4a9f62dad85	0.03836566095454955
97	0xbfbe2892dcf484e2	-0.11780660528576761
98	0xbfaa248aca6c29f2	-0.051060044488696735
99	0xbfb976d35b9a0f1e	-0.09946938501712707
100	0xbfb7651717849e0f	-0.09138626407786198
101	0xbfa02abfc51e3c76	-0.03157614976145677
102	0xbfa70775db0302b7	-0.044978793129762655
103	0xbfb7d0795d6088c2	-0.09302481202806503
104	0x3fbe0f23a6c162ea	0.11741850682427538
105	0x3fa7e9769effc5ed	0.04670305910975601
106	0xbf92a0ff01fd2f89	-0.01819227647437985
107	0xbfa6f35d3ab57e5b	-0.044825471321698195
108	0x3f7019f247576eb7	0.003930994416318326
109	0x3f6426280afeb9e4	0.0024596006478170163
110	0xbf8c205a5c5448a5	-0.01373358339563808
111	0x3fbaa3f37557f5d0	0.10406419386705257
112	0xbf842d461a0b73fb	-0.00985197798712
113	0xbfa5201dc2aad590	-0.04126065255460809
114	0x3f98614bb41eb057	0.02380865370621196
115	0xbfb25d731802cb5f	-0.07173842750743863
116	0xbfa5aa09855e72a9	-0.04231290581740172
117	0xbfa7b27f1d6057ed	-0.046283695541362004
118	0x3fb9918e9d99e141	0.09987727496798461
119	0x3fbb94bb3aa27373	0.10773821050174863
120	0x3fa871449bc5f7ac	0.04773916627435368
121	0x3fb0f1bfa3f512dc	0.06618879082550272
122	0xbfb8fc73a1d3e995	-0.09760210705636603
123	0xbfb873a432b84dba	-0.09551454771308601
124	0xbfb343e5618aceff	-0.07525476104165917
125	0xbfb83ef90965ae53	-0.09471088866637815
126	0x3fb0878fc3a51809	0.06456850553976791
127	0x3f55965c7ce9f306	0.0013175872042260907
128	0x3fb34a13a111e1ef	0.07534907038087345
129	0x3fb938932a99e765	0.09851951398914378
130	0xbfbdc6ae61815429	-0.11631288414476217
131	0xbf6dd66fa7fb2018	-0.003642290190189367
132	0xbfb7aa42a4148a42	-0.09244171625008682
133	0xbfbb0098b3199967	-0.10547785160597344
134	0xbfafd60a8d4f80b6	-0.06217987990362543
135	0x3fba7048ae0ca633	0.10327581643346022
136	0xbfb2228c693af674	-0.07083966797923741
137	0x3f9ef4395ccb9731	0.030228515900396494
138	0x3f7f77b8e31d3731	0.007682535377012732
139	0xbfa03b46bf4db536	-0.0317022427105748
140	0x3fb70fcf00000000	0.090084969997406
141	0x3fa69b7240000000	0.044154711067676544
142	0x3fa21216de1660b6	0.03529426060703271
143	0x3fac88931f365fc0	0.05572948223124241
144	0xbfafa1c743d33e90	-0.06178114607757579
145	0xbfb2380fc0c9a040	-0.07116793114403297
146	0x3fbc68de4d219110	0.11097516425212839
147	0xbfb35987a12e705e	-0.07558486638157677
148	0xbfb5cd7d63d33e90	-0.0851667755807688
149	0x3fb44b037e6cbf83	0.07926961742918874
150	0xbfa047f6a9901c71	-0.03179903812274965
151	0x3f9663aad81fbd7a	0.02186457580677146
152	0xbfa934e34b79bbb0	-0.04923162742931397
153	0xbfb803ac425ce0c3	-0.09380604381738337
154	0x3faababd129ca501	0.05220595218845326
155	0x3f5e5b99af93c794	0.001852893909298524
156	0xbfa68ea7b8429d25	-0.04405712246198793
157	0x3fb47edcf28d7ee8	0.08006077691743096
158	0x3fa257f3eae5cedb	0.03582727663424886
159	0xbfb978acf750b9bd	-0.0994976142689898
160	0x3fb70bd61834b873	0.0900243577095539
161	0xbfa290208e142426	-0.036255853026951265
162	0x3f5748e68b3e288c	0.001421189442199852
163	0xbfa1745fa3f1275e	-0.03409098507161333
164	0xbfa678556b78ee47	-0.04388682305258534
165	0x3f8e16fc6178cea9	0.01469227955303805
166	0x3fadf2bd7959216e	0.05849258524227961
167	0x3fb7f2dc8bedf9f9	0.09354952255487338
168	0x3f7826f12fa1c9b5	0.005896513112121961
169	0x3f97c7027f6d1ac1	0.02322009947536219
170	0xbfb11a829f805078	-0.06681076425621935
171	0x3f48f5d4cad82e6e	0.0007617272401047712
172	0xbfb14a066175a47b	-0.06753578071006132
173	0x3fb23f573582c826	0.07127900177400245
174	0x3fb9579e548f53ba	0.09899320187044128
175	0x3fbdedd1730f6a6c	0.11691006716811508
176	0xbfbeb43411e985c2	-0.11993718564328673
177	0x3fa486f4802518e2	0.040092125551881144
178	0xbf9d579f179a9a46	-0.028654561820667966
179	0x3f965a866622de21	0.021829700454615634
180	0xbfa52932fbcd4d20	-0.04132994960550662
181	0xbfb6793f5e774875	-0.08778759056375114
182	0xbfa13786e37ca070	-0.03362676169337042
183	0x3fb69e05d02388d8	0.08834873515619124
184	0x3fba6e72ca6a0615	0.10324780885459746
185	0xbf99260945069785	-0.024559159124371916
186	0x3faafc0ebd24b8dc	0.052704296673583534
187	0xbfb08950b2a6d492	-0.06459526406873042
188	0x3fa03f5105756588	0.03173306647904456
189	0x3f93b38a4fcff2d2	0.019239579316478857
190	0x3fa08b44adc61233	0.03231253262768909
191	0xbfb8976435713204	-0.09606005005588975
192	0x3f859203585afb7a	0.01053240407361299
193	0xbfb1ee3d46d660b7	-0.07004149417332682
194	0xbf731d662cc4a3af	-0.00466670906124815
195	0x3f938a8b5f11c24e	0.01908319251782791
196	0xbf895c531873cecd	-0.01238312643406605
197	0xbfb6686edf72e039	-0.08753102259913782
198	0x3fb53f0db8f0a302	0.08299337163101586
199	0xbfb0c098563765ca	-0.06543876747982505
200	0x3f7e252f6efbfdee	0.007359681403385816
201	0xbfb49df5ecfbeb4e	-0.08053528819793351
202	0xbfbe269aab112343	-0.11777655292929716
203	0x3f735f3c03f8f27e	0.004729494510283259
204	0xbfba309d1d12066b	-0.10230428657271211
205	0xbf6da42c509ecc25	-0.0036183228994217825
206	0x3fb1555990ed1677	0.06770858562694025
207	0x3fb337444eb6841b	0.0750620548410698
208	0x3fac1f12fdd866a2	0.05492457722375589
209	0xbf88b7c2a0700b96	-0.012069244881791435
210	0xbf951a19e0000000	-0.02060738019645214
211	0x3f83a0d4a0000000	0.009584103710949421
212	0xbf9783537c035904	-0.0229619068566871
213	0x3fbd5ffd681f141f	0.11474593917871843
214	0x3fabacc1c3fca6fc	0.05405240552347654
215	0x3fb22113b03e2858	0.07081721356203852
216	0x3fa0da3035fafa82	0.032914644803430995
217	0xbf9c72399e8b0e07	-0.027779484082897123
218	0x3f94bbe33ff29bfa	0.02024798467450848
219	0xbfb009827f83af55	-0.06264510739464176
220	0x3fa7d96629f7a17a	0.046580498335802425
221	0xbfae9689aec9365a	-0.05974226244562138
222	0x3fb6529925fafa82	0.08719784905677311
223	0xbf97506b1d161c0b	-0.022767709398547036
224	0x3fa4770dedf4487a	0.03997081308092816
225	0xbfab4e88ae4ce5b2	-0.053333541180517044
226	0x3f991318dc7bff29	0.024486912209794518
227	0x3fa785c66add5e7a	0.045942497773180116
228	0x3f9ef5a3b8d7c6be	0.03023391547862419
229	0xbfa13e90ac60eb4a	-0.033680459062870385
230	0x3fbc706ff82e99dd	0.11109065827495308
231	0xbfbbca1430ce5cb8	-0.10855222884707671
232	0x3fc0974fc033ec1d	0.12961766133216282
233	0x3fbc0e8eca8b0560	0.10959713406466198
234	0xbf85cc636222ce85	-0.010643745834705296
235	0x3fa744673bacf076	0.04544375041447861
236	0xbfa11026bdd361ec	-0.03332634989937219
237	0x3fb2030b8a35de1a	0.07035896419790114
238	0xbfb4555adc4c2e67	-0.07942741278037034
239	0x3fbb0facf6cb7072	0.10570794129620412
240	0x3fc0d76ceca190c6	0.13157426409009626
241	0x3f8f554b3b651acf	0.015299403905954105
242	0x3fb1399f32f007f3	0.06728548997492094
243	0x3f9a0003d61c3a9d	0.02539068216634154
244	0x3fb7e088fbf259ee	0.09326988364259822
245	0xbf98a10f051c0f1d	-0.024051890074601723
246	0x3fb0d98746e2736f	0.06581922035770814
247	0x3fa8b4582cb71be9	0.04825091882553762
248	0x3fb675738a0f8eb7	0.08772966499923994
249	0x3fa4d1028662a83b	0.04065711870619323
250	0x3fa8cd01a41f1d68	0.04843907478749082
251	0x3f9372390cc5506b	0.01899041309782527
252	0x3fba03ef7cd4a740	0.1016225509416957
253	0x3fb52cf282464f3c	0.08271709137471545
254	0xbfaa0d2ba0cc806b	-0.05088173234821699
255	0xbfbe08b3dea4b5a3	-0.11732029138212012

linear1.bias f8 [64]
0	0xbfa2eac269216b80	-0.036947322209662126
1	0xbfba7808a7d7af39	-0.10339407060353957
2	0xbfa37e5b779d3380	-0.038073404647184894
3	0x3f98a5fa710c5b4c	0.024070656919401842
4	0x3fa27d98abf20521	0.03611447428648718
5	0xbf69bfd5e0000000	-0.0031432320829480886
6	0x3faf357580000000	0.060954734683036804
7	0xbfaba6ff10b22131	-0.0540084560280455
8	0x3fb3a559bf5bc2fd	0.0767417995628072
9	0xbf9ea6277086f09f	-0.02993070244132012
10	0xbfbbff8998eab327	-0.1093679426509878
11	0xbfaf117817d72ad1	-0.06068015376111691
12	0xbfa0d9d88b00fc32	-0.032912032097094715
13	0x3fb02b685e36731c	0.06316234874834631
14	0xbfaa46f37a89976e	-0.05132256384676635
15	0xbfaca7f6886c6282	-0.05596895613979759
16	0xbfb45e5477be40a5	-0.07956436084191638
17	0x3fa12eb9a804e0e2	0.03355961013807175
18	0x3f7c5d8c5ccf921e	0.006925152102642799
19	0xbfa187340ee95fcb	-0.03423464471842371
20	0x3f596cdf2927c402	0.001551835947449343
21	0x3fb6e46425db12f5	0.08942247318470804
22	0xbfafb82d44c6f13a	-0.06195203270496781
23	0x3fa4d16fb32296b5	0.04066037236888801
24	0x3f96d2fedfa057ca	0.02228925933749063
25	0x3fb4120c7eed1ae0	0.07840040301116913
26	0x3fa8e99fbefe9ff9	0.048657409729742036
27	0xbfbd41c38895bfee	-0.11428472599595782
28	0x3fa749b6597dd0bf	0.04548425524163368
29	0xbf9bcaa54862cea6	-0.02714021925267098
30	0xbfbdb5a420000000	-0.11605287343263626
31	0x3fba0fc6f491ebd5	0.10180324049899465
32	0xbf8ac8a0b13c6198	-0.01307797947770055
33	0x3fb38754d67e76e5	0.0762837432543751
34	0xbfb2619960000000	-0.07180174440145493
35	0xbf89cdd54668549f	-0.01259962674252285
36	0xbfa63346b3170613	-0.043359956132473475
37	0x3f78cfdd5d594743	0.006057610231055058
38	0xbfbe6197362fee89	-0.11867661545687204
39	0x3fb1b2e92a523c7d	0.06913621218903816
40	0xbf842241bc598343	-0.009830964622950971
41	0x3f95a571c31329c5	0.021138932734894107
42	0xbfb0d954bc0c8d4f	-0.0658162078003006
43	0xbfb1e857e241699e	-0.06995152734581331
44	0x3fbbde54b83b2daf	0.10886125085669705
45	0x3fa2a199433fddcc	0.0363891501037262
46	0xbf966126fbabec3b	-0.021854981528104594
47	0x3f80f266613f34bd	0.008274841158618757
48	0xbfa731c3e0000000	-0.04530155286192894
49	0xbf84c485f459479c	-0.010140463370735202
50	0xbfb53ac0cc8354ff	-0.08292775147431895
51	0x3fb6c112658730cd	0.08888354281151863
52	0xbfa95e87a940e8ec	-0.04954933110316681
53	0xbfb5d50811f2e646	-0.08528185308650746
54	0x3fb5521e00000000	0.08328425884246826
55	0x3fb49372fec5e1c7	0.08037489624064796
56	0x3f5048fd5c1f124d	0.0009939645974422929
57	0x3faace0f874043d1	0.05235336805356606
58	0xbfaf9df224951f85	-0.061751906362189
59	0x3fbb05bd7538dddb	0.10555633651608025
60	0xbf6551a02b09445f	-0.0026023987086678936
61	0xbf9c4b7900814788	-0.027631655364821067
62	0x3f90e1919ddeebe9	0.016485476742427983
63	0xbfa0f9be4ae01802	-0.03315539039617478

linear2.weight f8 [3, 64]
0	0x3fc33619c76825b8	0.15008852230702785
1	0x3fac6e48c6b75d51	0.055528902299267664
2	0xbf9587fa4abf109d	-0.021026526271967872
3	0x3fc49bd900368ada	0.16100609312441955
4	0x3fbb2b23c92ddb64	0.1061270109329207
5	0xbfbe710480000000	-0.11891201138496399
6	0xbfb05cd940000000	-0.06391675770282745
7	0xbfa9372054a51aaf	-0.0492487052275029
8	0x3fd0a3656f7d906f	0.2599729145788449
9	0x3fc91216dc653660	0.1958645416402076
10	0x3fb5cd968951df37	0.08516827442678908
11	0xbfb6a2cabf89a532	-0.08842150856221023
12	0x3fa4e7531f21968d	0.040827367353626
13	0xbfc04be70354cf1a	-0.12731635725651175
14	0xbfa9f389d2b0865a	-0.05068617531675264
15	0xbfb8851344605364	-0.09578056735365476
16	0xbfb0e2b0fe35d2fd	-0.06595903593354176
17	0xbfad2266289dc664	-0.056903068979306665
18	0xbfb200ee1e3e79ff	-0.07032669294719794
19	0x3fb9ecc9636ea73a	0.1012693279032221
20	0xbfac682c6f499bca	-0.055482281289009075
21	0x3fc115f2b842753b	0.13348230359125943
22	0xbfbc5419f6856b2e	-0.1106582857950513
23	0x3fa144f7b541dce3	0.03372930610287896
24	0x3fad929b899ef233	0.057759151982712
25	0x3fb0cf823eafd03c	0.06566633253515958
26	0xbfb44d3ebef86772	-0.07930366670953307
27	0x3fb89b28fb4fb8ea	0.0961175550034771
28	0xbf40556e96660d43	-0.0004984655359269525
29	0x3fc6345cbf8e1f3a	0.17347297051696292
30	0xbfbde37dc0000000	-0.116752490401268
31	0x3fcc4bf47f1d712a	0.22106796461856365
32	0xbfbd020e6bedceeb	-0.11331262717231609
33	0xbfba69c6878eb6cf	-0.10317650613316263
34	0x3fbe362280000000	0.11801353096961975
35	0xbfa6fd78e5b4446a	-0.04490258983617752
36	0x3fbf0fc028d058bf	0.12133408543045031
37	0xbfb3f550278a2337	-0.07796193089792501
38	0xbfb3b06d28dfc5ee	-0.07691080329802677
39	0xbf88e272da1422a3	-0.012150666504127832
40	0xbfbd02bfec3a812b	-0.11332320706651859
41	0x3fbdac5d950f298d	0.11591133965627005
42	0x3f91da0b841665b3	0.01743333810518317
43	0xbfbb1573c31a82ac	-0.10579608453054828
44	0x3fa6ded16a8669dc	0.04466871667246483
45	0xbfb0e3a14d15390a	-0.06597335941225793
46	0xbfb5f4fc39ef6c9f	-0.08576942839083522
47	0x3fb56b8e847f0a85	0.08367243513843377
48	0xbf9dab7900000000	-0.02897442877292633
49	0x3fb1b7d95bbf63d2	0.06921156396801045
50	0x3fb73368aec01d2c	0.09062818781250276
51	0x3fb9e1279cbb1895	0.10109183861195199
52	0x3fa5afb8b1e82ca8	0.04235627338138076
53	0xbfb757c7739e53be	-0.0911831528922695
54	0x3fa5a1f700000000	0.04225131869316101
55	0x3fb77d95a73a51b7	0.09176001866064253
56	0xbfc22f09368eb19f	-0.14206042446074904
57	0x3fc710e268236f4c	0.1802027710426678
58	0xbf953471b9da4b4c	-0.020707871407079012
59	0x3fb545c1517515f9	0.08309562910752523
60	0x3fc560575203dca0	0.16700259689944108
61	0x3fbb07cacbfac6f6	0.10558764915438332
62	0xbf99864184587ff6	-0.024926208212605126
63	0x3fbf653deb2cae55	0.12263857833448218
64	0x3fac98731d252564	0.05585059862876099
65	0xbf9bfb5696ca8017	-0.027325966790726932
66	0x3fa23e9a09495344	0.03563386309966757
67	0xbf87acb4dfc95b68	-0.011559880332397035
68	0x3faabc81fa6d3d70	0.052219449824970066
69	0xbf9268b500000000	-0.017977550625801086
70	0x3fb8baae80000000	0.0965985357761383
71	0xbfbb4d963fb7638a	-0.10665263228965052
72	0xbfa537aa290e959b	-0.04144031287368507
73	0x3fb09f6c4e9f0770	0.06493260306799953
74	0x3f88ba0dacab9e93	0.012073618728620594
75	0xbfaafc561036036a	-0.05270642230880791
76	0xbf89e47bc41abd02	-0.012642828867085235
77	0xbf873229a9502bbd	-0.011326146583106817
78	0x3fb577830ce2352c	0.08385485710660551
79	0x3f75ffde0bf8b07f	0.005370967264337278
80	0xbfaff15259e39a8d	-0.06238801333693287
81	0xbf733521abce97fd	-0.004689342048470377
82	0xbfc13f4cea67a282	-0.13474427648113269
83	0x3f9c8d63596b786e	0.027883102734329084
84	0xbfbe1785521e6e91	-0.11754639868598306
85	0xbf96a1e8530e9695	-0.02210200316371543
86	0x3fb0ecdcf506e366	0.06611424429037313
87	0x3fa827e52dfa1510	0.04717937647095927
88	0xbf5ee17cad9846ea	-0.001884814983331424
89	0xbfb95f9747ec6b12	-0.09911485200829542
90	0xbfb8df9e50487ab8	-0.09716214618718311
91	0x3fbc7d5bd51873c2	0.11128782227065329
92	0x3f8bb8d672075c76	0.013536143641358783
93	0xbfbc02ec514b40db	-0.10941960320201664
94	0xbfa5c46b00000000	-0.04251417517662048
95	0xbf948be5e5e9a68c	-0.020064918668515605
96	0x3f8b46e3b4bcce47	0.01331880469624659
97	0xbfbe4da073543d55	-0.11837199035311603
98	0xbfbd30fb40000000	-0.11402864754199982
99	0xbf9e5aa23019c659	-0.029642614541847887
100	0x3fa0b174b4beeac2	0.03260388094300516
101	0xbfac760f9e376026	-0.05558823400832606
102	0xbfb514c906547f8b	-0.0823484077886844
103	0x3fb4e817aa9b726d	0.08166644969191746
104	0x3fad847c4f10c6ad	0.057651409770540375
105	0x3fa817d9e82f7b96	0.0470569702081242
106	0xbfa4e6815d8cb74f	-0.04082111613239069
107	0x3fb707c394dcc634	0.08996221908889696
108	0x3fb89c1c04a3f3f8	0.09613204110424067
109	0xbfbac7d3b34b415a	-0.1046116173486146
110	0xbfb6698e3658be82	-0.08754814936468772
111	0x3fa3cd88d86918af	0.03867747918825281
112	0xbfa1166200000000	-0.033373892307281494
113	0x3fbc55e625ec048b	0.11068571496800154
114	0xbfa474b083980015	-0.03995277029389414
115	0xbfb0e7227e2675ed	-0.06602683620300072
116	0xbfbef33b1e4916f6	-0.12089890946762324
117	0x3fbbe0500c3e3272	0.10889148997211764
118	0xbf8925b200000000	-0.012278929352760315
119	0xbfb59047160a6f38	-0.08423275268654329
120	0x3f7edfe3f5b136ee	0.0075377373387490575
121	0x3faafa7a23e86a1f	0.05269223869636996
122	0x3faa31df9a6c7912	0.051161754227211045
123	0x3fad31d2fe64cc95	0.057020753435062556
124	0xbfbc5eecf25cbc55	-0.11082344929740036
125	0x3fb874c1a9639ca0	0.09553156266666685
126	0x3f9f251fb3ee345e	0.030415053708157884
127	0xbfaf1c2ce3bf5e58	-0.060761835862362445
128	0x3f95936a00000000	0.021070152521133423
129	0x3fb3bfa200000000	0.07714283466339111
130	0x3fb9bbb600000000	0.10052049160003662
131	0xbfb1d02d80000000	-0.06958279013633728
132	0xbfbb5ba280000000	-0.1068669855594635
133	0x3fb8a1d640000000	0.09621943533420563
134	0x3f867b5200000000	0.010977402329444885
135	0x3fb7e71700000000	0.09336990118026733
136	0xbfb4dc23c0000000	-0.08148406445980072
137	0xbf8654aa00000000	-0.010903671383857727
138	0xbfab892900000000	-0.053780823945999146
139	0x3fb0b9d0c0000000	0.06533531844615936
140	0xbfbc992800000000	-0.11171197891235352
141	0xbf90336900000000	-0.01582111418247223
142	0x3fb52d1a40000000	0.08271946012973785
143	0xbfb75bd1c0000000	-0.09124480187892914
144	0xbfb75ce280000000	-0.09126105904579163
145	0xbfb03fad80000000	-0.06347164511680603
146	0x3fbacde440000000	0.10470415651798248
147	0x3f9d6fb200000000	0.02874639630317688
148	0x3fb586f880000000	0.08409073948860168
149	0xbfa88d1b00000000	-0.04795154929161072
150	0x3f83f68c00000000	0.009747594594955444
151	0x3fbbd25080000000	0.10867789387702942
152	0x3fbfde7340000000	0.12448807060718536
153	0x3fb01d2200000000	0.06294453144073486
154	0x3fb43ebc80000000	0.07908228039741516
155	0x3fb35e1f00000000	0.07565492391586304
156	0xbf7c67f800000000	-0.006935089826583862
157	0x3fb03cfa80000000	0.06343045830726624
158	0xbfb5950040000000	-0.0843048244714737
159	0x3fbb48dc00000000	0.10658049583435059
160	0xbfa6030180000000	-0.04299168288707733
161	0xbfb6a96780000000	-0.08852240443229675
162	0xbfb2792dc0000000	-0.07216154038906097
163	0xbfbca9d200000000	-0.11196625232696533
164	0x3fa384db00000000	0.038122981786727905
165	0x3f9940e200000000	0.02466157078742981
166	0xbfb5c5da40000000	-0.08505024015903473
167	0x3fb38f7a80000000	0.07640805840492249
168	0xbfbb70a940000000	-0.10718782246112823
169	0x3fa0d28d80000000	0.03285638988018036
170	0xbfa83ffe80000000	-0.04736323654651642
171	0x3fb81cd080000000	0.09418967366218567
172	0xbfbb78e900000000	-0.10731369256973267
173	0x3fb6f07dc0000000	0.0896071046590805
174	0x3f9b52a700000000	0.026682481169700623
175	0xbfba84b800000000	-0.10358762741088867
176	0xbfba807240000000	-0.10352243483066559
177	0xbfbbae5d80000000	-0.1081293523311615
178	0xbfbf125c00000000	-0.12137389183044434
179	0xbf6ce44800000000	-0.003526821732521057
180	0x3fb7032dc0000000	0.08989225327968597
181	0x3f900c1c00000000	0.015671193599700928
182	0x3f94dbac00000000	0.020369231700897217
183	0x3fb054f480000000	0.06379631161689758
184	0x3fb6042f00000000	0.08600133657455444
185	0xbf8dde3000000000	-0.014583945274353027
186	0x3face57100000000	0.05643799901008606
187	0x3fbeb4c880000000	0.11994603276252747
188	0xbfb6496a80000000	-0.08705773949623108
189	0xbfb4a46440000000	-0.08063341677188873
190	0x3fa7ca9d80000000	0.04646770656108856
191	0x3fba49f340000000	0.10269089043140411

linear2.bias f8 [3]
0	0x3faac1bfee175e12	0.052259443105580186
1	0x3f9496440879cb8a	0.020104468362159213
2	0x3fa4038e80000000	0.039089635014534
