checkpoints/final_with.ckpt (torch, 16794 bytes, 14 tensors)

linear1.weight f8 [2, 2]
0	0x3fe05c4580000000	0.5112636089324951
1	0x3fe5097040000000	0.6574021577835083
2	0xbfddccb8e0000000	-0.4656202495098114
3	0xbfde37c4c0000000	-0.47215384244918823

linear1.bias f8 [2]
0	0xbfd29b0420000000	-0.2907114326953888
1	0x3fd10b21c0000000	0.2663044333457947

linear2.weight f8 [2, 16]
0	0x3fba1b2e000002f1	0.10197722911835762
1	0x3fc7752ebfffff7f	0.18326362967490792
2	0x3fb60379800000b1	0.08599051833153017
3	0x3fadccdaffff731e	0.05820354819272765
4	0xbf963e0fffff3510	-0.021721124648867607
5	0x3fb490617ffffea5	0.08032807707786078
6	0xbfcb2bb8c00003a3	-0.21227177977564535
7	0xbfaf9a200000a5e8	-0.061722755432423615
8	0x3fc7fc9140000417	0.1873952448368363
9	0xbf972df3ffff4321	-0.022636234760116673
10	0x3fb095a380001049	0.06478330492979113
11	0xbf80e567fffffce0	-0.008250057697294755
12	0x3f7299200000575e	0.0045405626297191064
13	0xbfcdbca9fffffd0c	-0.23232007026670265
14	0xbfaf8ff1000010a9	-0.06164506077769378
15	0xbfb546a1800007bf	-0.08310899138453375
16	0x3fc6b4a340000128	0.17738762497902738
17	0x3fc706963fffff9b	0.1798885166645022
18	0x3f90496a00000229	0.01590505242347909
19	0xbfb5799e00003718	-0.08388698101063274
20	0xbfaed380ffffb0a1	-0.06020739674554077
21	0xbfae01ac0000021a	-0.05860650539398567
22	0xbfc543c8800002dd	-0.16613107919695028
23	0xbfb4ac2e800040d6	-0.0807522833349624
24	0xbfcfcfc8fffffcd1	-0.2485285997390521
25	0xbfb9377fffffdb2b	-0.0985031127928379
26	0xbfc2ae5e3ffff9ab	-0.14594629406924517
27	0xbfbec9aa7fffffb3	-0.12026467919349564
28	0x3fc704584000021d	0.17982009053231787
29	0x3fb02b39800004ab	0.06315955519677867
30	0xbfb74c600000068a	-0.09100914001467167
31	0xbf99803e00001815	-0.024903267622015408

linear2.bias f8 [2]
0	0xbfbe1ab6fffff1dd	-0.11759513616556867
1	0xbfce8b9fbffffa83	-0.23863598704334174

linear3.weight f8 [3, 16]
0	0xbfce38bd40000000	-0.23610654473304749
1	0x3fc78464c0000000	0.18372783064842224
2	0xbfcfe33e00000000	-0.24912238121032715
3	0x3fc8853d80000000	0.19156616926193237
4	0x3fc7fcf680000000	0.18740731477737427
5	0xbfca813840000000	-0.20706847310066223
6	0x3fb5aa5380000000	0.08463022112846375
7	0x3fac0ea900000000	0.05479934811592102
8	0xbfc64d5240000000	-0.17423465847969055
9	0xbfc849b3c0000000	-0.18974921107292175
10	0x3fcc094a40000000	0.21903350949287415
11	0xbfbf127f00000000	-0.12137597799301147
12	0xbfa25da300000000	-0.035870641469955444
13	0x3fa8b92d00000000	0.048287779092788696
14	0xbfc5e17340000000	-0.17094269394874573
15	0xbfc42ceec0000000	-0.15762123465538025
16	0x3fbc243200000000	0.10992729663848877
17	0x3fab83af00000000	0.0537390410900116
18	0xbfc4fdc5c0000000	-0.16399452090263367
19	0xbfa4d8bc00000000	-0.04071605205535889
20	0xbfa9b3a300000000	-0.050198644399642944
21	0x3fc9778940000000	0.19896045327186584
22	0xbfa5103f00000000	-0.041139572858810425
23	0x3fc300a880000000	0.1484575867652893
24	0xbfc97d6700000000	-0.19913947582244873
25	0xbfc5ca6500000000	-0.17023909091949463
26	0x3fc19b2940000000	0.13754764199256897
27	0x3fb0a45900000000	0.06500774621963501
28	0x3fba5fea00000000	0.10302603244781494
29	0xbfc3845700000000	-0.15247619152069092
30	0x3fadd7d300000000	0.058287233114242554
31	0xbf99c05000000000	-0.025147676467895508
32	0xbf9e8ca400000000	-0.02983337640762329
33	0xbfcc22a2c0000000	-0.2198069989681244
34	0xbfcae26840000000	-0.21003440022468567
35	0xbf918a9400000000	-0.01713019609451294
36	0xbfba1eb400000000	-0.10203099250793457
37	0xbf9835c000000000	-0.023642539978027344
38	0x3f9a488800000000	0.025667309761047363
39	0x3fb1cea580000000	0.06955942511558533
40	0x3fc51c0480000000	0.16491752862930298
41	0x3fb6fa6700000000	0.08975833654403687
42	0x3fce901cc0000000	0.23877295851707458
43	0xbf95686a00000000	-0.020906120538711548
44	0xbfc2219340000000	-0.14164963364601135
45	0xbf9180d400000000	-0.017093002796173096
46	0xbfa9bc5500000000	-0.050264984369277954
47	0x3fa1e92b00000000	0.03498205542564392

linear3.bias f8 [3]
0	0xbf89353000000000	-0.012308478355407715
1	0xbfc33b7b00000000	-0.15025269985198975
2	0x3fa8a28100000000	0.04811480641365051

encoderlstm.weight_ih_l0 f8 [64, 2]
0	0x3fc92745a062eda8	0.19651098567360958
1	0x3fb50460ff226247	0.08209806660523454
2	0xbfc7a877db7e86e9	-0.18482874124042972
3	0xbfcfe4670dbc75dd	-0.24915779276572794
4	0xbfcbdab4bb4c5412	-0.21761187692087042
5	0x3fb39caf833d7ecf	0.0766095824633297
6	0x3fc850e2e21a1346	0.18996845283632008
7	0xbfbacfd9722bc5f6	-0.10473403012635871
8	0x3fceb103b8973d72	0.2397770549127745
9	0xbf958b4e2b3b49ef	-0.021039220226905127
10	0xbfcb66510356d327	-0.2140599504761209
11	0xbfb9d02ca61cc8d7	-0.10083273940543634
12	0x3faa3c1571337f93	0.05123965269899524
13	0x3fc2699f056a8c72	0.1438483025022808
14	0x3fc17312ba82d44a	0.13632425410256338
15	0x3fc01d2ebec80359	0.1258905822324106
16	0x3fba67742fa6f5af	0.10314108050712066
17	0x3fbd8e338c072091	0.11545107048653082
18	0x3f9e44082f4e3a04	0.02955639637689879
19	0xbf0e03156b8d547b	-5.724343413386013e-05
20	0x3fc1ef006ac7977b	0.14010625089502668
21	0x3fcdedc262f6d4f0	0.2338183387015884
22	0xbfc71c710a9d7f6f	-0.18055546778031892
23	0xbfc73d339776c73a	-0.1815552224703028
24	0xbfc6ec9c99ebe7e3	-0.17909581676195704
25	0xbf9c6e2e369623d0	-0.027764055329985216
26	0xbfc7d9f70fddc04f	-0.18633926653592645
27	0x3fcca549edbabf65	0.22379421337017927
28	0x3fa8fe6e993a9771	0.048816162304588746
29	0x3fcdd92afc2bbd72	0.23318993866949317
30	0x3f9d45754ed89d5a	0.028585274636637827
31	0xbfb09d0e52d6d12b	-0.06489648363532712
32	0xbfb528ec4c828c27	-0.08265568607252814
33	0xbfc8f211ff9b9b5e	-0.19488739949084793
34	0xbfb529f4472bbfcb	-0.08267142045565305
35	0x3fba8e8360ba59ab	0.10373707877656695
36	0x3faaead50b16b578	0.052572877505876414
37	0xbfc5ab6e4ea2b6cf	-0.1692941554987812
38	0x3fc292e317b9e4f2	0.14510763796332743
39	0xbfa5b677e4c71c82	-0.042407747914290375
40	0x3fbb57ef7b659621	0.10681053888910032
41	0xbfb9d43a1a2111e5	-0.10089457643432061
42	0x3fa0fcb9d9e64d4d	0.033178146218370765
43	0xbfc3b45ee1c0fb69	-0.15394197486053976
44	0xbfcea0d9aa3a2204	-0.23928376018399444
45	0xbfc0c7d6417ee89d	-0.13109853933366802
46	0x3fc479b1aa193b9c	0.15996380620569262
47	0xbfb8aaa485cdf179	-0.09635380045614807
48	0xbfcf3285cb5a8f91	-0.24372932843573072
49	0x3f5ea121f544f677	0.0018694717046651413
50	0x3fc73ea5a41d45ed	0.18159933579822454
51	0xbfc6e8137b0cdf03	-0.17895740040125227
52	0xbf9ed47f3e649e0e	-0.030107486899536844
53	0x3f9e3ef738c4eac3	0.029537070121686392
54	0xbfcc5c7a680d1369	-0.22157220917338386
55	0xbfceabe7e1c04242	-0.23962114832876763
56	0x3fc10f00a4271dea	0.13327034011147926
57	0xbfcd43a11bbadf11	-0.22862638334276444
58	0x3fa04fa0f17a4db7	0.03185751865126057
59	0x3fc2af076889e851	0.145966459316528
60	0xbfc437c2a39405ad	-0.15795166957108844
61	0x3fbab289f68c9a89	0.10428678769367584
62	0xbfc8af4e9d95d541	-0.19284994787782675
63	0x3fbfa3f61381464e	0.12359559990115906
64	0x3f93f2367df2230c	0.01947865623199889
65	0xbf66497925ef79a8	-0.002720581643628612
66	0xbfcbdbe2710cb266	-0.2176478435516344
67	0x3fa99a58fe672d7d	0.05000570397859414
68	0x3fc28cc42fd7c586	0.14492084823681867
69	0x3faff407503d43a9	0.06240866522296724
70	0xbfccc2000e3536b2	-0.2246704167723031
71	0x3fc61f8d795af83d	0.1728379099421903
72	0x3fc27e03f66dcf6d	0.14447068722403902
73	0x3fb432defd75675b	0.07890123069719605
74	0xbfcdb603e59df7b7	-0.2321171637703949
75	0xbfb3f56187228971	-0.07796296643440372
76	0xbfc6d2a9088282ad	-0.1783038417388715
77	0xbf9e2734296aec0a	-0.029446425464566807
78	0xbfcc8388b7c17af4	-0.22276410076570807
79	0xbfbc59d1fdaf9b6c	-0.11074554866318714
80	0x3fbe2cabaab8ffd2	0.1178691188624719
81	0xbfc4a61becc8a91b	-0.16131924688063112
82	0x3fc8f73784e92a86	0.1950444601992169
83	0x3fa2f416fbd0e4d2	0.03701850723195722
84	0x3fc567ba5c526d3f	0.16722802646550325
85	0xbf739125e40838a5	-0.004777095804923946
86	0x3fc4b1fc1e2fd940	0.16168166612596657
87	0xbfc9e3c7910b0180	-0.2022637804239018
88	0x3fc7183685128538	0.18042642114327534
89	0xbfbe7409903ca71b	-0.11895808955582902
90	0x3fc1387afabedfa8	0.13453614467084418
91	0x3fade821e1775adb	0.05841165425561253
92	0xbfbc164a0f166633	-0.10971510761592
93	0xbfcf8b3efc1210c5	-0.24643695171483251
94	0xbfa3f5385fb812af	-0.038980256733372236
95	0xbf8c5896e76ba7ad	-0.013840846002000829
96	0xbfb2e66dddea8272	-0.07382857005951296
97	0x3fb7623fd7894b90	0.09134291660420346
98	0x3fc66ccfeab649dd	0.17519568405675914
99	0xbfa2e74c1fb215d0	-0.03692090880307897
100	0x3fc3822435b31798	0.1524091016964888
101	0x3fcc6a9f34f0ee65	0.22200384221092687
102	0x3f8690b993088c7e	0.011018228339770394
103	0xbfc101cd5f903692	-0.13286749998262742
104	0xbfbc3c84d9de77a2	-0.11029844588344287
105	0xbfbe57057a632fe7	-0.11851534116721006
106	0xbfa063ca5ace24e1	-0.03201134069883849
107	0x3fcc7e0f1d63044e	0.22259701666738113
108	0xbfc5d5938a376075	-0.1705803322681764
109	0x3fb2b1926e8ff7c7	0.07302203368450853
110	0xbfa6f6e174e65fd8	-0.04485230018616421
111	0xbfc19c1b8c41b79e	-0.13757652615043708
112	0xbfcac8fef75a43c4	-0.2092589099670744
113	0x3fce3c2d55560559	0.2362114588432103
114	0xbfa0111cf4419f5c	-0.03138056260723829
115	0x3fcb88d85ec3807a	0.2151136839593198
116	0xbfb032ddfbc5698f	-0.0632761706996574
117	0x3fb83fb36dd949b9	0.09472199851851472
118	0xbfbaced354e77f93	-0.10471840689524319
119	0x3fc10e7b018f075a	0.13325440956219375
120	0x3fad0cc416bbd7fb	0.05673802163612148
121	0xbfcea205a9b2cd93	-0.23931952272469612
122	0xbfb190c92516191a	-0.06861550479343173
123	0x3fc945482bcc6b35	0.1974268163547436
124	0xbfcedc16f834e474	-0.24109160537208008
125	0xbfb3c7afc32821b9	-0.0772657252747483
126	0x3fc1ec486d6ba127	0.1400232824592049
127	0x3fae86914be89f0f	0.05962041904086678

encoderlstm.weight_hh_l0 f8 [64, 16]
0	0x3fcff8c97fd8e714	0.24977987997572682
1	0xbfc8d4887fe2dce2	-0.19398599857752347
2	0x3fc07e57ffc65cae	0.1288557051563876
3	0xbfca33803f22ce86	-0.20469668467341168
4	0x3fb773297fb8bdcc	0.09160098427013635
5	0xbfaf0622ffe196c3	-0.06059369443464171
6	0x3fba5cebfff196dc	0.10298037527681053
7	0xbfab555ffe6bff3f	-0.0533857343743862
8	0xbfc12433bff96b2a	-0.13391730188126277
9	0x3fa971b6fc4f9deb	0.04969569997757247
10	0x3fc5d29b3f58253f	0.1704896983431272
11	0xbfbcf3c3ffe5d321	-0.1130945682287572
12	0x3fb695187e85458d	0.0882125195396581
13	0x3fcfc1e03fd9030c	0.24810412519038783
14	0x3fc1998bc007029d	0.13749834896409122
15	0xbfc655097f366ef3	-0.17447012626222821
16	0xbfc79d6df367b749	-0.18449186692253708
17	0xbfaed4b96c307863	-0.060216707665163204
18	0xbfbde1b04d7d9567	-0.11672498599872015
19	0xbfc9d9bab88fa1bc	-0.201957073323923
20	0xbfc68e0bd20c0e6f	-0.17620990520673582
21	0x3fb1e3a59b115825	0.06987986598809977
22	0xbf95b580e05dd949	-0.021200193113565722
23	0xbf953d79870d5556	-0.020742319934773455
24	0xbf9c40bd486897b8	-0.02759071115919884
25	0x3fc13c01cb69c073	0.1346437686183922
26	0xbfa1e7252e2f6681	-0.03496662319930711
27	0xbfc5c370ad356fad	-0.17002685983140733
28	0x3fc2cf9689fb7838	0.14696008431832452
29	0x3f93d6a2fb46da28	0.01937346132918996
30	0x3fb2cff9560579f8	0.07348593092090272
31	0x3fc7fb3881514870	0.18735414804774875
32	0x3fc26e2105a3ba9a	0.14398587012643277
33	0x3fcdb323a9f2f508	0.23202939794820332
34	0x3fcdc7bdc94ef67e	0.23265812234415145
35	0xbfc3b4478c97bcf4	-0.15393919339064832
36	0xbfbeb15ac41b17df	-0.1198937157415396
37	0x3fad1673cb8989bd	0.056811922641617475
38	0xbfc7d3e3c7113f35	-0.18615386219107113
39	0xbfc1a57c72a8db20	-0.13786273573506325
40	0xbfb6bc8bf40e1292	-0.08881449421284973
41	0xbfa4072f325368a3	-0.039117312329566965
42	0x3f9cb5613afc96fe	0.028035659051190535
43	0x3fbe2d56879b975f	0.11787930308090953
44	0xbfc6cba2c530e363	-0.178089472088483
45	0x3f967d9c5782a2d4	0.021963541833119063
46	0xbfcb1bcfc577e6e3	-0.2117862428856859
47	0x3fc63ce4c0ea6d6b	0.17373332423890572
48	0xbfac556f02d2cb9c	-0.055339306921630554
49	0x3f5051ddc0e16476	0.0009960809288911666
50	0x3fb5f336ff337578	0.08574241381162107
51	0x3f9bce0fc898868d	0.027153250330349144
52	0xbfaab1e1e8f8b8ba	-0.05213838547602863
53	0x3fc24bfc3c7a9e93	0.14294388726306248
54	0x3fb7fcb4faf675a4	0.09369975211162412
55	0xbfc0ff40073362fe	-0.1327896151695071
56	0x3fbb724283fda80d	0.10721221659119369
57	0xbfa90e30fdeeed1c	-0.04893639659663959
58	0xbfcf198a3e11185c	-0.24296691923717872
59	0x3fb532858372d0af	0.08280214747611823
60	0x3fcfc1cd4409a847	0.24810186216501703
61	0xbfb899e4fc5a8b27	-0.09609824334124238
62	0x3fc139713e4b641b	0.13456550161097955
63	0x3f8f18f7b1f5dfeb	0.015184340589925646
64	0x3fbe2e4880d4df42	0.11789372582722726
65	0x3fcd3b330410431d	0.22836911867536794
66	0xbfc9472f8039d422	-0.19748491059331835
67	0x3fc4604d45bc049a	0.15918889908792694
68	0x3fca9727fb94e07d	0.2077379206109561
69	0x3fc8a56042ff6980	0.19254687568065876
70	0xbfc04a057dfc79a8	-0.12725895549460842
71	0xbfcee81f3a448520	-0.24145880074596793
72	0xbfac09f1061ab220	-0.05476334762110846
73	0xbfba71d102a95910	-0.10329920115450286
74	0xbfc34fef82978eaf	-0.15087694050372621
75	0x3fc1a5213ea08946	0.13785186346019368
76	0xbfc5d1b603cfcf31	-0.1704623716938101
77	0x3fb668a9fc16fca3	0.08753454594169567
78	0x3fc6163901b4f972	0.1725531824431062
79	0xbfa1be0befa1a568	-0.034653065683253825
80	0x3fceab2201747252	0.23959755965269608
81	0x3fb41192fdfee616	0.07839316083018164
82	0x3fc891c502a37ad8	0.1919485342868572
83	0x3fc8d3b736f1b8b0	0.19396104986976104
84	0xbfc0248c3dc205b2	-0.12611535087130005
85	0xbf84a8e014e1d57a	-0.010087729108117161
86	0xbfa5282b01f067a5	-0.04132208250685147
87	0x3fbeb34076669b36	0.11992266550678896
88	0xbfb2d65d7f6b5600	-0.07358345375845232
89	0x3faff6ad2d9922ee	0.062428867164788446
90	0x3fcd7ecb87f89693	0.23043197764598186
91	0xbfc05770c05208c6	-0.12766847029349132
92	0x3fc9005dc6b022cc	0.1953236789852525
93	0x3fc013de041e77ec	0.1256063003647222
94	0x3fc201553ee60786	0.14066567965715765
95	0xbf97f2fa4dd23f8f	-0.023387824058374525
96	0xbfc7a1fb7f5d6d66	-0.18463081091872907
97	0xbfceb6f7cb3408ed	-0.23995873853716124
98	0x3fc2aebe027b19ce	0.14595770951400627
99	0xbfcbba4bd9fdaaec	-0.21662281173788445
100	0xbfb690f9649dc766	-0.08814963060811251
101	0x3fa1e3c6e31536c5	0.03494092485435155
102	0x3fce70dc3b925b35	0.23781922253393764
103	0x3fc986e32bf3383b	0.19942893644332735
104	0x3fcfb61603aea89a	0.24774432353780612
105	0xbfcdc2aeb1d66407	-0.23250373538465416
106	0xbfbd7740e607df31	-0.11510091415391056
107	0xbf925691e8cb6dd1	-0.017908363183648583
108	0x3fafcbab4d7c064f	0.062100747307351704
109	0xbfc8b7e47adcd4db	-0.19311195372725973
110	0xbfa312d30d761a07	-0.03725299395869191
111	0x3fccbca3ac032e04	0.22450681590122212
112	0xbf885187fd7a76a5	-0.011874258444829986
113	0x3fb5093c81913bdf	0.08217218554749149
114	0xbfc2dd90ffe5e6b8	-0.1473866700651365
115	0xbf369d7e26119a4f	-0.000345080659889173
116	0x3fb875c8fe449b24	0.09554725845064788
117	0xbfc933227f5fe67e	-0.19687300891364495
118	0xbfbc14c77f0d1a12	-0.1096920666869681
119	0xbfc9e175bedbd7af	-0.20219299144053823
120	0xbfccdaa300567d1e	-0.22542226330276888
121	0xbfc72d957fd2c620	-0.1810786127221471
122	0xbfb540df00460ef1	-0.08302110439950262
123	0x3f9a5473fda3ddf4	0.025712787967647047
124	0x3fca7b6fff761ac5	0.20689201329897436
125	0x3fadd0f6feb3af63	0.05823490008501044
126	0x3f9be4dc032939f8	0.027240216916021937
127	0xbfcf57b1ff53433a	-0.24486374823620755
128	0xbfad5404001408c2	-0.057281613359025055
129	0x3fbf9201f15b0c9d	0.12332164900276373
130	0x3fc2b18e814dbe95	0.14604359925896362
131	0xbf77c851c8ec93a2	-0.005806273910626299
132	0xbf83274f763222c5	-0.009352322382498621
133	0x3fc293073b217c34	0.14511194598432697
134	0x3fc38b7f7cf8633d	0.15269464113296208
135	0x3fc9176f742d1a18	0.1960276906267644
136	0xbfac37e7f57488da	-0.055114029610437945
137	0xbfcad924b8d0e538	-0.20975169204920419
138	0x3fa3c7d11d7ace95	0.03863385662898825
139	0xbfb49bbafbd7ff49	-0.0805012574055556
140	0xbfc26dc3f5b42afb	-0.14397477624182628
141	0xbf8c7d7fcbec49e3	-0.01391124573777786
142	0x3fb6debe7b4d94d7	0.08933630476311137
143	0xbfcc414a0a7eb850	-0.22074246895266691
144	0x3fc4b65f406c80e7	0.16181555410094647
145	0xbfccc34d755535b1	-0.22471016148703662
146	0x3fcd5c497ea4231c	0.22937887843752314
147	0xbf902c69740e01ad	-0.01579441805688624
148	0xbfc0b110cb54aa47	-0.13040361336000414
149	0xbfb6c169f2e0d74f	-0.08888876132627142
150	0xbfb697caf7af5011	-0.08825367495529714
151	0x3fb646059e070f61	0.08700595005126167
152	0x3fbe5333f8a7702c	0.1184570772233548
153	0xbfc9f83e063b206a	-0.20288825325247056
154	0xbfc4390848863686	-0.15799048939918608
155	0x3fc9ea027ced23ef	0.20245390987318454
156	0xbfa29bef31dcab68	-0.036345934712094075
157	0x3fac6303f4faf718	0.0554429279850252
158	0xbfbdb0647983107a	-0.11597278563118776
159	0x3fbee19416bfa0c5	0.12062955432304807
160	0x3fb4f3408164e92b	0.081836730566384
161	0xbfb3ca581224754c	-0.07730627482347535
162	0xbfce78b67dc0bf2b	-0.23805886402396345
163	0xbfca994293706585	-0.20780212592289274
164	0x3fc2da28499c1b4b	0.14728263468006228
165	0xbfcb1cc204e242ff	-0.21181512106388564
166	0xbfc4029e828de50b	-0.15632993101807133
167	0x3fbfe065e2eba5d8	0.12451779165316823
168	0xbfb7a1aa7becb098	-0.09231057668211162
169	0x3fbd2e6794bc38e9	0.11398932820540932
170	0x3fbfb11413fc8394	0.12379575241040036
171	0xbfcd65333de1b26e	-0.22965088388027105
172	0xbfc5f1952f81c54e	-0.17143502063440014
173	0xbfb27c46799c57b8	-0.07220879048358497
174	0xbfc7fb9a02184607	-0.18736577131544171
175	0x3fc8652171ebdc69	0.19058626234593426
176	0x3fca6ae4ff527b3a	0.20638716189292855
177	0xbfca590e699e4ad4	-0.2058427825655459
178	0xbfb3881508f744d1	-0.07629519909757511
179	0xbfad23474be36a80	-0.056909778608049244
180	0x3fbc06aace5a51ab	0.10947673356924408
181	0x3fca6fcd0d156e1f	0.20653689516881088
182	0xbfbc274e70c34e19	-0.109974768190391
183	0xbfcf763c5c500099	-0.24579576976248488
184	0xbfa495a2195de808	-0.040204110714469776
185	0xbfc09ffb569b5005	-0.12988225678293489
186	0x3fba91fe5319911b	0.10379018334203176
187	0xbfccd52105caf5ca	-0.2252541807446689
188	0xbfaeff47902f48b5	-0.0605413783556669
189	0x3fc1f5a7f83a0d4b	0.14030933018157507
190	0x3fc13ee185c1f851	0.1347314742196795
191	0xbf9210aaff8f077a	-0.017641708229127563
192	0x3fc3237a053d32f7	0.1495201612073271
193	0x3fc8b7792abd9e67	0.19309916102359923
194	0xbf934cc364015946	-0.018847516039693056
195	0x3fc705acf7fe6e4f	0.1798607073695728
196	0xbfbb0cd02b6c0a9d	-0.10566426334484409
197	0xbfbcf5a143f0a6ec	-0.11312301548664622
198	0x3f9bc47806e447dd	0.027116656704556753
199	0x3fc6cdfcefac9961	0.17816125586359546
200	0xbfcbde556fb75836	-0.21772258715526654
201	0x3fca3fd513e291a9	0.20507300826024036
202	0x3fc564c77870a6ec	0.16713803654538795
203	0x3fabafbccaaaa75b	0.05407514547307698
204	0xbfb40ed317dcf329	-0.07835120518298012
205	0xbfc2791ffce68f0d	-0.14432144020712948
206	0xbfaa905890352a1b	-0.051882522204852864
207	0xbfbc946e5438d850	-0.11163987690164956
208	0x3fcd6330fe1fc1bf	0.22958958061600573
209	0xbfc9690737784391	-0.19851770599828147
210	0xbf98ea6e1ed8d1fb	-0.024331780083416615
211	0xbfc9e71b24fe5ff1	-0.20236529642420423
212	0xbfce2b740b56520b	-0.2357010894162531
213	0x3fc02a03c5ac29a9	0.12628218795755444
214	0xbf902d6de8306b28	-0.015798299118709697
215	0x3fb6f7b2a4dae621	0.0897170689085205
216	0x3fcd319dfd85ed96	0.2280766952425039
217	0x3fc228f76c40306b	0.14187519822769742
218	0xbfcfa18ecf867d40	-0.24711785443376222
219	0xbf8229bc1a293ef8	-0.00886866526448625
220	0xbfcae3fe5509cd52	-0.2100828089929601
221	0x3fcfe0437ac13966	0.24903148168454975
222	0x3fc4529382c73934	0.15877002607016666
223	0x3fbbf2dd2d21980d	0.10917456008755284
224	0xbfa8c932ffe3a06a	-0.0484100282063203
225	0x3fa24e7709275cc4	0.035754890315439464
226	0x3fabd7c3fe849e74	0.054380535906884214
227	0x3fb995e088fd7a8e	0.09994319290624729
228	0xbfa0ce010b20e2e6	-0.032821686371283396
229	0xbfc87b747e5a8126	-0.1912675492249118
230	0xbfbcb422fdee44af	-0.11212366771202896
231	0x3fc738c803c483b8	0.18142032798735186
232	0xbfc63eddc0e79367	-0.1737935249249418
233	0xbfa73c2808bbec63	-0.045380831781550744
234	0x3fc37585fdb1c589	0.15202402961180564
235	0xbfb2eb8601512a58	-0.07390630275873755
236	0x3fbcb6dcf9d71331	0.1121652708016654
237	0x3fc5a6fdfeeee1dc	0.16915869663149763
238	0x3fce1241c0dad89c	0.23493215481511676
239	0x3fc3aa33435fe113	0.15363159932872658
240	0x3fc1a7ae1832d5ec	0.1379296892315972
241	0xbf9015c2d2b61ba6	-0.01570801173286509
242	0xbf92922792995e14	-0.018135660479258034
243	0xbf7a27484f39cee1	-0.006385118922128647
244	0x3fb724a861d51cf0	0.09040310276496988
245	0xbf9653f278a33285	-0.021804607976081875
246	0x3fa1dd65de306c1a	0.03489225709218875
247	0x3fbd617e7f79a737	0.11476889240443887
248	0x3fb295d78cd3eb3d	0.07259890735796844
249	0xbfba3eeb61d3ac60	-0.10252257479048543
250	0x3fb37ff125bff60c	0.0761709897196498
251	0xbfbfd05a7881eaa2	-0.12427297060086542
252	0x3fce583b01abce43	0.23706758100125755
253	0x3fa8467f33f2a154	0.047412848559647586
254	0xbfcde5738532b21e	-0.23356479648408962
255	0x3fa19f441e071196	0.03441822878406524

encoderlstm.bias_ih_l0 f8 [64]
0	0x3fc978f1ff432585	0.19900345767954888
1	0x3fb5a67fb8720c42	0.08457182171882585
2	0xbfc22e40ac194a00	-0.1420365181280232
3	0xbfb21c994e97a12b	-0.07074888390309712
4	0xbfb1e4ab1b368e4a	-0.0698954526365522
5	0xbf7826b640adbd4a	-0.005896293568056274
6	0xbfc9bec107bdf612	-0.20113385084179974
7	0x3fbf57b37a85e90a	0.12243196240698154
8	0x3fb870514129e652	0.09546382752332619
9	0xbfb82255c5d4a1ca	-0.09427391128395538
10	0x3fad4a3d93b866b1	0.05720703533388639
11	0xbfc39d62dae2db07	-0.1532405442028095
12	0x3fb96d6e56ad26c8	0.09932603469965351
13	0x3fa142282d96d0e2	0.03370786243923064
14	0x3fb33add6bb60aef	0.07511695747056611
15	0x3fcd696d9ac193b6	0.22977991157963878
16	0xbfc0452989b36874	-0.12711066459343423
17	0x3fbb8824e1b90a49	0.1075461436348998
18	0xbfc7c2e9809131e9	-0.1856357457894682
19	0xbfb6591d482a5633	-0.08729727756357235
20	0x3f71abc435d596ee	0.004314199873396636
21	0x3f6365d654ee1cf7	0.0023678957144884732
22	0xbfccda77f3152a0c	-0.2254171311308969
23	0xbf89e2886691e9be	-0.012639108305155907
24	0x3fcdeb38110a11e9	0.23374081451414888
25	0x3fb9aac4f0da124c	0.1002619827286903
26	0xbfbc02bf37803799	-0.10941691498757534
27	0x3fcd7fb0e88183bf	0.23045932152584034
28	0xbfc7b9fe574226ff	-0.18536357174553328
29	0xbfa34b58d563bf8f	-0.03768422703603768
30	0x3fc15d593b66214c	0.13566127205218448
31	0x3fc77d16623fbcdf	0.18350486562073962
32	0xbfbb16889bee644b	-0.10581258589663027
33	0x3fb9c90477114e5d	0.10072353274272801
34	0xbfc92fb3eb77d3a6	-0.1967682742830707
35	0xbfce988fe465af5b	-0.23903082515914317
36	0x3fc665fa2fccb6e7	0.17498709997146664
37	0x3fb6913325d3f422	0.08815307305845058
38	0x3fc3fbf79b48cf1e	0.15612692911383247
39	0xbfc7c78afa755420	-0.18577706555757434
40	0x3fc6f8a382721573	0.17946285123268133
41	0xbfc7c16c59efc0c7	-0.1855903090613593
42	0xbfc31f4fe3165f47	-0.14939306820155648
43	0xbfb9ae8d61159b50	-0.10031970615601193
44	0xbf8e37b1b26f8c6b	-0.014754665620733761
45	0xbfc8892506c80853	-0.19168532210466313
46	0xbfb3f9c3398dd083	-0.07802982478261992
47	0x3f9717d5dbf114c7	0.022551862286736914
48	0x3fcdc14ebafa08cf	0.23246177797051934
49	0xbfbdcfb9aa626909	-0.11645088586593401
50	0x3fb3015527d89678	0.07423908446124894
51	0x3fb7d7317d2623de	0.09312733941455018
52	0xbf9478ce8e9e6d55	-0.01999209161259093
53	0xbfc96aa83a73e332	-0.1985674176610473
54	0x3fbfffe70d47dd85	0.1249985129760401
55	0x3fbe9464e107db22	0.11945181363976734
56	0x3f43e6966282ff22	0.0006073221493565243
57	0xbfc24bdc0ee192bd	-0.14294005133264945
58	0xbfcae82280b38261	-0.210209191172015
59	0x3fc6a508b0a2f790	0.1769114363177633
60	0x3fc9c21bc5b7c2e3	0.20123622087660128
61	0xbfc75c1aef7bb329	-0.1824983281470847
62	0x3fce1f8622be1c05	0.23533703514496565
63	0x3fcbc1edca2372c7	0.21685573930780874

encoderlstm.bias_hh_l0 f8 [64]
0	0xbfbc8d170179b4f1	-0.11152786050816467
1	0x3fce062d5c39061f	0.2345635128313441
2	0xbfbe9717d83293ff	-0.11949299839268689
3	0xbfba6a414e97a12b	-0.10318382424123189
4	0xbfc5438b8d9b4722	-0.16612381376631286
5	0x3fc6c6448dfa9214	0.17792565281446626
6	0xbfb78f5c8f7bec1d	-0.09203127387074557
7	0xbf9f3c1c15e85bd2	-0.030502737843644052
8	0x3fb1f0f14129e652	0.07008273926649025
9	0xbfc5f271e2ea50ea	-0.17146133022163862
10	0x3fc6d578e4ee19af	0.17838965585924657
11	0xbfc68b08dae2db07	-0.17611799896049993
12	0x3fc4de5a2b569364	0.1630356513607253
13	0x3fa907152d96d0e2	0.04888216191776153
14	0xbfbb8a9d1449f511	-0.10758382554373137
15	0xbfb7efba4a7cd892	-0.09350170439288011
16	0x3f893e5f64c978a4	0.012325997603678758
17	0xbfae85133c8deb6a	-0.05960903276623848
18	0xbfcab781c09131e9	-0.2087251844663023
19	0xbfc1371ee4152b1e	-0.13449464928484017
20	0xbfc226e91e515347	-0.14181245785098381
21	0x3fb32e5fb2a770e9	0.07492635833426999
22	0x3fcff8b6ccead5f4	0.2497776508877646
23	0x3fc586ecf996e166	0.1681801050851945
24	0x3fc6ee37110a11e9	0.17914474803923433
25	0x3f65bece1b424a15	0.0026544595257942485
26	0x3fc2f757243fe431	0.14817322988509
27	0xbf85215577e7c456	-0.010317485543938226
28	0xbfbded2b2e844df9	-0.11690015683807777
29	0x3fc851e94aa71017	0.18999973435541115
30	0xbf9d12cc24cef57a	-0.028392019030197592
31	0xbfb6b5943b808645	-0.08870817616163958
32	0x3f92386990466ed8	0.017793321066718132
33	0xbf9dedf823bac68c	-0.02922809331966518
34	0xbfce9ee46b77d3a6	-0.2392240071054889
35	0xbfc33d31e465af5b	-0.1503050198765504
36	0x3fcde8fcefccb6e7	0.2336727305313879
37	0xbfbd4586da2c0bde	-0.11434214426485265
38	0xbfc5799524b730e2	-0.1677729062342968
39	0xbfcc35427a755420	-0.2203753564778319
40	0xbfbcbf0cfb1bd519	-0.1122902024324798
41	0xbfcba44499efc0c7	-0.21595056072647464
42	0xbfcdf8c923165f47	-0.23415483678103952
43	0x3fb8e7eb1eea64b0	0.0972887945630585
44	0xbf667fc6c9be31bb	-0.002746475465704471
45	0xbf990154364042a1	-0.02441913205263069
46	0x3fcc7cd3233917c1	0.22255934924959145
47	0xbfcfcb1b8481dd67	-0.2483858487137056
48	0x3f9c6be3d7d04691	0.027755317733016375
49	0xbfc785df15313484	-0.18377293143058548
50	0xbfc8f82dac13b4bd	-0.19507380392261622
51	0xbfc8b027016cee0e	-0.1928757435760961
52	0x3fca8263ae2c3255	0.20710416798137268
53	0x3fc72ff6058c1cce	0.18115115424027411
54	0xbfb08898f2b8227b	-0.06458431173099115
55	0xbfcb0feb8f7c1270	-0.2114233446701692
56	0x3fb10a12acc505fd	0.0665599510002934
57	0x3fb058ebe23cda8e	0.06385683320409383
58	0x3fc4c625bf4c7d9f	0.16229698029290504
59	0x3f99eafb8517bc76	0.02531044959863179
60	0x3fc79a5385b7c2e3	0.18439716366949374
61	0x3fcfb33550844cd7	0.24765650207027676
62	0x3fc66faf22be1c05	0.17528332897583723
63	0x3fadfee9288dcb20	0.058585439873146905

decoderlstm.weight_ih_l0 f8 [8, 16]
0	0x3fe0e62f78bb5368	0.5280988081018281
1	0xbfcdf38d62bf7919	-0.23399512597729524
2	0x3fbb5c7807c99ce2	0.10687971296430335
3	0xbfd2841455b25693	-0.2893114888077914
4	0xbfdbc57282021267	-0.43392622657873975
5	0xbfa9bcbf5580a70e	-0.050268153369257815
6	0xbfe26aa9a8ee07ed	-0.5755203532610246
7	0xbfc4ceb0aad3d95f	-0.16255768147648106
8	0xbfe26289b8e2571a	-0.5745285616892233
9	0x3fc55ebe13d2a524	0.16695381133949028
10	0x3fe403d0b2b782ce	0.6254657259524607
11	0x3fc0a0a50fb9c66e	0.12990248935561816
12	0x3fc68b33d4ea7f96	0.17612312217988507
13	0x3fd36d3fdb8a02e5	0.30354305686345945
14	0x3fd0eaa1f463b498	0.26432083955916985
15	0xbfcce9d8ffa9794e	-0.22588646396156736
16	0x3fe60cc5791b4e2f	0.689059006248902
17	0x3fe294c1f021747f	0.5806588830997866
18	0xbfd9eec26b652c85	-0.4051977204114297
19	0x3fbe7b42951c5918	0.11906829967879096
20	0x3fe5a4baad0efadf	0.6763585453080302
21	0xbfc36bee559fdeea	-0.15173129254230072
22	0xbfe550f6515f7a3b	-0.666133078509865
23	0x3fe1979cfacf92ca	0.5497574709557622
24	0x3fcc013d3381a781	0.21878781332935307
25	0x3fbb50be622a5a3d	0.10670080086342977
26	0xbfd0bcb5ea8f1ff0	-0.26151798158798467
27	0x3fe40e3738a01acb	0.6267353158917442
28	0xbfd7bb12e1b4d9b1	-0.3707930759586829
29	0x3fd8a3961d66cb8e	0.3849845206379364
30	0x3fda20e572429699	0.4082578292676345
31	0x3fda7f81c11204e4	0.4140324006512641
32	0x3fd386333f69d179	0.30506592934332094
33	0xbfbd714c5725fc11	-0.11501004340787825
34	0x3fe12fd7d24e9d6b	0.5370902164039938
35	0x3fd331580ea2d947	0.29988671712216725
36	0x3fd8283fa0971822	0.3774565761817731
37	0xbfe538981597fa48	-0.663158456969378
38	0x3fcd7ad1edd04a6d	0.23031067001336983
39	0xbfa12a33ac7ee6e8	-0.033525099569897965
40	0x3fafc505e3223fec	0.0620500411761212
41	0xbfb1832bc2dacc80	-0.06840775973505409
42	0x3fd447a3febbb3e3	0.3168725955609359
43	0x3fd19c57cb0856cc	0.27516741588020177
44	0x3fcb468c7a510ba5	0.21309047672738504
45	0xbfafc7010f97b91a	-0.06206515612926662
46	0x3fd09405cf5bd855	0.2590345883357988
47	0x3fb37b940dc19561	0.0761044057449758
48	0xbfa62ed9738eeac7	-0.04332618270514881
49	0xbfbc8091abe0cbae	-0.11133680769198293
50	0xbfd9835267f9f5da	-0.398640252627812
51	0x3fddcecf63df443d	0.4657476878465479
52	0x3f8baf36d7df491f	0.013517788374802607
53	0xbf82b6cd3fceda10	-0.009137729177251891
54	0x3fd50d73ba9c207c	0.3289460489618319
55	0xbfba027982b340fb	-0.1016002601711569
56	0xbfe413350a35e632	-0.6273446273255046
57	0x3fe22df8acf1a4ec	0.5681117418108932
58	0x3fd9a3a44cb1b89d	0.4006129025427841
59	0xbfe0aebac66f928e	-0.521329295701962
60	0x3fe63bb6148522f4	0.6947889710218917
61	0x3fc62236bd3f94d4	0.17291912308352286
62	0x3fad109c46263365	0.0567673526412367
63	0xbfc629499594f01c	-0.17313499263571053
64	0x3fb4b81e2763acd3	0.08093441449789233
65	0xbfe3db18cb828372	-0.6204952215958726
66	0x3fcea6f0a269e04a	0.2394696038279583
67	0xbfd653be69135e0d	-0.34886131535810777
68	0xbfd5f6e2ce7f0c9b	-0.34319372335102977
69	0x3fcfe14e8bc9cf15	0.24906331849671717
70	0xbfdb4354b46fe113	-0.4259845506744721
71	0x3fd7e341e14261ca	0.37324568746546716
72	0x3fdb52f6bcc54082	0.42693870958920155
73	0xbfb76834343a2168	-0.09143377566409117
74	0x3fd581ffe6cf018e	0.33605954685119677
75	0xbfe2b30a443aa2f8	-0.5843554813955896
76	0xbfddcff86fb03189	-0.4658185091691612
77	0xbfe653d365e6b66e	-0.6977326383836961
78	0xbfc2c730b8f9b1e2	-0.1467038062286426
79	0xbfe536501e061d5b	-0.6628799997715008
80	0xbfe074fe237efa67	-0.5142813390046513
81	0xbfbe985787930a9b	-0.11951205310746575
82	0xbfcbd50efd24a525	-0.21743953094964144
83	0x3fb04ad67cb32d1f	0.0636419348185666
84	0xbfe3101adcd821c7	-0.595715934120613
85	0xbfdadb84c791b629	-0.41964835633447933
86	0xbfd1589230f6b19b	-0.2710309484634991
87	0x3fdc14b0bb3fba2e	0.43876283918408177
88	0x3fd9155642a70e78	0.39192730435409073
89	0x3fcbfb62e0d4457b	0.21860919931399878
90	0x3fd58be2e530c281	0.3366629827678836
91	0xbfe4a7c44ed3b34e	-0.6454793490971527
92	0xbfdb5c00914dfa68	-0.4274903697004562
93	0x3fe4a73b8aee49b3	0.6454141343586371
94	0x3fe1071104db0405	0.532112607463319
95	0x3fdb8844bc638266	0.4301921691640359
96	0xbfd106b5ec8d6992	-0.26603458500690025
97	0x3fe1aa74b7029312	0.5520576071181458
98	0x3fdec0324a98cf3e	0.48048074040274347
99	0x3f909a96151cc22f	0.01621469978198514
100	0x3fb73c008f321e52	0.0907593106841145
101	0xbfdbd7b2cbe006e5	-0.43504018697431796
102	0x3fd5f91e58e2d55d	0.3433299892452249
103	0x3fdb03541c1d3502	0.4220781588126813
104	0x3fb78c131799bdc6	0.09198111845193244
105	0x3fc6f72c8ed6b7ab	0.1794181535200868
106	0xbfcde3135b9ed40f	-0.2334922978749607
107	0x3fd6473562cfc2b3	0.34809622430388315
108	0xbfb7b8138d7bbee2	-0.09265253261741749
109	0xbfdc3851b25c83f9	-0.440937446766895
110	0x3fd9db021b41ec86	0.40399220144144754
111	0xbfd509e29ad67fc4	-0.32872834320914657
112	0x3fc7b374b850abb9	0.18516406059037907
113	0xbfe3556bb31d0486	-0.6041773317630408
114	0x3fd25ed054e051b1	0.28703697479911755
115	0xbfe601c92b7ca093	-0.6877179955818228
116	0x3fac427b434767b1	0.055194713557014004
117	0x3fd101fcee41872f	0.26574633853134605
118	0x3fcfd9972fd746ea	0.24882783733351427
119	0x3fd8872711b6c0fa	0.38324906091567323
120	0xbfe0e9e3c3070710	-0.5285509881143486
121	0x3fe44fc1647874ee	0.6347357713999864
122	0xbfb17428136f95f5	-0.06817865824230991
123	0x3fe13115bdf1359c	0.5372418126877849
124	0xbfe6945e774f37da	-0.7056114511740319
125	0xbfd31f40293db1dd	-0.29878238704148236
126	0xbfdc0db2bafaea9f	-0.4383360696771578
127	0xbfe266f5b063a1ee	-0.5750683255292282

decoderlstm.weight_hh_l0 f8 [8, 2]
0	0x3fe53ddbfe30cd40	0.6638011898670939
1	0x3fc2a1f12385e4fa	0.14556707605860436
2	0x3fd4a34d80d7f58a	0.32246720869428513
3	0x3faa0582b5c925a2	0.05082329243721097
4	0x3fe30f526d427041	0.5956203588461976
5	0x3fe54edfb615be7a	0.6658781582209052
6	0x3fd4aa317692778c	0.32288776950178355
7	0x3fd13e21bb30a9ae	0.2694172218349661
8	0xbfad9744cec0ab46	-0.057794714201313144
9	0x3fe5cde7403c5458	0.6813846830942891
10	0x3fc3f9d200ec3399	0.1560614113335788
11	0xbfe42145dc496448	-0.6290616323923439
12	0x3fe309a2d1e9c8bb	0.5949262714259683
13	0x3fd55132f90b6b83	0.33308100052607176
14	0x3fb11ebfa8712ebc	0.06687543737751417
15	0x3fbc518ab6bb5b7a	0.11061922990061915

decoderlstm.bias_ih_l0 f8 [8]
0	0x3fe3692c846afdcb	0.6065886102950854
1	0x3fcb76a1daccd66c	0.2145578688011257
2	0x3fbae1ef263a2672	0.10500998194961556
3	0xbfc6ed518b7e8156	-0.1791173869251092
4	0xbfa04c5ea7a9241c	-0.031832654920954634
5	0xbfa64eed77bc900e	-0.043570919863015076
6	0xbfc163d903e7c2c3	-0.1358596104687618
7	0x3fc0584e03706388	0.12769484680100285

decoderlstm.bias_hh_l0 f8 [8]
0	0xbfcf71172e5408d1	-0.24563874971506164
1	0x3fddd1b51d666b37	0.4659245288000195
2	0xbfe64c14d738bb32	-0.6967872813746452
3	0xbfe34024b2dfa054	-0.6015799993156272
4	0x3fe4c3ffd5856dbe	0.64892570212708
5	0xbfde33209af79205	-0.47187056668761357
6	0x3fd938bc4e0c1e9f	0.3940878641301228
7	0x3fe3437b78dc18e3	0.6019875870267949
