checkpoints/final.ckpt (torch, 39681 bytes, 4 tensors)

linear1.weight f8 [64, 70]
0.04625880718231201 -0.023724352940917015 0.014267830987181146 -0.10114747373791436 -0.09052362131197078 0.013071413255594149 -0.044489902811032864 0.10987557206952864
-0.09645623390115948 -0.03272006639964982 -0.10679277000623007 0.022366409449184874 0.04838499539736435 -0.006310396516734434 0.0353476946064245 -0.10519593824668035
0.01661764565854577 -0.09756187465908911 -0.11511424362925507 0.030964558720767105 -0.009848123630885412 -0.022895882280353858 0.04028711999306416 -0.10287971231374754
0.07646262539504939 0.06885702250205708 0.0996282930022518 0.026137193641642863 -0.03251384647873497 0.016625537245474022 -0.10413898440702339 0.02962065623875298
0.10645829905692461 -0.06683181746173858 -0.0718584640196507 0.04933081339828732 0.08942439025185689 -0.07093567088237399 -0.03806193492373545 0.0046952668280282476
0.10949756630698122 -0.041771647177549324 -0.008661805325926534 0.11379369083248483 -0.00547402561139831 -0.11393698776118927 0.005169499291183604 -0.02016562155791975
0.08468712674525561 0.028974131226889903 0.10164622802609359 -0.014111054783270944 0.051612971933694 -0.11462956472810608 0.06624089830446346 0.05614302667843914
-0.03054719665286329 -0.1018502939690675 -0.10947820981029717 0.09019615934716926 0.06874484687317702 -0.020354317751032174 -0.06739813160675136 0.10039957501761433
-0.04604585916125795 -0.11578164632921577 0.06600271459548991 -0.11463840961339702 -0.055018494724406175 -0.045611394534112046 0.10519027709960938 0.03418496623635292
0.05627346979941994 0.03186885608730607 0.10862515513829529 0.019751997038680146 -0.0878384128997901 0.04214312414818679 -0.10132094433442472 -0.0007795003769825972
0.10627992686460763 -0.011788814962014999 -0.07172640726768557 -0.00883998723340684 0.02890656212034315 -0.02191610853388671 -0.015231656073107088 -0.08088555483293486
0.03901815411723224 0.03661391985373988 0.03902571627275083 -0.05030152177368455 0.1044551245336013 -0.06232912935129726 -0.058939024998481915 0.07673282702494633
0.02163809807623661 -0.029643054236262782 0.0022776691480038925 -0.08998075458243324 -0.008261110695230736 0.09751523083960505 0.09206567294736179 0.01029392054454508
0.10828865119491873 0.05737603307110637 0.05618533953358588 -0.02784083851518129 0.04869355844087602 -0.013671400774135251 0.09464590089149473 -0.0813990075177094
-0.026614817774510934 0.02254852405346515 0.12809561544785386 -0.06023172894939215 0.07784585891048745 -0.11402490209346951 0.07672654213142177 -0.0773217363336429
-0.059008397108486044 -0.01265761540848976 -0.04700050985679955 0.040688676846519355 -0.022287469750789674 -0.0002539295012980825 -0.02913676425014045 0.03379343620212799
-0.06549208635523791 0.10070877878074039 0.008198970924249297 -0.0396403280880406 -0.06594898179090446 -0.05504246818951048 0.07269004930896365 -0.06566512789327911
-0.06489124869702226 -0.09033933673368635 0.10660254060587551 -0.051735704959774816 -0.036664415150880814 -0.060470208525657654 0.08616885151990993 0.023681339627101682
-0.09339331872207438 -0.057339182484955266 -0.06210983972165759 -0.10687878502728146 -0.11331679745400983 -0.044523668266953406 -0.08052992539958455 -0.0724424682279693
0.025015772150679877 0.012740408848790297 -0.0879324724703909 0.07957210172132911 -0.07119702025547017 0.09982278711670638 0.06905014338496585 -0.10705031132744824
0.0020185446187798847 -0.09111490175197598 -0.026107543797407793 0.10065359229907418 -0.07482896643180441 0.03133614071731519 -0.0639039806768128 -0.03673784765285085
0.05527995597273534 -0.04537947873234724 0.05822331263360254 0.042917988011014166 -0.05072544705492177 0.11166807159553833 -0.015114880830963288 0.005608797273999596
-0.09739148276577649 -0.09478110274193612 -0.09557875226997001 -0.09711812934926739 0.09815339762903588 0.0775591681236864 -0.0823135636054048 -0.07514844514232932
-0.013687687044230382 0.09286002464142917 0.0434238089427177 -0.10449675747357787 -0.054112009991355625 -0.11044982278598797 0.11332844529670652 -0.0747419236094148
-0.06270806543867642 -0.009036610454861068 0.01997212908115106 -0.05682444926306443 0.047105652646458135 -0.0035757781385002225 0.08015383525558048 0.11503528235362678
0.029480368963001862 0.03098095146764909 0.04427402561263249 0.04562045706205053 -0.04185857168237225 -0.0553854403859837 -0.008718488024231988 -0.04930672826589889
0.11768877938477613 0.11249016141117756 -0.09646055102348328 -0.021775947883725166 -0.006457789223250287 0.03974089404697577 -0.09997654497545265 0.08225714426746686
0.038102462292890125 0.021493351258497207 -0.08232713818393768 -0.08552390314120618 0.04977668598489695 -0.05186234758519337 -0.07483136027816857 0.08599394594164846
-0.06429744526470282 -0.08557456691774216 -0.0959991204753543 -0.07504041093163773 0.10090092824244633 -0.09480993724238038 0.12847387851382455 0.11839634045979285
-0.0715348278941476 0.06332848303668355 0.008204507050091427 0.0020462445428190896 0.0710870207728576 -0.049673005387927176 0.11276002242936081 -0.032647859935470376
-0.02355408546017215 0.029735422079712855 0.01593661951346889 0.08399363685649801 0.02102075069000887 0.08461510698062587 0.05823530878595116 -0.0039052018140747916
0.054345663320733095 -0.06081381009569446 -0.023325912970589602 0.0988139925743075 0.009052557611631916 -0.08936382299008865 0.13079952242138193 -0.026321339623482275
00000000: 0000 0000 3caf a73f 0000 0060 324b 98bf
00000010: 1d63 ccdb 7338 8d3f 2201 c703 cde4 b9bf
00000020: 38e7 0c59 8e2c b7bf c9ed 8f63 2fc5 8a3f
00000030: a6b5 266b 61c7 a6bf 94fc aa34 ce20 bc3f
00000040: 74ce 1912 5bb1 b8bf 1a09 383e afc0 a0bf
00000050: 0d42 a05e c556 bbbf 3ce9 7354 38e7 963f
00000060: a894 b209 ebc5 a83f 466d a02a eed8 79bf
00000070: 6fad a5d0 1719 a23f f507 71fa 1eee babf
00000080: 6b54 8f52 3704 913f 0c4b ffa4 d0f9 b8bf
00000090: 5a01 b187 2078 bdbf a5be 295c 2cb5 9f3f
000000a0: 0f79 5fc7 402b 84bf 18c2 6da6 0472 97bf
000000b0: 47f6 a36d 83a0 a43f 1437 cf27 5356 babf
000000c0: 2423 70fb 0d93 b33f a20b bf23 9da0 b13f
000000d0: 3d73 3364 3d81 b93f 53ad 995f b5c3 9a3f
000000e0: 8a2f 96a6 a7a5 a0bf c7af fdea 4806 913f
000000f0: 474e 443c daa8 babf 5f75 5397 e054 9e3f
00000100: e857 d6e0 d940 bb3f ae95 54d6 e31b b1bf
00000110: b1ba e7f8 5065 b2bf 4821 766c e341 a93f
00000120: 08b2 984f 84e4 b63f fa42 8f12 d728 b2bf
00000130: e199 709b da7c a3bf 11d9 8e17 583b 733f
00000140: 0db3 4752 0808 bc3f df24 0ee5 1763 a5bf
00000150: 421b cbd4 47bd 81bf 42dd 9d54 9521 bd3f
00000160: fb9d a78f ee6b 76bf 0c33 3d74 f92a bdbf
00000170: 86fa 46e6 9c2c 753f 750d 61f4 4ba6 94bf
00000180: 3259 c337 0eae b53f 4eb1 3208 65ab 9d3f
00000190: b942 22b9 7c05 ba3f d71f 73b6 41e6 8cbf
000001a0: 8558 02f5 036d aa3f 4b74 a9f7 5c58 bdbf
000001b0: c915 e0db 29f5 b03f caf6 f65e c7be ac3f
000001c0: 1822 6faa c347 9fbf be64 af61 dc12 babf
000001d0: b585 c292 c306 bcbf 16f3 9e72 1817 b73f
000001e0: 1dbd 1625 4399 b13f 4bd4 4a24 c3d7 94bf
000001f0: 1100 1003 0141 b1bf c1a2 3b5b c9b3 b93f
00000200: 757a 6da6 5293 a7bf 6b05 76b0 dda3 bdbf
00000210: 9985 a2cc 8de5 b03f 92ad 275c f158 bdbf
00000220: 286f 0857 622b acbf 76ab b26f 605a a7bf
00000230: 0000 0000 c0ed ba3f 0000 0020 b180 a13f
00000240: 1087 d750 e0cf ac3f 73d3 4f5d 1d51 a03f
00000250: 1087 d7b0 dbce bb3f c34d 3f15 de39 943f
00000260: 67b5 bc06 947c b6bf 537a ef97 c893 a53f
00000270: dff1 505e 2bf0 b9bf e38f 2c50 ec8a 49bf
00000280: a8d1 1a4a 2935 bb3f 3d7b c3f5 bb24 88bf
00000290: d36a 796d a95c b2bf 7e2d 8400 b31a 82bf
000002a0: e062 c98b ae99 9d3f e26f a225 2d71 96bf
000002b0: 5154 9545 c631 8fbf d4ec b96c eab4 b4bf
000002c0: 7681 c4ff 2ffa a33f 844a b348 0fbf a23f
000002d0: 6b5a 30be 2dfb a33f d4fc e9fd 1ec1 a9bf
000002e0: 197c c52f 92bd ba3f b9cf 4d88 9ae9 afbf
000002f0: f038 a781 412d aebf 900d 9a36 c3a4 b33f
00000300: 5c1e 572e 4c28 963f 1e43 feb1 bf5a 9ebf
00000310: 369f 0e50 9ea8 623f a671 338e fa08 b7bf
00000320: c801 1e82 33eb 80bf 1368 5117 c2f6 b83f
00000330: 88a5 64ae 9d91 b73f 5c09 b1a0 fa14 853f
00000340: 1afe 6817 ceb8 bb3f fdae 3a33 6460 ad3f
00000350: c570 9f27 53c4 ac3f 27e7 a90b 4f82 9cbf
00000360: 1711 0fb2 5cee a83f 1d2e b959 c0ff 8bbf
00000370: 8988 07b9 b63a b83f c425 37bb 90d6 b4bf
00000380: 46db b82f ea40 9bbf 14e3 87d5 f516 973f
00000390: e804 8ee7 6f65 c03f 67d1 0974 b1d6 aebf
000003a0: 784a 26ca b4ed b33f 29ca 6b69 bc30 bdbf
000003b0: 1c8b 30c5 59a4 b33f 9eab d278 5bcb b3bf
000003c0: 8068 8a3f 5936 aebf c468 cc61 3cec 89bf
000003d0: 39e7 7569 7310 a8bf e322 bf70 25d5 a43f
000003e0: e5cb c2c6 86d2 96bf b906 50e7 3aa4 30bf
000003f0: a130 4326 07d6 9dbf 087e 9d8e 5f4d a13f
00000400: dde4 0ae1 16c4 b0bf 828b 48ef 0cc8 b93f
00000410: 5513 d83f 9fca 803f fb4f 7bb1 bc4b a4bf
00000420: 4f16 ff4f 08e2 b0bf f9b6 87c1 862e acbf
00000430: fbd0 86a8 d09b b23f fc0e ca08 6ecf b0bf
00000440: ba47 f37e b69c b0bf 7a42 d090 7a20 b7bf
00000450: 929f 92d9 4d4a bb3f f9eb ac31 1a7d aabf
00000460: 0000 00a0 adc5 a2bf 0000 0080 f3f5 aebf
00000470: 9f3e 366f 290f b63f 533e e5cc eb3f 983f
00000480: c282 93e1 9fe8 b7bf adc1 1ab3 8f5b adbf
00000490: 4b88 ba64 dccc afbf 4211 5476 685c bbbf
000004a0: 8a05 2763 5402 bdbf 5e83 3566 cecb a6bf
000004b0: edc6 f0f3 9b9d b4bf 1972 e1ef 968b b2bf
000004c0: c8de 150d bc9d 993f e0eb beba a417 8a3f
000004d0: ae49 8415 be82 b6bf 102d 9156 d65e b43f
000004e0: 92e4 91c9 f739 b2bf b3d3 0f76 fc8d b93f
000004f0: b85e 9f2b 45ad b13f f891 2d32 a667 bbbf
00000500: 9e0f f1e3 3189 603f 26f7 3363 4e53 b7bf
00000510: 29af 279b efbb 9abf c541 260f 6fc4 b93f
00000520: 9b3a 9ebb fd27 b3bf 44a0 2067 4a0b a03f
00000530: 1854 17e3 025c b0bf a48b 639c 4dcf a2bf
00000540: 8aef 0d86 a74d ac3f 4c42 21a2 fa3b a7bf
00000550: 0991 402f 72cf ad3f dab8 d5b5 58f9 a53f
00000560: 700b 5a90 aff8 a9bf 059e 825b 4796 bc3f
00000570: dcbd d0f6 8cf4 8ebf 3c9d c90d 40f9 763f
00000580: 3151 63f1 a5ee b8bf c330 8e08 9343 b8bf
00000590: 5e27 315f d977 b8bf 845f 67d5 bbdc b8bf
000005a0: a2d8 cec0 9420 b93f 7ca0 98ea eada b33f
000005b0: 6bd2 b36f 8012 b5bf 2847 3bb2 ed3c b3bf
000005c0: f5eb b341 4a08 8cbf 38d1 f0b0 acc5 b73f
000005d0: e1ae 8d3e a53b a63f 6616 e3ab 4cc0 babf
000005e0: 38a7 77c2 91b4 abbf 0cfe b688 7046 bcbf
000005f0: 5281 41ce 1703 bd3f a9e5 8a65 4922 b3bf
00000600: bd29 41c2 a20d b0bf 516a f652 c981 82bf
00000610: d7ac f0e4 9273 943f d469 651e 1818 adbf
00000620: 1c84 256b 3b1e a83f 561a 3445 f34a 6dbf
00000630: 465a 1235 f684 b43f d64e 98c7 f372 bd3f
00000640: fbc9 4712 1a30 9e3f f7f9 6875 78b9 9f3f
00000650: 6f15 23c8 15ab a63f 4f5c 3886 905b a73f
00000660: 1cba dd98 7c6e a5bf 60c4 43fe 7a5b acbf
00000670: a826 7aa7 ffda 81bf 11e5 bf42 bb3e a9bf
00000680: 6553 9012 da20 be3f 23fd 61bc 27cc bc3f
00000690: 0000 0080 a3b1 b8bf 0000 0020 6f4c 96bf
000006a0: 330b 4b98 7b73 7abf 4eba 7d20 eb58 a43f
000006b0: 6361 0917 1098 b9bf 4eba 7de0 cd0e b53f
000006c0: cbdb e37a 2a82 a33f cd5d f262 5a02 963f
000006d0: d1c2 122e 6413 b5bf 698b 04ff e4e4 b5bf
000006e0: 0319 d16c 547c a93f 805c 8b9d b38d aabf
000006f0: 3524 1ce5 2528 b3bf e92e 7901 b303 b63f
00000700: e8d4 a020 cc75 b0bf f3f3 47fe 36e8 b5bf
00000710: d0eb e2fa 6593 b8bf c96c d42e d935 b3bf
00000720: 27f6 efaa a4d4 b93f c6b5 cacb 7645 b8bf
00000730: 35b7 4d01 d571 c03f 17ab 3dfa 384f be3f
00000740: fb91 5442 1b50 b2bf ad3f 8ca3 4b36 b03f
00000750: 2ef7 ad4b 86cd 803f ed49 832c 49c3 603f
00000760: 03b6 634d c232 b23f 2f36 457b bd6e a9bf
00000770: 625d a140 d7dd bc3f 911a 6a65 38b7 a0bf
00000780: 075b f4ea 8f1e 98bf cfe2 7565 f672 9e3f
00000790: f800 7a6e b051 903f 13ea 5e63 9b80 b53f
000007a0: 03fb 00b3 7686 953f 55b5 3aed 55a9 b53f
000007b0: ed8e 6ab5 04d1 ad3f a263 6c42 cdfd 6fbf
000007c0: 00b1 48dd 31d3 ab3f b627 03db fc22 afbf
000007d0: fd9d 6e85 bfe2 97bf 236c 7eb2 df4b b93f
000007e0: b9cf 18b7 258a 823f 631e 3029 8ce0 b6bf
000007f0: b4ed 90eb 09be c03f c3a3 7a33 fbf3 9abf

linear1.bias f8 [64]
-0.04647715041272582 0.01249369316873962 0.09996915829135235 0.1195777767082963 0.0476288877575967 -0.07844131988314201 -0.06790795644009548 0.10736953050619787
-0.04670368274707462 -0.11341575379982761 0.08759098500013351 0.09540258380644158 0.013188038971068466 0.0045002056285738945 0.06401236295367135 -0.05850044359158361
0.04035778994534869 0.05314508656862446 -0.042821861383066796 -0.011005068516889318 -0.029601379573330918 -0.11273860692852426 -0.09668740076897815 0.02529023759799351
-0.010387715867342094 0.0015738164149454198 0.11304527657682098 0.01984368109730155 0.06290638840615591 0.04303776511017813 0.02204395936777561 0.00416038340888141
0.0056528290307989865 0.004580684491167346 0.03694836135603008 0.046352394799142535 0.008192650449862207 -0.08198992699600752 0.06198279538012026 0.02004005599426115
-0.055420477517380225 -0.04318899835448631 -0.03689512885467948 -0.09844218003795645 0.004783142591922938 0.10962303426414408 -0.06664574874003143 -0.095049446706089
0.025023895132962052 -0.05108068715656178 -0.04563382872359771 0.08725988982222506 0.08225404793420905 0.05029763885511264 0.02130135115656753 -0.09371444017743188
-0.10714237018941349 -0.08797113059675489 0.0740918517112732 -0.007790159695664171 0.024456533289481237 -0.016993650856469904 -0.07428266417341446 0.08352029405639257
00000000: 505f 1162 dacb a7bf 8828 871c 4b96 893f
00000010: 4952 7829 9497 b93f b95f 4a30 a69c be3f
00000020: f607 8746 d062 a83f 849c 8df7 ba14 b4bf
00000030: 1e64 0c74 6a62 b1bf 1d6a 1cce 917c bb3f
00000040: 64bd 008c 8be9 a7bf f9e3 6b99 d008 bdbf
00000050: 0000 00e0 5c6c b63f 8d0e 67c1 4d6c b83f
00000060: c305 a2a0 5402 8b3f 0000 00c0 ce6e 723f
00000070: b4fa 6c3d 1d63 b03f 1500 0e28 c5f3 adbf
00000080: 2481 e8b7 c6a9 a43f bcba 8231 d535 ab3f
00000090: 5563 633c bfec a5bf c154 f64a d389 86bf
000000a0: 6f5a bcf4 d24f 9ebf 2b2e c1f5 6fdc bcbf
000000b0: fded 3c68 81c0 b8bf b8d8 901d afe5 993f
000000c0: 3968 719f 2746 85bf 0de7 0d82 10c9 593f
000000d0: 5a5e dd05 89f0 bc3f 8e72 61e5 e651 943f
000000e0: 37f6 e910 a21a b03f 2544 48c3 0b09 a63f
000000f0: 265d 3c12 b192 963f b624 e16a 7a0a 713f
00000100: 7017 13bd 6b27 773f 1263 5321 32c3 723f
00000110: f072 5447 e5ea a23f 8ed7 8147 80bb a73f
00000120: 156c ffed 4ec7 803f 9a9d 0cb7 4afd b4bf
00000130: 6a01 257e 35bc af3f 99e3 6b64 6185 943f
00000140: 1184 eea4 1260 acbf 3083 f54e de1c a6bf
00000150: 1e07 a017 ebe3 a2bf ff59 cfb7 8133 b9bf
00000160: 1814 1210 7d97 733f 6683 0d53 4110 bc3f
00000170: 9480 411f b20f b1bf 2405 1b19 2955 b8bf
00000180: 91c1 db2c dd9f 993f 10db 9671 3f27 aabf
00000190: 7611 eb33 515d a7bf 35fd 0905 aa56 b63f
000001a0: ad4e d7ed 990e b53f a2bf e5b3 9cc0 a93f
000001b0: 67f1 4f7a 05d0 953f ce9a b967 abfd b7bf
000001c0: a5bd faaf ae6d bbbf a9bb e7a8 4685 b6bf
000001d0: 0000 0000 aff7 b23f d1d5 f911 93e8 7fbf
000001e0: 7580 9b2a 220b 993f 8b37 ac9a c866 91bf
000001f0: 51d9 484d 3004 b3bf 3d46 8603 9661 b53f

linear2.weight f8 [3, 64]
-0.0215911068630492 0.09323155956634126 0.028000185784398043 0.1498811726925142 -0.017609436827356422 0.14068688593606368 0.13825705240865274 -0.10151241587125925
0.029472156259099724 0.06566922044827535 -0.07312637567520142 -0.033092907113353734 -0.0637703839326585 0.02753227949142456 0.06909416638223755 -0.01697018896357481
-0.007952097636616504 0.08443911293912205 -0.010241494089294268 0.11848490802397034 0.16532761710001703 0.02342295010155301 0.0407171412308837 0.07320634282992891
-0.08268167165042983 0.11991271486897503 -0.016267118186086532 0.05606072269967385 0.1641094146679196 -0.09496018003575556 -0.09741590545352787 0.07258359550784109
0.06972702736403427 -0.017567127919878796 0.17341989013542222 -0.09556328279455412 0.0822792013603443 0.01424978552747269 -0.08633215651843637 0.036367225519431445
-0.11965120556965103 -0.06719398965875503 0.1545765090705976 0.030863983915012064 0.11555003865068494 0.14417696205484198 0.08126400042930595 -0.08926675250196468
0.031131281599600543 0.00870417254198943 -0.10966931188525632 0.045853162656302605 0.04872049285420375 0.021707899486448863 0.12068989639983446 -0.04194615834506104
-0.03755675788485526 0.09157362687030134 -0.06849785149097443 0.030293989903099984 0.15665265160844472 -0.06362949639906985 0.08484247948024055 -0.1115043399413096
0.04561723369312704 -0.10097184939875647 0.0786114242894778 -0.08805177277617948 0.023443856335395082 0.07881335614077803 0.07309506277416593 -0.11205987330181304
0.0650311476301163 -0.024498518172410395 -0.09827810525894165 -0.07454660907604264 -0.10629048393550741 -0.12045156955718994 -0.044857317499905514 -0.08103910336737435
0.10004707052556276 -0.037545105210739727 -0.001261594812574278 -0.10277963810517403 0.06681524990202498 -0.03731871913849422 -0.09801313169111099 0.08163630922998552
0.03724092422393894 0.04519454874344772 -0.09229927818668851 -0.025274656130100236 -0.025623714170972613 -0.08544138173242707 -0.03495606726988164 -0.06113596075488509
-0.11069019071719577 -0.10464710599341882 0.06496416385002776 -0.045886838244292336 0.0898521451376655 0.07074316034762529 0.00015938050101832715 -0.014433445252604826
-0.09547605939618388 0.10298339940689676 -0.04821327479107462 0.060889217013434103 0.08093161297457063 -0.06772886981358953 -0.01684090747820367 0.05571434292425313
-0.05778170079518341 0.021868391079284906 0.09837065947521864 -0.12729102874694828 -0.09485045507856286 0.03932542029515811 -0.08931341180868708 -0.12416931978635402
-0.014540468154414924 0.08990728068733546 0.10829752683639526 0.06406835334599092 0.0960758316025493 0.12416444605657183 0.033902717540810215 0.0813174870676657
-0.003969401121139526 -0.10376015305519104 0.06813044846057892 -0.03736799955368042 0.07154068350791931 0.016500860452651978 0.0044829100370407104 -0.0173969566822052
0.02971351146697998 -0.06351907551288605 -0.033818796277046204 -0.0732736587524414 0.0656844824552536 0.12197352945804596 0.04218190908432007 -0.08800564706325531
0.10801495611667633 -0.11034063994884491 -0.03664776682853699 -0.0496504008769989 -0.015589535236358643 -0.1213797777891159 0.0592217743396759 0.0762903094291687
0.004351168870925903 -0.08269742131233215 0.08293943107128143 0.11613397300243378 0.09891918301582336 -0.10722245275974274 -0.11026114225387573 0.03583952784538269
0.10273376107215881 -0.07594557106494904 -0.006863340735435486 -0.015083864331245422 -0.09669438004493713 -0.060705602169036865 0.08012641966342926 0.07551968097686768
0.08008827269077301 0.08411933481693268 -0.10016734898090363 -0.022494718432426453 0.07232342660427094 0.10856691002845764 0.0728219747543335 0.10482800006866455
0.0412524938583374 0.0898793488740921 0.06925290822982788 0.11401627957820892 0.06872597336769104 0.10001358389854431 0.013159513473510742 -0.010922074317932129
0.034901633858680725 -0.010060444474220276 -0.11402799189090729 -0.031729310750961304 -0.12055636942386627 0.09339843690395355 0.0002713054418563843 -0.052768588066101074
00000000: 3ce8 71a7 fa1b 96bf 0be2 4a03 06de b73f
00000010: ec55 e7a8 14ac 9c3f 9f0f 8067 4e2f c33f
00000020: ab0f 194d 3508 92bf 1f26 0923 0702 c23f
00000030: bdac 4437 68b2 c13f 2015 4eba b7fc b9bf
00000040: a30b 1aed f22d 9e3f 3ddd 2db2 b2cf b03f
00000050: 0000 0000 69b8 b2bf 4a16 90b3 8df1 a0bf
00000060: a5b2 7181 4153 b0bf 0000 0000 6c31 9c3f
00000070: 81c2 f4c0 27b0 b13f 9b06 6c1a a260 91bf
00000080: f25b 457a 3049 80bf d5a7 933c cd9d b53f
00000090: 67d3 6711 7ef9 84bf 4553 08e5 0655 be3f
000000a0: c6fb 4892 7429 c53f f7e5 a592 2ffc 973f
000000b0: f64e f28b e0d8 a43f 8a76 50a0 a6bd b23f
000000c0: d89a b743 a02a b5bf 48a0 bc84 99b2 be3f
000000d0: c808 70d2 53a8 90bf 7ba2 2bb5 fdb3 ac3f
000000e0: 0772 7b8c 8901 c53f ff03 ad73 4f4f b8bf
000000f0: 397b 08b0 3ff0 b8bf 3fa9 eea8 d694 b23f
00000100: d202 2d66 a1d9 b13f ff23 9aff 1dfd 91bf
00000110: 3fc4 4d7a 9f32 c63f f40e 4dd6 d576 b8bf
00000120: 4ad2 fbee 3f10 b53f bf29 86d6 fd2e 8d3f
00000130: 96ff d63c dd19 b6bf 4822 8198 b99e a23f
00000140: 703f d91e 76a1 bebf 2276 1214 a033 b1bf
00000150: 7c12 98bd 29c9 c33f 5430 28e6 ce9a 9f3f
00000160: f264 0ef5 af94 bd3f e45b 6e04 6474 c23f
00000170: a29d 2fb0 b7cd b43f 67b6 9d96 2fda b6bf
00000180: bf51 69f1 e0e0 9f3f 0db0 4043 7ed3 813f
00000190: 3108 ecbb 4913 bcbf 65d1 0dd4 107a a73f
000001a0: 5d59 e876 e4f1 a83f d2c5 6f79 983a 963f
000001b0: e4b2 fe75 88e5 be3f 17db 9184 f779 a5bf
000001c0: c3ee b7ad a33a a3bf 5f84 9584 5e71 b73f
000001d0: 0000 0040 1389 b1bf aabf 983f 6305 9f3f
000001e0: beb6 beaf 310d c43f f54e 18ce 054a b0bf
000001f0: 05df ad9a 3cb8 b53f 30f5 6865 8c8b bcbf
00000200: f922 b15d 245b a73f d8fa fb86 4ad9 b9bf
00000210: 4350 6ad8 e01f b43f 18b3 6d9c 8f8a b6bf
00000220: 2fb5 0291 aa01 983f 22d6 1cb3 1c2d b43f
00000230: 4b36 1da8 5bb6 b23f e372 06b3 f4af bcbf
00000240: 38ee 4a9c e1a5 b03f 3263 67b9 2316 99bf
00000250: 0000 0000 c128 b9bf 7b61 0290 7c15 b3bf
00000260: 4e07 6168 da35 bbbf 0000 0000 ead5 bebf
00000270: d0f8 4bcf 89f7 a6bf 24f8 a88a fabe b4bf
00000280: 23c8 f74f af9c b93f 3090 02ae 1c39 a3bf
00000290: 47e8 7d1d 83ab 54bf 833f 5b30 c44f babf
000002a0: 2409 34e1 cd1a b13f 59f6 746c 701b a3bf
000002b0: ed1d 317b 6317 b9bf 1616 4ffe 1de6 b43f
000002c0: 09b1 3a0f 3e11 a33f 1c05 9f69 bd23 a73f
000002d0: 8298 41ed eca0 b7bf 3657 fc75 99e1 99bf
000002e0: 172c 7759 1a3d 9abf 2e0d 4484 7cdf b5bf
000002f0: 1e1c 71fb c2e5 a1bf b881 1a70 364d afbf
00000300: c04c 1e3d 3156 bcbf 1ddf dc19 27ca babf
00000310: ced9 25cf 7da1 b03f a6f3 26cb 7a7e a7bf
00000320: e17a d7d8 8c00 b73f 08d6 1b48 391c b23f
00000330: 5b88 3814 ece3 243f c6db a03a 488f 8dbf
00000340: 1156 a878 1e71 b8bf 73c8 7bbc 1e5d ba3f
00000350: 60e4 eb0c 69af a8bf e3e4 8017 df2c af3f
00000360: 1835 f026 efb7 b43f 2a2b d8e0 ad56 b1bf
00000370: c356 6a2b be3e 91bf 4e3b 8e21 9786 ac3f
00000380: b0f4 7126 9095 adbf f2b4 01e2 aa64 963f
00000390: 0aff 54cd d12e b93f 5b6b c58a 124b c0bf
000003a0: 9bb9 9292 1e48 b8bf c768 2324 7622 a43f
000003b0: 6dff cf66 3edd b6bf ff21 a67f 8fc9 bfbf
000003c0: cfaf 8899 64c7 8dbf 2972 39de 2904 b73f
000003d0: 0000 0000 63b9 bb3f e060 549a c866 b03f
000003e0: 7940 abfa 6c98 b83f 0f91 23bb 3dc9 bf3f
000003f0: 02a7 2a6e b25b a13f 466c 8c0b 39d1 b43f
00000400: 0000 0000 3842 70bf 0000 0080 0690 babf
00000410: 0000 0040 ff70 b13f 0000 0000 e621 a3bf
00000420: 0000 0080 7d50 b23f 0000 0000 9ae5 903f
00000430: 0000 0000 ac5c 723f 0000 0000 82d0 91bf
00000440: 0000 0000 386d 9e3f 0000 0040 c942 b0bf
00000450: 0000 0080 b250 a1bf 0000 0000 10c2 b2bf
00000460: 0000 00c0 b2d0 b03f 0000 0040 a839 bf3f
00000470: 0000 0000 de98 a53f 0000 00c0 8987 b6bf
00000480: 0000 0040 dea6 bb3f 0000 00c0 483f bcbf
00000490: 0000 0000 7fc3 a2bf 0000 0000 c76b a9bf
000004a0: 0000 0000 68ed 8fbf 0000 00c0 be12 bfbf
000004b0: 0000 0000 5152 ae3f 0000 0000 c387 b33f
000004c0: 0000 0000 88d2 713f 0000 0080 a82b b5bf
000004d0: 0000 00c0 843b b53f 0000 00c0 f4ba bd3f
000004e0: 0000 0080 c452 b93f 0000 0040 ee72 bbbf
000004f0: 0000 0000 133a bcbf 0000 0000 8f59 a23f
00000500: 0000 0080 c24c ba3f 0000 0040 2b71 b3bf
00000510: 0000 0000 bc1c 7cbf 0000 0000 4ae4 8ebf
00000520: 0000 0080 f6c0 b8bf 0000 0000 ce14 afbf
00000530: 0000 0040 2a83 b43f 0000 0000 4255 b33f
00000540: 0000 0040 aa80 b43f 0000 0040 d888 b53f
00000550: 0000 0040 91a4 b9bf 0000 0000 db08 97bf
00000560: 0000 00c0 c983 b23f 0000 0080 0acb bb3f
00000570: 0000 0000 76a4 b23f 0000 0000 02d6 ba3f
00000580: 0000 0000 0c1f a53f 0000 0040 5502 b73f
00000590: 0000 0000 8fba b13f 0000 00c0 2b30 bd3f
000005a0: 0000 0080 0698 b13f 0000 0080 7d9a b93f
000005b0: 0000 0000 60f3 8a3f 0000 0000 505e 86bf
000005c0: 0000 0080 a0de a13f 0000 0000 929a 84bf
000005d0: 0000 0040 f030 bdbf 0000 0000 d33e a0bf
000005e0: 0000 0040 c8dc bebf 0000 00c0 f5e8 b73f
000005f0: 0000 0000 c0c7 313f 0000 0000 7c04 abbf

linear2.bias f8 [3]
-0.03185691380461908 -0.05862229547758287 0.06730245053768158
00000000: 1079 e2a5 8c4f a0bf aa0b c9d3 bd03 aebf
00000010: 0000 00c0 bb3a b13f
