checkpoints/final_with.ckpt (torch, 16807 bytes, 14 tensors)

linear1.weight f8 [2, 2]
0	0xbfe65c5980000000	-0.6987731456756592
1	0xbfd76742a0000000	-0.36567750573158264
2	0x3fa43a2760000000	0.039506178349256516
3	0x3fc32da2c0000000	0.1498301923274994

linear1.bias f8 [2]
0	0xbfb9db3020000000	-0.10100079327821732
1	0x3fc38f2a00000000	0.15280652046203613

linear2.weight f8 [2, 16]
0	0x3fcfb2dea66e1f62	0.2476461708686158
1	0x3f625dffaf847d0a	0.0022420877322840748
2	0xbfc2de642658d871	-0.14741184112944297
3	0xbfcbd73593a46676	-0.21750516614047272
4	0x3fbdb26e611b2185	0.11600389357329817
5	0x3fc8bd9341ba9d93	0.1932853766386243
6	0x3fc0c1b77063813c	0.1309117602131752
7	0x3fcae27e8e9f258e	0.21003705944012235
8	0xbfa803ef4c34ce0a	-0.04690501981022173
9	0x3fc5c521a5ec2327	0.17007847406082385
10	0xbfc52d9637826aa0	-0.16545369825765466
11	0xbfcc392d89ba109c	-0.2204949305052012
12	0x3fb17a4a81b1ea11	0.06827226320630354
13	0xbfb5c19eaff3d36c	-0.08498565479005799
14	0x3fb5ce5509cee111	0.0851796292253122
15	0x3fcd9ddbd5962301	0.23137996605898795
16	0xbfcc705baa5574dc	-0.2221788961132124
17	0xbfb1545223fd0890	-0.06769288424132669
18	0xbfcd1e355cf8ecc9	-0.22748438872972646
19	0x3fccea7c5fb5aa24	0.2259059398014226
20	0x3fcc30248e5192f2	0.22021920155670888
21	0xbf9a2055ed026bd1	-0.02551397570696762
22	0xbfc8a3e1b0e19ceb	-0.19250126969129808
23	0xbfca175bbc8761bc	-0.20383784013280415
24	0xbfb8e0a100150c91	-0.09717756511695287
25	0x3fcb89ebacc9e178	0.21514650284712977
26	0xbfc0b4a7b737d98d	-0.13051315733146077
27	0x3fcbd3e1f3831add	0.21740364446869523
28	0xbfad16af4eb20c40	-0.05681369624746724
29	0x3f9f7263646e04fc	0.030709794049021064
30	0xbfcb6be803317e85	-0.2142305389015641
31	0x3fc2d795ff28fde3	0.14720416029920988

linear2.bias f8 [2]
0	0x3fcdbd4cde1a2e87	0.23233948559606096
1	0x3f925d595f70d94a	0.017934223604436007

linear3.weight f8 [3, 16]
0	0xbfaaaeea00000000	-0.05211573839187622
1	0x3fba490600000000	0.10267674922943115
2	0xbfc44f2840000000	-0.15866568684577942
3	0xbfbb630280000000	-0.10697951912879944
4	0xbfccba0e00000000	-0.2244279384613037
5	0x3fcf4bac00000000	0.24449682235717773
6	0xbfc1d9e300000000	-0.13946187496185303
7	0x3fc4f055c0000000	0.16358444094657898
8	0x3fce489880000000	0.2365904450416565
9	0xbfcbb8f940000000	-0.21658244729042053
10	0xbfa33c1400000000	-0.037567734718322754
11	0xbfc5ea72c0000000	-0.17121729254722595
12	0xbfaacbac00000000	-0.052335143089294434
13	0x3fb8281b80000000	0.09436199069023132
14	0x3fce7621c0000000	0.23798009753227234
15	0x3fcb65f2c0000000	0.21404871344566345
16	0xbfbe8ab280000000	-0.11930385231971741
17	0x3fcf73f0c0000000	0.24572572112083435
18	0x3fcb5d1180000000	0.21377772092819214
19	0xbfce310900000000	-0.23587143421173096
20	0xbfc710da40000000	-0.18020179867744446
21	0xbfcba6f980000000	-0.21603316068649292
22	0xbfcc843b40000000	-0.22278538346290588
23	0xbfb8f62f80000000	-0.09750649333000183
24	0xbfc515d0c0000000	-0.16472825407981873
25	0x3fc2367340000000	0.14228668808937073
26	0x3f92127a00000000	0.0176486074924469
27	0x3fb8196280000000	0.09413734078407288
28	0xbf78ca0800000000	-0.00605204701423645
29	0xbfc07af880000000	-0.12875276803970337
30	0x3fc2ba14c0000000	0.14630374312400818
31	0xbfc3108900000000	-0.14894211292266846
32	0xbf7703a000000000	-0.005618691444396973
33	0x3fc134c680000000	0.13442307710647583
34	0x3fc8d691c0000000	0.19404813647270203
35	0xbfc2733cc0000000	-0.1441417634487152
36	0xbfa298ec00000000	-0.036322951316833496
37	0xbfc02fcb40000000	-0.1264585554599762
38	0x3fc1fe4640000000	0.14057233929634094
39	0x3fcff87400000000	0.2497696876525879
40	0xbfc612ca00000000	-0.17244839668273926
41	0xbfbfe63e80000000	-0.12460699677467346
42	0xbfcf0f8540000000	-0.24266114830970764
43	0x3fc480ddc0000000	0.16018268465995789
44	0x3f97c4c800000000	0.02321159839630127
45	0xbfcb9bc280000000	-0.21569091081619263
46	0xbfbca76380000000	-0.11192914843559265
47	0xbfca823800000000	-0.20709896087646484

linear3.bias f8 [3]
0	0x3fb8e59b80000000	0.09725353121757507
1	0xbfc4cfba40000000	-0.16258934140205383
2	0x3fca37c1c0000000	0.20482656359672546

encoderlstm.weight_ih_l0 f8 [64, 2]
0	0xbfc983c837ef81be	-0.1993341706393163
1	0xbfc7b42ab40b26e9	-0.1851857546919782
2	0xbf136d2a9a22ff69	-7.410595438539298e-05
3	0x3fb0138a40117550	0.06279815735020589
4	0x3fc419d5471c9208	0.15703836414572003
5	0xbf6277140bc10625	-0.0022540465852507624
6	0x3fb0e5def4c9c9aa	0.06600755192065458
7	0xbfb8f338cb589239	-0.0974612709474706
8	0xbfc8f1f3d221ff0c	-0.19488380203619504
9	0x3fb67cd0fa7228a4	0.08784204592135098
10	0xbfcf5dfad9bfc2a5	-0.24505553848532205
11	0x3fbaf7f2bb5cff73	0.10534588884638456
12	0xbfb0c1351f277c64	-0.06544811258889777
13	0x3fa75f27692b3db0	0.04564784201431438
14	0xbf8e21da842e0436	-0.014713008078390027
15	0xbfb52208303ee09c	-0.08255053689834074
16	0xbfc1fef0411fcb96	-0.1405926053990611
17	0x3fa3ffbd01f1f4a1	0.039060503470844006
18	0xbfc497aee1abd810	-0.16087900179962888
19	0xbfce9a95cff29602	-0.23909256604854084
20	0x3fb10cb7bdb46391	0.06660030728779832
21	0x3fc0de18697cc5d5	0.13177781248809475
22	0x3fa9bdbf5a01bfcd	0.05027578328815672
23	0x3fc2bd3197e3371e	0.1463987342489696
24	0x3fc732ebea5ff4cc	0.18124150222857904
25	0xbf9a88a0a5b23616	-0.02591181765870062
26	0x3fbe1803f27ff7e3	0.11755394621283659
27	0xbfc99fe3dda812c6	-0.20019195864747114
28	0x3fbc588923a00483	0.11072594756844194
29	0xbfbc27f908dbc14f	-0.10998493639249783
30	0xbfc9756bdb40088c	-0.1988959141309049
31	0xbfcb2b0dc3aa6c25	-0.2122513966940868
32	0xbfca2bf4f9efae85	-0.20446645931166443
33	0x3fc9dbc268709acb	0.20201902484514841
34	0xbfb631495544c2f2	-0.08668955165627404
35	0x3faf79cce75dae90	0.06147613834658927
36	0x3fa7d07a605b5ea9	0.04651243616325235
37	0x3fb1496dd1d5a7f2	0.06752668736376657
38	0x3fc614a3077c6474	0.17250478616259424
39	0x3fce652fdb588265	0.23746298036805338
40	0x3f941f5bafe6b7ff	0.01965087185970304
41	0x3f94487dbaf39962	0.019807781730287195
42	0xbf8f06f5aad0f707	-0.015149993205450863
43	0xbfbc9e25be7f2c10	-0.11178813839721635
44	0x3fb2ec1da7239da2	0.07391534166855832
45	0xbfcad20d7ebe8642	-0.2095353001468983
46	0x3fb939cdd73777bb	0.09853827003777742
47	0xbfc4bbb4bacda632	-0.1619783317685673
48	0x3fcec27a22d168a4	0.24030996990297127
49	0x3fcb1c150e89d489	0.2117945023525503
50	0x3fa5260b0710d8e6	0.041305870640302264
51	0x3fbdcea9a62c9202	0.11643467242226538
52	0xbfc729b800ed0e28	-0.18096065564360342
53	0xbfb74509e426fab0	-0.09089719600795365
54	0x3f72bc9084126360	0.004574360385185411
55	0x3fcb5ac83936be08	0.2137079505314292
56	0x3fba7687bbe59966	0.10337112748456931
57	0xbfc6319682b76935	-0.17338830359114757
58	0x3fb13d197fac3f12	0.06733855597508079
59	0xbfcbb2c9c25c2d87	-0.21639368047940996
60	0x3fc722a3f8518947	0.18074464440275959
61	0x3fc255b1798394d5	0.14324015076923638
62	0x3fb0bbaf12b14ec9	0.06536382871973524
63	0xbfc89fe57da74926	-0.19237965236113402
64	0x3fc3a1c6d76d34b5	0.15337453383327718
65	0x3fccee3f74930ced	0.2260207480631843
66	0x3fa76e254d62529f	0.04576222009305763
67	0x3fcaac9c1d83392c	0.2083926338295411
68	0xbfc88ea3c17a2f69	-0.1918530173028288
69	0xbfc46669aa113f1c	-0.1593753891379429
70	0xbf60275a1892e4a9	-0.0019718894660312914
71	0x3fc7d57184caa3a6	0.18620127662623281
72	0xbfa735541d8230d4	-0.04532873974048504
73	0x3fb9dd15b2109b05	0.10102973553931001
74	0xbfba910530c35c53	-0.10377533379083674
75	0x3fc62a0c4fec2c36	0.17315820600956194
76	0x3fc60225cb23a004	0.1719405404940063
77	0x3fc07f842edb25c8	0.12889148986714205
78	0x3fcb36d03bd792b5	0.21261027261711765
79	0xbf906d69e55f4efd	-0.016042379975103483
80	0x3fba3ad743c0efc4	0.10246034053937964
81	0x3f9abe75c5b954bd	0.026117172425377023
82	0xbfb8afa0c471aa7d	-0.09642987056728632
83	0x3fb434280c560cd7	0.0789208440892709
84	0xbfcdb1b002859ade	-0.2319850933374345
85	0x3f88f80f9f624bd6	0.012191888858330484
86	0x3fc4c1ed73214fa2	0.16216819879138905
87	0xbfce3bdf8a537529	-0.23620218519401107
88	0x3faffbcd7280dcd8	0.062467975833379874
89	0xbfbd42b9823f7131	-0.11429938726309243
90	0x3fb580e284305cfb	0.08399787642735028
91	0x3fcb27679bc3b94f	0.2121400366372179
92	0x3fb0893a3c692d21	0.06459392523645537
93	0x3fc152f41e873285	0.13534404268866154
94	0x3fb02ec0739de710	0.06321337530780746
95	0xbfbcd815ec199100	-0.1126722051063247
96	0xbfc0a53bf823c187	-0.13004254928774747
97	0x3fa46a0c446a256e	0.039871581412692744
98	0xbfc606fce3db07ef	-0.17208825231324407
99	0xbfc1e6790bd056e9	-0.13984597279402713
100	0x3fa8db4ab3f1b025	0.048548063722450054
101	0x3fcd51f7701c6cc4	0.22906392072841275
102	0xbfb1959527d2884a	-0.06868869993425722
103	0xbfb0d389bf8b7d1e	-0.06572781492603894
104	0xbfcad40c0b4ea321	-0.20959616233928904
105	0xbfc20f633b934091	-0.1410945931334067
106	0xbfc4dcdb33547789	-0.16298999792428173
107	0x3fc6f6fa7ca8c99f	0.17941218459016015
108	0x3fc08766d5da4ea1	0.12913213197736176
109	0x3fcc0c2512670629	0.21912063025051623
110	0xbfb996be5b5c5e7b	-0.09995641451348007
111	0x3fcd30309eee4e23	0.2280331398038565
112	0x3fcadcef9003ada7	0.20986742526961885
113	0xbfc6925170c5c89a	-0.17634027487253406
114	0xbfc14cd4126ddd3c	-0.13515711688862975
115	0xbfc08692f456f553	-0.12910687380455474
116	0xbfca90a6d1e5d042	-0.2075394177333028
117	0xbfbc1775e8c4ca91	-0.10973298008756617
118	0x3fd03c2c4b9048b7	0.25367267016657585
119	0x3fcf24501f37b930	0.24329568409252422
120	0xbf960729cef4ba91	-0.021511700874891352
121	0x3fb1ebe309d63a59	0.07000559797436647
122	0x3fc26e74aef1eae6	0.14399584333644738
123	0x3fa6a052f3b186ce	0.04419192528508874
124	0xbfba9a5b7ed59070	-0.10391780706919618
125	0x3fc8f206778e9cac	0.1948860248350902
126	0x3fb03c63e9722bea	0.06342148255696115
127	0x3fc430736ee168e6	0.1577286044510579

encoderlstm.weight_hh_l0 f8 [64, 16]
0	0xbfc700eceb28e1a6	-0.1797157428970994
1	0xbfbd5cdd3c3c3710	-0.11469824524484928
2	0xbfc3c07ef45a9820	-0.15431200915662746
3	0xbfb25276121de0f4	-0.07157075826933462
4	0x3fac92a40e81395e	0.0558062808710129
5	0xbfc9ea30087b1bfa	-0.20245933927637322
6	0x3fb1a8242294eac7	0.06897188038139311
7	0x3f8d93530d19e433	0.01444115527850629
8	0xbfc0fd4d49707e2b	-0.13273016057881767
9	0x3fc0ea7cf76a6504	0.1321560104450229
10	0x3fa193cc1fb0ac92	0.0343307293590779
11	0x3fa965d684bab642	0.04960508699637646
12	0xbfc86e096869cd4b	-0.19085805509858242
13	0xbfb1bd4a1586f9c3	-0.06929457688872902
14	0x3f94e3c4f331ee39	0.020400121062705365
15	0xbfa612bb5b8fe689	-0.04311166279508167
16	0x3fc8d0eb017d103f	0.19387567112619483
17	0xbfb94a566d72844f	-0.09879055187276829
18	0xbfb1890de6e6fc5d	-0.06849753272307298
19	0x3fb07215e5c80812	0.06424080715081029
20	0xbfb2b13c19b694fd	-0.07301688792957246
21	0xbfa4b49d06afad17	-0.040440470758620055
22	0x3fcaf60d6688b14e	0.21063392168560785
23	0x3f9a1a199bc17ad7	0.02549018872411576
24	0x3fcd9f79eed4b395	0.23142933046019878
25	0x3fb4fe6d066c9100	0.08200723082387995
26	0x3fa8c5cf33022b5a	0.04838416574155842
27	0xbf9cc99fba0e0662	-0.028112884264834277
28	0x3fc4bab86dd8ba21	0.1619482551918319
29	0x3fc90d02dd2c58d0	0.19570956992601518
30	0x3f8bedf9b32d6d09	0.013637495785295177
31	0x3fc0f273da8519ba	0.13239906473081736
32	0x3fbcd68ab6ee4e8a	0.11264864889226991
33	0x3fba5778e5e804f0	0.10289722073504826
34	0x3fa27a6f9020a3e1	0.0360903609692469
35	0x3fa3a738a423e231	0.038385171925203194
36	0x3fb7c47f77054a92	0.09284207015779547
37	0xbfc62dc7d461c41f	-0.173272112562274
38	0xbfa44d022625b9fc	-0.03965002742448928
39	0x3f9c1f5a49467ed8	0.027463350984929885
40	0x3fcf57035d89888b	0.24484293048141512
41	0xbfbcabe3a58791aa	-0.111997821724407
42	0xbfcd601666fa902b	-0.22949485805759315
43	0xbfa7986278ea8b59	-0.046084477672841025
44	0xbfc2dcb876a6b5b4	-0.14736085694805257
45	0x3fc3742b843b73ed	0.15198272663738469
46	0xbfcf3b6fc169e624	-0.24400135940577272
47	0xbfb37e2fbf75df78	-0.07614420341803718
48	0xbfcfc2edc43c1815	-0.24813625413679632
49	0x3fcd6fce346bf62e	0.22997453269629048
50	0xbfbea7311014e662	-0.11973864214533017
51	0x3fb24faa48c0293e	0.07152809406412516
52	0xbf9c9843ecce8d86	-0.02792459614614764
53	0xbfbeb9d8f9f42283	-0.12002330877670357
54	0xbfc06ec2e9075949	-0.12838016870837013
55	0x3fcc6b436facd8da	0.2220234198845848
56	0xbfcdd4865bfd282a	-0.23304824344296665
57	0xbfc2d834543edf87	-0.14722303498797037
58	0x3f1326154ccca958	7.304673199529565e-05
59	0x3fc3ed1d5dc8a622	0.15567366675650002
60	0xbfa6c94c5243af49	-0.044504532854118546
61	0x3fa922186d97350f	0.049088252427830985
62	0x3fb0dafbd3b52a1e	0.0658414260734976
63	0x3fb9da51be777404	0.10098753833831614
64	0xbfc331e387f36161	-0.14995998514383316
65	0x3fca60ac68767cbe	0.2060752401421037
66	0xbfc3f684d341a17b	-0.15596065821888402
67	0x3fa229681c8d867f	0.03547215794129687
68	0xbf9760a2d51bc8d4	-0.02282957483016264
69	0xbfcd198dae1b63cd	-0.2273423290378375
70	0x3fcf70abf6f5b2e4	0.24562596853811336
71	0x3fc089a5196bbdb4	0.12920058957341285
72	0x3fb42c776348b9cc	0.0788035027878557
73	0xbfbf0cc81cd214e7	-0.12128878310803125
74	0xbfc276fac4973c74	-0.14425596808584695
75	0x3fcf7231a2acdd4a	0.24567242091300506
76	0xbfc74bb736ce7ce2	-0.18199815918067147
77	0x3fc9a8d820e25962	0.20046521764443087
78	0xbfc44f4b3dbe3283	-0.15866985811989673
79	0x3f9f753ec600bd3d	0.030720692477357082
80	0xbfc271fcc667e0c0	-0.14410361945897954
81	0xbfa0b41e3118b75b	-0.03262419080088704
82	0x3fc1c075ba147f10	0.1386859091371595
83	0xbfaf0116bee37737	-0.06055518226797434
84	0x3fcb111e3656af88	0.21145990041020135
85	0xbfa467cb83ab5445	-0.0398543928364821
86	0xbfca5da2908c8969	-0.20598251398139247
87	0xbfcfaee4ad85dede	-0.24752481911467944
88	0x3fc2723ac47acb8e	0.1441110095380193
89	0xbfc4dcf6b2a378f5	-0.16299327585779336
90	0x3f7d1dcd8941fe3c	0.007108500362050626
91	0x3fc5c23e2a9aa84b	0.16999032097129638
92	0x3f913c438f5fe200	0.016831451059234226
93	0xbfa1b8037604343a	-0.0346070367396369
94	0x3fb9723129bca3a4	0.09939868229834176
95	0x3fca5b27a034852e	0.2059068233730072
96	0xbfce1bacd04a1d75	-0.23521957559954002
97	0x3fcfe1566bfae661	0.2490642573591684
98	0x3f74348b548dcebc	0.004932922610226317
99	0xbf97d432d1ff6a06	-0.023270410601847778
100	0xbfcaca2729afb35e	-0.2092942193552529
101	0x3f8fb15fe11c12f0	0.015475033814718014
102	0x3fa79ca9e4a39c31	0.04611712375645317
103	0x3fa4d03235201ec7	0.04065091036323803
104	0x3fcd9c5cc357a049	0.23133430040548067
105	0xbfc7e9057ca6e2eb	-0.18679874979513697
106	0x3fc42bb1ed1d8be6	0.1575834663190953
107	0xbf76838e6611a701	-0.005496555561970374
108	0xbfa825eaf3a34e84	-0.047164289704281465
109	0x3fa0d475b4ddba8b	0.03287093956793282
110	0xbfc8dff640b2d58a	-0.19433477553472428
111	0xbfb11054bb1c261f	-0.06665544098009278
112	0x3fbe1ad13439bb9c	0.11759669804608425
113	0xbfbd6ec41791c33c	-0.11497140479492612
114	0xbf9cb84952bd1ab3	-0.028046746897667684
115	0xbfca314079cbf8de	-0.20462804743869517
116	0x3fa8fa4bbff760ba	0.04878460615481246
117	0xbfcf67115196110e	-0.24533287509633123
118	0x3fbb10fedd12ffb2	0.10572808167762451
119	0xbfc81f8159fb833e	-0.1884614648215805
120	0x3f976360ecd00573	0.022840036825078024
121	0xbf9d4c20aabb4986	-0.028610716267232238
122	0xbfc279ac99f6c0f7	-0.14433820264594718
123	0xbfc822601deaf716	-0.18854905567962338
124	0x3f9b8e7267783e07	0.026910579266823855
125	0x3fc0b754765d1754	0.13059478549456094
126	0x3fca28184d26909a	0.2043486000740174
127	0xbfae0282bb5ba903	-0.058612904902320316
128	0xbf9caab41bb8b0f4	-0.02799493235777191
129	0xbfc8398b4a4a64dc	-0.18925610663862968
130	0x3f9e16e52653d7c2	0.029384212936711902
131	0x3fab892daa899990	0.053780963008466576
132	0xbfc21f31b9465e16	-0.14157697245239892
133	0x3fb637cb9b8f6cc4	0.08678886936052083
134	0x3fce817f24f73245	0.23832692437135186
135	0xbfc8144b643ba84c	-0.18811933893386124
136	0x3fc5186e05b0e75f	0.16480803754694315
137	0x3f60fae224564a43	0.0020727555117414933
138	0xbfb78ea63752f44f	-0.09202040529903964
139	0x3fb5ee6dd01bb4fb	0.08566938715712873
140	0xbf5f11e2417c0502	-0.001896353676727636
141	0x3fcb28775a93cd95	0.2121724312088246
142	0xbfa2e3fb80880744	-0.0368956179045328
143	0x3fced3226ed1d6af	0.24081831370465553
144	0x3fbee47e7fbe2e8e	0.12067404383395283
145	0xbfbc096388875bd9	-0.1095182617494709
146	0xbfc83f16693c5a14	-0.1894252790304597
147	0xbfcdb225f50e3027	-0.23199915376278676
148	0xbfc36c40b12fcd78	-0.15174111034103155
149	0xbfcfcd25afb0b370	-0.24844809607148077
150	0xbfce377c5b41f104	-0.23606829124390327
151	0xbfc16169df6cfa7c	-0.13578532609422556
152	0x3fa350b2f19e180e	0.03772505950387038
153	0xbfca82ba122ed89a	-0.20711446655122218
154	0x3fc6edb81ba1f938	0.1791296133923852
155	0xbfc9e55627711aeb	-0.20231129575605364
156	0xbfc9b467bddf9d70	-0.20081803103606033
157	0x3fce6e617c59b884	0.23774355480003717
158	0xbfcc5a2ada184404	-0.2215016903797108
159	0x3fc501eb725c5323	0.16412108501449393
160	0x3fbde9f6af480eec	0.11685125140507652
161	0x3fb8a6ff4f15a1ec	0.09629817658208822
162	0xbfa1cda8398734dd	-0.03477216436622552
163	0xbfc83c04155cb71c	-0.18933154147219333
164	0x3fc07c5c03cea84f	0.12879514871503026
165	0xbfcd3b37aa439732	-0.22836967290566573
166	0x3fc4425b970129d7	0.15827507851856978
167	0x3fcf008ba6a07d56	0.24220414768295012
168	0x3f5e22064bd31d45	0.0018391667829734265
169	0x3fc4866ed3731258	0.16035256695444633
170	0x3fa8775a93064440	0.04778559727413567
171	0xbf8b93bfa8499cff	-0.013465401957729826
172	0x3fb6f4b9451de614	0.08967168748304061
173	0xbf7366f193118a59	-0.004736846590363963
174	0x3fc6841406dcfbb5	0.1759057076942249
175	0x3fcd50e0f52a28b7	0.22903072329456162
176	0x3f9a17bd2ad87348	0.025481181850511875
177	0xbfce4293a92da456	-0.23640676270159372
178	0xbfcfee99977e67eb	-0.2494689931598367
179	0xbfb2e7930040db8f	-0.07384604221520717
180	0xbfa92d109fae4726	-0.04917194318035305
181	0xbf97097ad4438d36	-0.022497100072439845
182	0x3fc7181b2884f1e7	0.18042315939409478
183	0xbf975f5ed86e3248	-0.022824747047297117
184	0x3fb8ab139738d164	0.09636042062704103
185	0x3fca97b3c1eaf64d	0.20775458305972663
186	0xbfa76e54574dd1bd	-0.04576362195703918
187	0xbfa7c1a8e9a05dd4	-0.04639938213238862
188	0xbfc6b81b5c146907	-0.17749349590378236
189	0xbfbb9a184d9e18b8	-0.10782005209884715
190	0xbfb14e8225f0fe5f	-0.06760419298461205
191	0xbfc5611d690631bc	-0.16702621105322446
192	0x3fc7604fa0b35e3c	0.18262667986594916
193	0x3fcc22b5e493ef49	0.21980928097752386
194	0xbfcade67bcb97395	-0.20991226878223004
195	0x3fcd7333b0ca654b	0.23007818348268425
196	0xbfbd164a75ade674	-0.113621381502435
197	0x3fb814f043cdff6c	0.09406949668300307
198	0x3fc7f39030c33e1c	0.18712046032895635
199	0xbfc6e388304cb9bd	-0.17881872518905864
200	0x3fc367f441ec8398	0.1516099283117256
201	0x3fb05af9cb6f22b8	0.06388817993787199
202	0x3fcb86248e8befb2	0.2150312133816193
203	0xbfada73fa93b62d4	-0.05791663113422421
204	0xbfa62e60c6750d8a	-0.04332258627484993
205	0xbfc12666fc6166cf	-0.13398444484010105
206	0xbfc9ad22c2e6ed3d	-0.2005961848898127
207	0x3f9c9c1fb046bad2	0.027939314970064917
208	0xbf94e3445effdffb	-0.020398205087957404
209	0xbfc5d7ac0d7dfd87	-0.17064428957744956
210	0xbfb359b0ef2e08e0	-0.07558732833243509
211	0x3fc72cc363022054	0.18105356535329753
212	0x3fc7944036afe8bc	0.1842117564227176
213	0x3f7e16ff3c472bab	0.007346150411147538
214	0x3fa4f980f2b3c3ef	0.04096606218980258
215	0xbfb98b762037febb	-0.09978426252927879
216	0x3fb4cd2ad28745d6	0.08125560417035813
217	0xbfc4a971764bbdf1	-0.16142099643864996
218	0x3fc4e6456935f76a	0.1632773174023286
219	0xbfcfa0abf867242e	-0.24709081296012542
220	0xbfc9887e613d1c2a	-0.19947795627578674
221	0x3fce0b2b64cf369e	0.2347158663018733
222	0x3f867d729906b781	0.010981459898939285
223	0x3fc2b2744a36eab8	0.14607099174266636
224	0x3fca398ada81a6c2	0.20488105458507816
225	0xbfb115268dac9bea	-0.06672898253292173
226	0xbfc7a0b77927854d	-0.1845921842168913
227	0xbfb1e4e88b20dbf9	-0.06989911457718269
228	0xbfa9446fb367dce9	-0.049350252771484034
229	0x3fc29d96c152b331	0.14543423118211643
230	0xbfc0d51f80884996	-0.13150399948115127
231	0x3fc930b9bb72d89a	0.19679948475613146
232	0xbfc1c47b2a675f97	-0.13880862780092393
233	0xbfb14b632f6675ae	-0.06755657107574706
234	0xbfcce73fcdb373da	-0.22580716651910288
235	0x3fa3003e51a877e9	0.03711123225023966
236	0x3fcce01cc5eb6946	0.22558936752359154
237	0x3fc1778967986b05	0.13646047170990286
238	0x3fca578c62e7ae88	0.20579676465364494
239	0x3fcca4eb62380409	0.22378294273224267
240	0x3fc398c9080e2904	0.1531001366932473
241	0x3fc5501e7be7f22e	0.1665075402269322
242	0x3fc6deac79054ff7	0.17867046269623163
243	0xbfc43947ca7392bd	-0.15799806008648956
244	0x3fb04af36e0d24a6	0.06364365994262985
245	0xbfc06113d5ab46ef	-0.12796256955203186
246	0xbfa68d4382c2e92c	-0.044046506607133246
247	0x3fc6b04a77720c87	0.17725497085857375
248	0xbfc92e4b595511f1	-0.19672529088906246
249	0x3fc01047e9a5e264	0.1254968539103799
250	0xbfacf655cc1a69c8	-0.05656688801282744
251	0xbfbd90cd6de96dc0	-0.11549076016802129
252	0x3fa769d5da181ef5	0.045729334709958915
253	0x3fba13f150d606aa	0.1018668005326854
254	0x3fb220b2e84daeab	0.07081144496413098
255	0xbfc98479276f8280	-0.19935526300016093

encoderlstm.bias_ih_l0 f8 [64]
0	0xbfccf2510ae51552	-0.22614491493201655
1	0xbfbc2e163dc80b76	-0.11007822998366898
2	0xbfb05a7e4ea126c9	-0.06388081950822334
3	0x3fc89ea62294ce39	0.19234158218897493
4	0x3fad9a4b047e9c4d	0.05781778745522868
5	0xbfc06d5d1f815ad2	-0.12833751715034808
6	0xbfcf9e381a1ef520	-0.2470159652274697
7	0xbfbb97c882582d29	-0.10778477842557223
8	0xbf878f1ee68bef90	-0.011503449831699958
9	0xbfcb281151cb62c6	-0.2121602677714433
10	0x3f30eb3642b2bd50	0.0002581603500386347
11	0x3fc5c30e88df222e	0.17001516040024128
12	0x3fce188fedb61bc2	0.23512457949638416
13	0x3fcf33f8a2649595	0.24377353600827392
14	0x3fc8c77377990ab0	0.19358676280724785
15	0x3fb6c80d9e609176	0.08899006954795205
16	0xbfbab8e93977febc	-0.10438401845021422
17	0xbfbaa7bbe598c961	-0.10412191729918653
18	0x3fa41d8235aba1e3	0.03928763299137807
19	0x3fce1c7ed345084b	0.23524461093808421
20	0x3fc8fb06c85e831a	0.1951607206692863
21	0xbfc412988ac024c0	-0.15681750082902646
22	0x3fbe75b1a3c85cc4	0.11898336647606117
23	0xbf842b48a1034fba	-0.009848182119107086
24	0xbfb6d0fdcf36a7ea	-0.08912645634578067
25	0xbfc3973fb5df01d2	-0.15305324917245727
26	0xbfc38bc7593d6d7d	-0.1527032075635865
27	0xbfb07e6d75456ea6	-0.06442913163248906
28	0xbfce7883d2531b1e	-0.2380528237319703
29	0x3fa2f2f16118f290	0.037009757139888966
30	0x3fc638c3d9da2f18	0.17360733163183606
31	0x3fcaeb48b564b8b0	0.21030529839612688
32	0x3fc8b998e2141b67	0.19316397704116214
33	0x3fc4bda5e493885f	0.1620375982375348
34	0xbfcf62426021e4e9	-0.2451861352344971
35	0x3fc6d3f98de77169	0.17834395817670703
36	0xbfc6652062871b76	-0.17496113596845547
37	0xbfa8e9de313ff8a4	-0.048659270774792845
38	0xbfc5055e6ab6eeaf	-0.16422634325669125
39	0xbfc8d000608da54f	-0.19384770121113568
40	0x3fbd7ba11fe26067	0.11516768482613458
41	0x3fcd4dc9436d627f	0.22893634598110066
42	0xbfc8e7d90fcd529f	-0.19457543632110672
43	0xbfcf658a337adc48	-0.24528625024479056
44	0xbfc9ac2e69afee51	-0.200567056279271
45	0xbfc53b059670ec2c	-0.16586370321042077
46	0xbfb4eb7d31e1b16e	-0.08171827762425263
47	0x3fc28658ee62e357	0.14472495689349316
48	0x3fa2e8842dc88dff	0.036930208767696364
49	0x3fcfc88eecd94c7b	0.24830805363544414
50	0xbf7026cd5cee4919	-0.003943254660855788
51	0xbfadbc249edeb963	-0.05807604255038503
52	0xbfc24dba0a59760d	-0.14299703126282318
53	0x3fb3328fd1143047	0.07499026159729381
54	0xbfc35cbba900b3e0	-0.15126748802268164
55	0xbfca9df6d1cfc187	-0.20794568295196944
56	0xbfc3ed6285f38dfb	-0.15568191090197545
57	0xbf97cbcc32f863ab	-0.02323836384866566
58	0xbfbf106fdb646332	-0.12134455782178291
59	0x3fa17179612f5290	0.034068863976846164
60	0xbfcda1f639f80499	-0.2315051825571899
61	0xbfaa5068da19637a	-0.05139472639411387
62	0x3fbf30c1e60929e8	0.12183772913082402
63	0x3fbb1163a934bc84	0.10573408967023751

encoderlstm.bias_hh_l0 f8 [64]
0	0x3fceb7da351aeaae	0.23998572915100652
1	0x3fbe8b52c237f48a	0.11931340448059494
2	0x3fc6b09958af6c98	0.1772643740685893
3	0x3fce6bbda294ce39	0.23766298712290437
4	0xbfc5d00dfee058f0	-0.1704118246568167
5	0xbfa858c27e056b51	-0.04755218304008813
6	0xbfc0f405da1ef520	-0.1324469866794198
7	0xbf7c0bb82582d236	-0.00684711391675257
8	0xbfa9acb4b9a2fbe7	-0.05014576688835586
9	0x3fb38774dc693a70	0.0762856519806776
10	0xbfa02927937a9a87	-0.03156398463516035
11	0x3fb6113d91be4457	0.08620056923088391
12	0x3fb81bc85b6c377e	0.09417392951965373
13	0xbfc4abf85d9b6a6b	-0.16149811335238282
14	0x3fa1f1cade642abf	0.03504785504090568
15	0xbfcef196b0cfb744	-0.24174770005577717
16	0x3fc786d0634400a5	0.18380169722513987
17	0x3fb714ad9a67369f	0.09015927333458727
18	0xbfa2e572ca545e1d	-0.03690680236666941
19	0xbfc643dc2cbaf7b5	-0.1739459246072649
20	0x3f97fe0a42f4188b	0.023430023514287284
21	0xbfc2744b4ac024c0	-0.14417401456765866
22	0x3f9389ae8f217300	0.019079902158739337
23	0xbfa21d182840d3ec	-0.03537822238323671
24	0x3faae9666192b025	0.05256195012165702
25	0xbfcf45a9f5df01d2	-0.24431347375322204
26	0x3fc1176466c29283	0.13352637307720636
27	0xbfc7fa237aa2b757	-0.18732112396304032
28	0x3fce3f746dace4e2	0.2363114867710357
29	0xbf775784f7386b61	-0.0056986993763768765
30	0x3fc8d9e599da2f18	0.1941496850234834
31	0xbfcb9f028a9b4750	-0.2157900978841618
32	0x3fc4b176a2141b67	0.16166575349799503
33	0xbfca6e3f9b6c77a1	-0.2064895161537921
34	0xbfce499b2021e4e9	-0.23662127560581972
35	0xbfaff360c8623a59	-0.06240370222177622
36	0x3fcb6d5e9d78e48a	0.21427519501756748
37	0xbfb689b7989ffc5d	-0.08803889728732046
38	0x3fbadb32aa92229e	0.1049071947510449
39	0x3fb985ad3ee4b56a	0.09969599519236785
40	0x3fcc474a8ff1302d	0.2209256365625846
41	0xbfc97cbebc929d81	-0.19911941726352825
42	0x3fb275de60655abc	0.07211103299537575
43	0xbfc12b3ef37adc48	-0.13413226021450186
44	0xbfcf699ba9afee51	-0.2454104021597794
45	0x3faf3828a63c4f54	0.06097533253901469
46	0x3fb2cfbb4e1e4e92	0.07348223359286468
47	0x3fceef9cee62e357	0.2416874088283076
48	0x3f933a305b911bf6	0.018776660527034715
49	0xbfcc7d975326b385	-0.22258273658863117
50	0xbf945421573b9244	-0.019852181386243353
51	0xbfc5f3bf67b7ae4e	-0.17150108875590536
52	0xbf9d5d1452cbb06d	-0.02867538218826875
53	0x3fa3e27ea2286092	0.03883739213432692
54	0xbfc1c9d8a900b3e0	-0.1389723611077036
55	0xbfb93a21239f82eb	-0.09854323501304989
56	0xbfc8b5c105f38dfb	-0.193046691804838
57	0x3fc6cddfb9a0f388	0.17815777362730167
58	0xbfc401a56db231a3	-0.156300238192114
59	0xbfc41aa0a7b42b56	-0.15706260861073912
60	0xbf952727cfc024fc	-0.02065717893132034
61	0xbfbaeec36d0cb1c1	-0.1052057400926918
62	0x3fae2f17cc1253ce	0.05895304075344364
63	0x3fa75b8d52697916	0.04562036162382037

decoderlstm.weight_ih_l0 f8 [8, 16]
0	0x3fc5405a7da4ce81	0.16602641234350204
1	0xbf80140b2a8ab2ad	-0.007850730167171827
2	0xbfd0d83a73dce09a	-0.2631975299332311
3	0x3fb88f33fff54f66	0.09593510626774346
4	0x3fe38c5e592ba1a7	0.61088483253575
5	0x3fd2cad9ed8ac481	0.2936310596224488
6	0x3fc015464e4a0d79	0.1256492502471749
7	0xbfe40f2987b3be87	-0.626850857775893
8	0xbf941c0b009794d8	-0.019638225470676257
9	0xbfdf7d563d532c72	-0.49202495564231363
10	0x3fc1f0784d066127	0.14015105973226946
11	0x3fd68d4f9dd5c577	0.35237493909433887
12	0xbfdc69f4d06d3cc9	-0.4439670596520498
13	0x3fcec3ffa7f3f0ab	0.2403564043123699
14	0xbfc215fcd2097964	-0.14129600768769557
15	0xbfe36b4ff832a49c	-0.6068496558774714
16	0xbfdb0d90d8c78afc	-0.4227029911982496
17	0x3fd212bdf3a06cff	0.28239392081896136
18	0x3fdbd890d95c7ed2	0.4350931284588856
19	0xbf872c678caf6f41	-0.0113151635941261
20	0xbfdd1df4d51f3c14	-0.4549533921498903
21	0xbfb95e607bbfb43d	-0.09909632703029643
22	0xbfe36982854e0bcb	-0.6066296199427311
23	0x3fcc44fa090ebcab	0.2208550018526457
24	0xbfe4a8e4d9394ee3	-0.6456169359830394
25	0x3fd9fc9ae0cc8609	0.4060427851964908
26	0xbfe63cfd878eb350	-0.6949451110464029
27	0xbfdde1c00afa876c	-0.4669036967480824
28	0x3fc01b93bef32a2b	0.1258415872928976
29	0xbfd7239e8c3d5d3f	-0.3615490312126503
30	0xbfc2be41ddaa2d2f	-0.14643119166826454
31	0xbfde0056b033d91e	-0.4687706680991982
32	0xbfb515444cd98550	-0.08235575557912012
33	0x3fdb313c75fff09b	0.42488013766684113
34	0xbfd3094a33e9cb6c	-0.2974420077290947
35	0xbfb2d1efb5fa1f5e	-0.07351587479399543
36	0xbf6c9d4a30a960f7	-0.0034929703736389334
37	0x3fdcf7738555519c	0.45260322590663704
38	0xbfcc1a56b037bb65	-0.21955379108791387
39	0xbfe39a8e0d52e0b9	-0.6126165638188673
40	0x3fd664b13a61909c	0.34989577008514927
41	0x3fe60893c0c8d6f2	0.6885470166514251
42	0xbf99d219bba5d4e9	-0.025215532377349446
43	0x3fe49c00cf747543	0.6440433551648898
44	0x3fd983b1b46ae952	0.39866297358425584
45	0x3fe137c929a61527	0.5380597890331601
46	0xbfc52138f1e40f09	-0.1650763684375465
47	0x3fcd750c59dec4ba	0.23013452900116765
48	0x3fd7e750b2a63e7f	0.373493360960289
49	0x3fd3dcbb5dce2cd0	0.3103474060123519
50	0xbfe1bbbbea7ec059	-0.5541667537672864
51	0xbfc274c96df9aee4	-0.14418905134095106
52	0xbfe46a2c03757bc7	-0.6379604404027014
53	0xbfe2d4291b921ca6	-0.5883985079280094
54	0xbf9d5681e3292054	-0.028650311937127818
55	0x3fe4b5f24910bdf0	0.6472102572496947
56	0xbfe10ca7acd9ed59	-0.5327947975160142
57	0xbfac303431c9bfcf	-0.05505526645435987
58	0x3fba638f4cfb717e	0.10308166150520567
59	0xbf988fe622941d82	-0.023986430988796943
60	0x3f9ac49b243b5315	0.026140617453012178
61	0x3fe2dbab64ea24fe	0.5893151255596931
62	0x3f66e07b0aff62cd	0.0027925875838089365
63	0xbfe0d8f30e8fd064	-0.5264830860528602
64	0x3fc77ba41d0f335a	0.18346072596468838
65	0xbfc8e11b07b60396	-0.19436967731965343
66	0xbfd7716fe9944e15	-0.36629865465622063
67	0x3fe526341b404748	0.6609135181663328
68	0x3fdd8871a85be9d2	0.46145287934600987
69	0x3fd5c7dd24674a4b	0.3403237205031117
70	0xbfcbcd248ca572f7	-0.21719796054357918
71	0x3fc3cf0ae7189c0f	0.15475593837729248
72	0x3fe1217edf4c3d21	0.535338817719012
73	0x3fe31711bc105fc4	0.5965660737156147
74	0xbf97e7de4f082580	-0.023345445226401917
75	0x3f8f863711401f34	0.015392713750784638
76	0x3fe653b0ce27a9d4	0.6977161432708336
77	0x3fe260b452c4b9e0	0.5743047348567494
78	0xbfd94f7165712dc3	-0.39547381311851043
79	0x3fbcc25be3dd6029	0.11234068215469563
80	0xbfcc017d6c9cbf46	-0.2187954693158593
81	0xbfe47b08af78064b	-0.6400187899709605
82	0x3fcd94b9c079cd51	0.23110124490959064
83	0xbfe5f8e2cb993945	-0.6866315819295684
84	0x3fc516573866a58f	0.1647442841906863
85	0x3fe18ee9891bb2b0	0.5486953428167762
86	0x3fcd7437af0523ab	0.23010917707349896
87	0xbfe4d9beb7740629	-0.6515801985808071
88	0x3fa017799aae4bfe	0.03142910016244825
89	0xbfdd4750267fffe3	-0.45747760543599564
90	0x3fd08b84e3d76a9d	0.25851557016509635
91	0xbfcce6b362c2ada2	-0.22579042742050343
92	0xbfe0739ec742da3b	-0.5141137973612965
93	0xbfdc565e9f7f07f8	-0.44277158332636146
94	0xbfd79883c300d4a6	-0.36868375819478627
95	0xbfdc6d13323ca360	-0.4441574087709821
96	0x3fb531f165630b03	0.08279331898942748
97	0xbfe266ae9f3e4a95	-0.5750344381543352
98	0x3fba1c3e14ac3bee	0.10199344639498495
99	0xbf9115e9ad507a03	-0.016685153201359892
100	0x3fe32606d80b2a26	0.5983919353105349
101	0xbfdb5709e9679496	-0.42718742173594515
102	0x3fd53abddfb4db0a	0.33171030851683325
103	0xbfdf95232fc157e9	-0.49347762740705875
104	0x3f989e14cb027290	0.02404053200790429
105	0xbfe436223dd587f8	-0.6316081245133764
106	0x3fc0c634b45c8f6e	0.1310487633392045
107	0xbfd6c772e3eddb4b	-0.35592338808730933
108	0x3fdf89744db5eeb7	0.49276454533513053
109	0xbfccabc3334c180c	-0.2239917755579771
110	0xbfe0fea0e061eeba	-0.5310825712653788
111	0xbfbb57dde0dd90bb	-0.10680948963050955
112	0xbfa3e3dce8c57841	-0.03884783116767255
113	0xbfdb443122a6519c	-0.42603710540540773
114	0xbfe30c9059e116d7	-0.5952836757139391
115	0xbfb026ed54bfef08	-0.06309398001752353
116	0xbfe004529ccd9059	-0.5005276739652899
117	0xbfd34a239fc4d628	-0.3014000950091451
118	0x3fe51e3c33dafd9d	0.6599408161927617
119	0xbfe5c4ba0a8e3c5c	-0.6802644926227788
120	0xbfc29f6c1d2092e9	-0.14549018308857534
121	0xbfca7be7d9c9083a	-0.2069063008694359
122	0x3fccde9149903014	0.22554222194628493
123	0x3fe2834fbcb4af83	0.5785292325649468
124	0xbfb2a6c7cee3ec14	-0.07285736847909191
125	0x3fd62959d26b554f	0.34627385662800675
126	0xbfc176bee9f93006	-0.13643633293611418
127	0xbfe188ea14cf09d0	-0.5479631811543246

decoderlstm.weight_hh_l0 f8 [8, 2]
0	0xbfd194e446dcab95	-0.27471262855640904
1	0xbfe22094c001206f	-0.5664771795354805
2	0x3f8be642840100f7	0.013622779515686008
3	0xbfbde795fd2dc85e	-0.11681497031330099
4	0x3fb70a72f33ea751	0.0900031894549589
5	0x3fe062a564fe3abe	0.5120417568703812
6	0x3fd2d45001011c37	0.29420852754668964
7	0x3fd47c3120f40209	0.3200800725753941
8	0x3fd008b615781e50	0.2505316934261588
9	0xbfc2a6c986bac71d	-0.14571494177430902
10	0xbfb53a3c8abc095c	-0.0829198683459586
11	0x3fe123de6265b45d	0.5356285020658437
12	0x3fed0034bd5092f6	0.9062751481584133
13	0x3fe29b655269a13a	0.5814692124959386
14	0x3fd35f6b613958e4	0.3026989411786316
15	0xbfd833524edc5aa3	-0.3781324167370405

decoderlstm.bias_ih_l0 f8 [8]
0	0x3fe2355bfeaa3880	0.569013593094283
1	0x3fe646f82da395bb	0.6961632624995028
2	0x3fe4f305432c8aca	0.6546655952446028
3	0x3fd2bcbd3e0ee847	0.2927697282826824
4	0x3fdc012c88829126	0.43757165270860054
5	0xbfb942e5afaab030	-0.09867702044238125
6	0x3fe09d2f0098184c	0.5191874515155717
7	0x3fdb24fa73ac4a5c	0.42413197799866054

decoderlstm.bias_hh_l0 f8 [8]
0	0xbfb5eff60aae3be4	-0.08569276581532353
1	0x3fc8c380d68e56e2	0.19346628643386682
2	0x3fe1b1347b2c8acd	0.552881470274167
3	0x3fb2dfad783ba0e2	0.07372554955839264
4	0x3fe49fdafc71489c	0.6445136003988128
5	0x3fe1b963a20aa9f7	0.5538805165172666
6	0x3fcc5261e2606138	0.22126411012210112
7	0x3fce543d475894ba	0.23694578155224183
