checkpoints/final_with.ckpt (torch, 160501 bytes, 14 tensors)

linear1.weight f8 [128, 2]
0	0xbfcbb5f93a7a2c72	-0.21649089198431032
1	0x3fe13bc947748b79	0.5385481258020796
2	0xbfe107e800000000	-0.5322151184082031
3	0x3fe2041920000000	0.5630002617835999
4	0x3fdfab0f19121604	0.49481561134629737
5	0x3fac59c44bfb28dc	0.05537236621383254
6	0xbfa578a0b50e6a32	-0.041935941793060386
7	0xbfd5bcbb30f9751b	-0.33964423926029647
8	0xbfd69a0d32ab7aea	-0.35315256069399814
9	0xbfba4bcdcf74485a	-0.10271917643356812
10	0xbfe2f82ea0000000	-0.5927956700325012
11	0x3fd8cc6be0000000	0.3874768912792206
12	0xbfe3aac8a44819d3	-0.614597626555048
13	0x3fa5104d8d606934	0.041140006549726854
14	0xbfe0bcc865a21546	-0.5230447754881105
15	0xbfc527a17981f387	-0.16527193482388844
16	0x3fcb47304d0ef5ec	0.2131100059759058
17	0x3fd738fe5ff7a0c1	0.3628536164456016
18	0xbfe3ef16ec71e1d8	-0.6229357355178378
19	0xbfe26a94944f1266	-0.5755103012712197
20	0xbfe09e6d97625f9c	-0.5193393666004229
21	0xbfe03461eb57d64f	-0.5063943478150551
22	0xbfdfb3ef6b4d377d	-0.49535737494158366
23	0xbfd728cd47040026	-0.36186534819717264
24	0x3fded831a89e6971	0.4819454332988676
25	0xbf59139d754a7646	-0.0015305555035988335
26	0x3fb616f94d5e2b25	0.08628805292952942
27	0xbfbbebea26539bd7	-0.10906852184017111
28	0xbfe2aa8ae0000000	-0.5833181738853455
29	0x3f9c96f3e0000000	0.0279195886105299
30	0xbfd2e3370d38b91d	-0.2951181058041515
31	0x3fd4d40480c92139	0.3254405267403118
32	0x3fe56e130ae9e339	0.6696868146092135
33	0x3fd58601a1cf02f1	0.336304100052117
34	0x3fe4687aba4df427	0.6377538336524865
35	0x3fae0f5792f4b8eb	0.0587108008279403
36	0xbfe14d2ff99ba347	-0.5406722903399918
37	0xbf627a3fb864d671	-0.0022555584465873625
38	0xbfafee41ce0eb352	-0.062364632037633996
39	0x3fc14176750ffc76	0.1348102637857413
40	0xbfe0970300000000	-0.5184340476989746
41	0xbfc2d64700000000	-0.1471642255783081
42	0x3fe42d2600728091	0.630511284707625
43	0xbfcc96db6d13365f	-0.22335379434518907
44	0x3f8bdf19f6840cd9	0.013609125934186771
45	0xbfe32e4ad92f8819	-0.5994009248645426
46	0x3fde42cf9a63e1de	0.4728278167454202
47	0x3fe012207844abaa	0.5022127484311245
48	0x3fc347f7df895809	0.1506337968336882
49	0x3fe4465d70720da5	0.6335894771768166
50	0xbfcacc151d4cd58e	-0.2093531029765185
51	0xbfe1c9e9eac26f67	-0.5558976731440283
52	0xbfd65b246f6b2a2c	-0.34931288605426647
53	0xbfdfa9165bc1fcd7	-0.4946952720710675
54	0xbfe347648e38fda9	-0.6024649408135946
55	0xbfd5714c2a64a5cc	-0.33504013194996385
56	0xbfd393e747040055	-0.3059023087989819
57	0xbfd30990d556fe4c	-0.29745884736982897
58	0xbfbfd9be00000000	-0.12441623210906982
59	0xbfa74362c0000000	-0.045435987412929535
60	0xbfd776e4fb3a04a7	-0.36663174184657027
61	0xbfdd07b4243d0589	-0.45359519518759633
62	0xbfb9640f05075347	-0.09918302414673717
63	0x3fd8e49c7ab1b971	0.3889533231912515
64	0xbfe02432c453d110	-0.5044187387962058
65	0xbfd7ef8dffbeccc9	-0.373996257544786
66	0xbfbc182fd80d6fbd	-0.10974406265944388
67	0x3fe3c74db0ac7f77	0.6180790377293154
68	0x3fbf0c18474e10a8	0.12127830258220007
69	0x3fd3f9312f3794ed	0.3120844803909922
70	0xbfdfcb7a7b7062c9	-0.4967943387469345
71	0x3fc94e1cc94d8c3c	0.19769630269283478
72	0x3fddc5784f0aad2c	0.4651776096240663
73	0x3fe2368981cc2c31	0.5691573653324494
74	0x3f9839a08f526f8b	0.023657330272370863
75	0xbfe65f96b995838d	-0.6991685509384397
76	0xbfdeaea980000000	-0.4794105291366577
77	0x3fd342dac0000000	0.30095547437667847
78	0xbfd9850cca7b1c33	-0.3987457253792314
79	0x3fd2a7f02cd776b6	0.2915001333147801
80	0x3fcc6492d0c94b24	0.22181925959247295
81	0x3fca02999aaffd56	0.20320434620951272
82	0x3f86bf9f26ad3018	0.011107676856816837
83	0x3fd01c15e139f79f	0.2517142009236241
84	0x3fda93182fa88a44	0.41522793439995476
85	0xbfe38800d2855aaf	-0.6103519546257611
86	0x3fe5466736f4709a	0.664844138463667
87	0x3f9ef3735771bcfb	0.03022556515901174
88	0xbfe0a9cf0d70cd53	-0.5207286131393779
89	0x3fd5015a0a6882f7	0.3282075025218058
90	0xbfd29ff360000000	-0.29101261496543884
91	0xbf95225c80000000	-0.02063889056444168
92	0x3fe3f8905753f0c7	0.624092264711657
93	0x3fad7d21e998dd7d	0.05759530998733007
94	0x3fdb04691ce7584e	0.42214420149446574
95	0x3fce71e9439422ba	0.23785129356135376
96	0x3fc99d28dfb66006	0.20010863231141246
97	0xbfa81f9bc204c5e9	-0.047116153177181826
98	0x3fe819001f8fea83	0.7530518166016268
99	0x3fe1610285f5b4f7	0.5430920235063742
100	0x3fc438b42025afcc	0.15798045701683205
101	0xbfd4dcc590a4e950	-0.32597483754547785
102	0x3fda42c35581ae65	0.4103248915696212
103	0x3fd4ffb9233bb7c7	0.3281081050944263
104	0xbfd3adbd559011b6	-0.3074792228292397
105	0x3fddf21480c24325	0.46790039610009365
106	0xbfe29dddbc6149c1	-0.581770770959615
107	0xbfbc54b1b19a814d	-0.11066732965492072
108	0x3f90abffc77f4035	0.016281124640784312
109	0xbfd173fb9ce3021b	-0.27270403214427724
110	0xbfda1aabce661f2a	-0.40787787586349344
111	0xbfce45a706790136	-0.23650062385605403
112	0x3fe382c6c5c711a5	0.6097139227718357
113	0x3fdd3417ca857f85	0.45630450036514275
114	0x3fdd2488c9c2a1c5	0.4553548784556621
115	0xbfce528c50227380	-0.2368941680223564
116	0x3fbb73cfd16c767c	0.1072358976639069
117	0x3fd3293d423bffde	0.29939204662514196
118	0x3fd0ef17f76773d4	0.2645931163841031
119	0x3fb6a4a956164e2e	0.08845003463493903
120	0x3fe7709eb6f4eb6b	0.7324975560544379
121	0x3fbd3ab0f90bd725	0.11417680816870453
122	0x3fc99ec2f76ab934	0.20015751915838964
123	0xbfe75b57938f5d45	-0.7299001581222134
124	0xbfd13e6cbe77baed	-0.269435106280908
125	0xbfd9864b3df5577a	-0.3988216500341576
126	0xbfe1ec7d2cc4df36	-0.5601182817835937
127	0xbfe9496032738bc1	-0.7902070031526521
128	0x3fe1971e18a34b97	0.5496969681938592
129	0xbf85ba74f0566051	-0.010609544357791519
130	0x3fd30e0d01a39ca9	0.2977325931555677
131	0x3fe19c817c6b119c	0.5503547124904347
132	0xbfa38cb33d002411	-0.038182831951481096
133	0x3fba29f5244211df	0.10220272193152578
134	0xbfded4a04c03a97f	-0.48172767089149454
135	0x3fe52693ef62a2dd	0.6609592128271192
136	0xbfdf18e700000000	-0.48589491844177246
137	0xbfd4f6e180000000	-0.3275684118270874
138	0xbfb79c3b80000000	-0.09222766757011414
139	0x3f95562dc0000000	0.02083655819296837
140	0x3fd5360b8effe6d7	0.33142365422064074
141	0x3fdb2f2e05dcd7c4	0.4247546250584231
142	0x3fbe89f31a5f3297	0.11929244417042138
143	0x3fe39207c9ec1887	0.6115759795946055
144	0xbfd9c15b515dda20	-0.40242655702550856
145	0xbfd5be68239c07ca	-0.33974650838365206
146	0xbfe20b2aa0000000	-0.5638630986213684
147	0xbf990a13e0000000	-0.024452505633234978
148	0x3fdf1388db7d5431	0.48556729731109544
149	0xbfde2ced30e116e3	-0.4714920976006011
150	0x3fd72da60340ad33	0.36216116254464054
151	0x3fc04d23641e3f2e	0.1273540724619066
152	0xbfcb24c565e0b050	-0.21205966448303792
153	0x3fe505b4be1beb05	0.6569465363566854
154	0xbfe4e544e52a174c	-0.6529869533412493
155	0xbfc48dc989d71f40	-0.16057700376972583
156	0x3fdc90fba94c51e2	0.4463490632345196
157	0x3fb91590eaa227ad	0.09798532226900987
158	0xbfccc03d6fa50532	-0.22461669875523566
159	0x3fe6073c0047cda8	0.6883831029394303
160	0xbfe2abd84566fe93	-0.5834771495355703
161	0xbfe06f630f228624	-0.5135970397570344
162	0x3fe02be28b847284	0.5053570485066108
163	0xbfa371103c3ac072	-0.03797198043082596
164	0x3fe06bb35fa7f84d	0.5131470554622496
165	0x3fbb32f579491688	0.10624632083007601
166	0xbfe3647ded398850	-0.6060170777602796
167	0x3fe353e170b51991	0.6039893342320274
168	0xbfb88e7fe1991b40	-0.0959243703629058
169	0xbfe2904d56f1f848	-0.5801150034092268
170	0xbfd67997d586f717	-0.35117145397440325
171	0xbfd7640a3e8f8956	-0.3654809580749733
172	0x3fe73456c405e72d	0.7251390293670049
173	0x3fd33acd90db2b9d	0.3004640497790037
174	0x3fb1d0e2be9a6757	0.06959359315297085
175	0x3fd9338917298ff8	0.3937704778857092
176	0x3fe15e089d291472	0.5427287168064494
177	0x3fbd717e3f83b1dd	0.11501301813741045
178	0xbfd913a0271a43e9	-0.39182285135853917
179	0x3fdbb4fda58d1f87	0.43292180220714055
180	0xbfce7f543d02c82a	-0.23826077441259602
181	0xbfe6ee93aa0a19bc	-0.7166231461604222
182	0xbfd2aa4ce2be17dc	-0.2916443075449686
183	0xbfe04afa42ddf68d	-0.5091525369641247
184	0xbfd71d570ba57037	-0.36116577279404133
185	0xbfe192779d321efa	-0.5491293020467929
186	0xbfd1564cbcce3ae1	-0.2708923190884161
187	0x3fd8a428233e215d	0.385019335190483
188	0xbfe46ed95a4db7bb	-0.6385313762418642
189	0xbfe19b657c70bbb2	-0.5502192907787189
190	0x3fd3e74694caea9a	0.31099094896823376
191	0x3fe00e81cb960124	0.5017708755767996
192	0x3fe1892ee1f9218c	0.5479959882296028
193	0xbfb118c2d03f8074	-0.06678407272511483
194	0xbfe53b3a7c58b128	-0.6634800366059936
195	0x3fe5e095dd67a543	0.6836652111352709
196	0xbfd1778b00000000	-0.2729213237762451
197	0x3fa8c3f3e0000000	0.04836999997496605
198	0xbfd49665cab2c101	-0.3216795424914523
199	0x3fe4b1029442023f	0.6466076751385755
200	0xbfe1b1e600000000	-0.5529661178588867
201	0xbfd037f6c0000000	-0.2534157633781433
202	0x3fb67578fda2e31b	0.08772998993198337
203	0xbfb2218755d0c492	-0.07082410664658514
204	0x3fc85ee6be37e953	0.19039615905769355
205	0xbfe64593c9aa172a	-0.695993322254002
206	0xbfda52c3dd6d8f18	-0.41130158065628697
207	0xbfb26a7c60339f8e	-0.07193734501527002
208	0xbfe5c7375ab324e3	-0.6805683871727094
209	0x3fdd14d9e7bdbee7	0.45439765578247066
210	0xbfe50caba027d63c	-0.6577966812171279
211	0x3fd927f1d510d1c4	0.3930630284042105
212	0xbfb94982322590f4	-0.09877790188108176
213	0xbfce34047dcbc672	-0.235962449477984
214	0x3fd6e4ad017804dd	0.3577072634071337
215	0x3fdb1374208ac348	0.42306235483106436
216	0xbfd5f2c6a5950633	-0.34294286890153386
217	0xbfe2d4eb96f2ed66	-0.5884912441464791
218	0xbfdbfda8e0000000	-0.4373571574687958
219	0xbfd458b900000000	-0.3179152011871338
220	0xbfdd469e22ffc048	-0.45743516366838266
221	0xbfdc8bde0f9c9d3c	-0.4460368301829083
222	0xbfc2fdb0e717d0ce	-0.1483670357116637
223	0x3fe36274fa3a99bf	0.6057686698230141
224	0xbf9d1fb946cbb5c3	-0.028441328950909794
225	0xbfc33304bac19dbe	-0.14999446028671842
226	0xbfbf6c472541ca41	-0.12274593982309857
227	0xbfe0d69f8f98eccc	-0.5261991314540864
228	0x3fe744a5f0cf97d3	0.7271299079263777
229	0xbfe772eac9391c2c	-0.7327779703272248
230	0x3fe2ccb3a5f63e23	0.5874880067294196
231	0xbfd233cbe7db9f30	-0.2844114078748019
232	0xbfd23e1597ffcf19	-0.28503932803799753
233	0xbfe2f229bd1674ad	-0.5920609181518067
234	0x3fd35abfbbb18b69	0.30241387681433324
235	0x3fc908311223ff89	0.19556249032757148
236	0x3fd0d5977497bbe9	0.26303659807211816
237	0x3fe224ef5db0fcbb	0.567008669844561
238	0xbfcce032db94729c	-0.22559200021432424
239	0xbfe30268145bc37d	-0.5940437696100244
240	0x3fc214864eea5760	0.14125136235514457
241	0xbfe0dfe90e4bc645	-0.5273328093737254
242	0xbfe390198a8fae3b	-0.6113403040193995
243	0xbfe4dc347c0c18c1	-0.6518804953382401
244	0x3fe081e6f4d5a973	0.5158571988988981
245	0xbfd6dd22c468c00e	-0.35724705868324313
246	0x3fdf9a7385abe935	0.49380195669040755
247	0x3fd32b96000bcd8d	0.29953527454855405
248	0x3fc8c42ab7da5c1d	0.1934865377158709
249	0xbfdb8d79aeb8f07f	-0.430509968402255
250	0x3fdd439368866e01	0.4572495003464781
251	0xbfe84323f6cea590	-0.7581958599522967
252	0xbf8c68a63622dd6c	-0.013871477629762118
253	0xbfd71b07339f0d1c	-0.36102466622487994
254	0xbfc9ef989d44868b	-0.2026243942173561
255	0x3fe66676f4c25287	0.7000078945589657

linear1.bias f8 [128]
0	0x3fe48c2e43009877	0.6421119030608357
1	0xbfe60277a0000000	-0.68780118227005
2	0x3fe5273d955412fd	0.6610401073999977
3	0x3fe55eeaa0c79cb9	0.6678364887456133
4	0x3fda6e5f26b55442	0.412986553002444
5	0xbfd9d5f6a0000000	-0.4036842882633209
6	0xbfc11d93c8e978e3	-0.1337151270881299
7	0xbf8fc4834fbbe50f	-0.015511537428653214
8	0x3faa00bbd2a2cc2d	0.05078684755553584
9	0xbfe5a1e1dc5762e4	-0.6760110190908475
10	0xbfb9ac17134c1a36	-0.10028213711857678
11	0xbfc73c7f823bd3c1	-0.18153375491206528
12	0xbfe5317aa680e06e	-0.6622899295825968
13	0xbfd9c8c844f77fd9	-0.402879779196153
14	0xbfdf477040000000	-0.48873525857925415
15	0x3fe5229487247dec	0.6604712142470226
16	0xbfb36a31d338266f	-0.07583915144655305
17	0x3fc30eb9e81d06bc	0.1488869078985341
18	0xbfba42b4889399dc	-0.10258034071339445
19	0x3fb5495295bd1890	0.08315006404618175
20	0xbfd4607800000000	-0.3183879852294922
21	0x3fac086e86d5e535	0.05475182910863411
22	0xbfd25c54ef31072e	-0.28688548430010286
23	0x3fe3efc4c82bdebf	0.6230186376187347
24	0x3fda4fe657419ba7	0.4111266948806879
25	0x3fdb351fe8501be5	0.42511747061547417
26	0x3fd1f36b3a9d1fef	0.28048210834503967
27	0x3fd28e77ad9df46b	0.28994552569185456
28	0xbfba103bc79e34f2	-0.1018102037762281
29	0xbfe296e9e0000000	-0.5809220671653748
30	0xbfe4a6b2e4492ad4	-0.6453489741046163
31	0xbf7c4b896ed9a9ad	-0.006907975051584731
32	0x3fe5c44c00f256fa	0.6802120226372772
33	0x3fb90bfc9502f7fc	0.09783915174463681
34	0xbfe297ea8a283a11	-0.5810444544202388
35	0x3fbe1dd3f6b8a560	0.117642638907133
36	0xbfe28a2d07eff44a	-0.5793671755815322
37	0xbfc511b295c016f2	-0.16460258781460585
38	0xbfdb217720000000	-0.4239175617694855
39	0x3fbf7b8604c8bb83	0.12297856919097509
40	0xbfd37354af873037	-0.3039142336026574
41	0xbfd7b204ec3f9a25	-0.3702404315103272
42	0xbfc5e633c4598f92	-0.1710877140750396
43	0x3f96dcb07552e4bc	0.022326237831951742
44	0x3fc41e7b0fcbb6fc	0.1571801974418391
45	0xbfe14f4a60000000	-0.5409290194511414
46	0xbfd99f75beb45002	-0.4003576624247672
47	0xbfb611fd49546dfc	-0.08621199646261596
48	0x3fa9585918efa78d	0.049502167028392476
49	0x3fe438da4bb0d3a4	0.6319400289854582
50	0x3fc4b9dfa1b6affd	0.16192241092846862
51	0x3fe1e60161ab074b	0.5593268306331337
52	0xbfe41664a35c7442	-0.627733534874672
53	0x3fd6ec82bbd53077	0.35818546622318287
54	0x3fe456d84114366f	0.6356011649201728
55	0x3fe4392fa0f4af11	0.6319807189624688
56	0xbfd54024221b33b0	-0.33203986483277514
57	0x3fe17f5e0ed2f55f	0.5467977799923281
58	0x3fc29e39ff612e4f	0.14545369119365367
59	0x3fe1c410ee9f222d	0.5551838551119254
60	0x3fd4dc9a1db5a75a	0.3259644785053887
61	0x3fe0e2a0c7501e3b	0.527664555819633
62	0x3fe59dfabd1ffb1f	0.675534600624676
63	0xbfd8534205193c30	-0.38008165834338836
64	0xbf9d05a798e6c8f5	-0.028341883380286387
65	0xbfe53c4f42621569	-0.6636120125337303
66	0xbfc4471c5f605693	-0.15842013032004285
67	0x3fdd6c63bf042ccd	0.4597405782121314
68	0xbfe55a89c0000000	-0.6673020124435425
69	0xbfc3717d80000000	-0.15190094709396362
70	0xbfc6f69a2963b70f	-0.17940070172283426
71	0x3fc1a958d907e24e	0.13798056218344573
72	0xbfe0395619461a89	-0.5069990628843054
73	0xbfd342e7c0000000	-0.3009585738182068
74	0x3fe094b1cf26ac45	0.5181511922759304
75	0xbfd049dea57d8d21	-0.25450864945578827
76	0x3fe4fb4e545a78f6	0.6556769988563065
77	0x3fe6052f9fc4df9d	0.6881330605019574
78	0x3fe28ecbe5b040f8	0.5799312101462695
79	0xbfe196921d8624a9	-0.5496302200928272
80	0xbfda5f74bddb6260	-0.41207617321700774
81	0xbfd535fee51fdd53	-0.33142063498913393
82	0x3fe053aa32c2509f	0.5102129928004792
83	0x3fc5731a02ee4b3f	0.16757512229068003
84	0x3fd794dedf4ab596	0.3684613400062856
85	0x3fe5bd75bef9904f	0.6793774347284031
86	0xbfc8b9b680a73692	-0.193167507952627
87	0xbf9b7ce630965b90	-0.026843640056167184
88	0xbfd5ec07d30761a1	-0.3425311623409702
89	0xbfa5ddc0241d2151	-0.04270744744150313
90	0x3fbf2cf45ba9709d	0.12177970159376846
91	0x3fc761c19f11fae1	0.1826707865438584
92	0xbfe647e01080a3e9	-0.6962738344492411
93	0xbfd1eaaa80b09c83	-0.27994787757274525
94	0x3fe24b748129d4ce	0.5717108271334383
95	0x3fdbe6eba3af1355	0.43596926674608955
96	0xbfd878da088eeabf	-0.38237620197075367
97	0xbfd3282779e14ee8	-0.29932581808428305
98	0xbfe4ef8000000000	-0.65423583984375
99	0x3fa21fddc68ee2d6	0.03539937065892722
100	0xbfe6422620000000	-0.6955748200416565
101	0xbfe523e631797982	-0.6606322256373434
102	0xbfd544c7079b2c92	-0.33232284300601933
103	0x3fdbc87bc5e3b0cf	0.4341115410341105
104	0x3fe3d6a2ed142dab	0.6199507360883464
105	0xbf97ad705c075b79	-0.0231225544137845
106	0x3fcd5eb480e5ed03	0.22945267003874656
107	0x3fa34ed0ff9ae585	0.03771069641284001
108	0xbf5ba254ccfff306	-0.001686652005445656
109	0xbfe48866a0000000	-0.6416504979133606
110	0x3fc97acf978af97d	0.19906039142183465
111	0xbfb017c2db4b7ebf	-0.06286256650809728
112	0xbfd19abca639d2c1	-0.27506939156527827
113	0x3fd9f799df1fe795	0.405737369437355
114	0xbfb4c6457b2c2f2c	-0.08115038163321903
115	0xbfd5b2c85a8846cb	-0.3390370258431232
116	0xbfe5533634bb43ea	-0.666407683364125
117	0xbfcbf61aeb8c20a5	-0.2184480333455713
118	0x3fd3ab1f618ae9a1	0.30731949353835303
119	0xbfe2fdd3d6ef8645	-0.5934848020517128
120	0x3fd5ce9abc2b7ad0	0.340735133895504
121	0xbfb38f341a823636	-0.07640386244948946
122	0x3fd868b5f9331641	0.38139104209799163
123	0xbfd56cec4c4e6a0d	-0.33477313472545306
124	0xbfe68df1260fd4e5	-0.7048269027133328
125	0xbfe4bde56fd7aab8	-0.6481806930945231
126	0x3fdb8b5570c2a690	0.4303792573142369
127	0xbfdc65a4fd255eef	-0.44370388718878834

linear2.weight f8 [128, 2]
0	0x3fe428ea1a334bc3	0.6299944411970205
1	0x3fdd22eb51e136e4	0.4552562999350427
2	0xbfe2766b80000000	-0.5769555568695068
3	0xbfe3a4f8e0000000	-0.6138882040977478
4	0x3fd154929df2f824	0.2707869093391102
5	0xbfdece617e6fb1be	-0.48134648654265877
6	0x3fd996237da58af2	0.3997887351053314
7	0xbfce95dc282470f0	-0.23894836387706375
8	0xbfd89a39634759c3	-0.38441309638201576
9	0x3fe38613b4bfeb69	0.6101168184535314
10	0x3fcc9ef9a38f0c8f	0.2236015366198427
11	0xbfe14f4b5f978768	-0.5409294955281725
12	0x3fe0002d2f2009cb	0.5000215454495501
13	0xbfdfa0cfd4d8f24c	-0.4941901758755065
14	0xbfdc3c656bd41f58	-0.44118629007470167
15	0x3fc491d1c3cce79a	0.1607000547463116
16	0xbfc3e61f0696cadd	-0.15546024152498364
17	0xbfe57cd5d7065363	-0.6714886855794301
18	0xbfa1b6d45461491d	-0.03459800272016109
19	0xbfd0ae92230a70e3	-0.26065495893432294
20	0xbfdee7be7ec4d4ea	-0.48289453868649324
21	0xbfe3501d9a2eb2cd	-0.6035297404647167
22	0x3fc3e23ec7d4270c	0.15534195668470152
23	0xbfd16649693f22fb	-0.2718680885123345
24	0xbfe575c23000dce3	-0.6706248223844365
25	0xbfe09072697e98d6	-0.5176326809348903
26	0x3fd07cc458e23451	0.25761517219581714
27	0xbfb3977ee60f2ded	-0.07653039089853282
28	0x3fb103f4e8183e4c	0.06646662393927122
29	0xbfe0a29ce29c4bfb	-0.5198501993166923
30	0x3fd83cc546f93b19	0.3787091439343598
31	0x3fd8cd04dc4d112a	0.3875133658769011
32	0xbfdc1626e0000000	-0.4388520419597626
33	0xbf77ac2ba0000000	-0.005779428873211145
34	0x3fd9517f7c4e5a0a	0.39559924258483703
35	0xbfd6dc1d3f71766d	-0.3571847075998907
36	0x3fe56064707262e8	0.6680166431643473
37	0xbfe5b7fddccae5ef	-0.6787099182467368
38	0x3fda373a30b48726	0.40962080723157823
39	0xbfc08a22e5f12d23	-0.12921558597222668
40	0xbf76aecbcedec584	-0.005537792325342909
41	0xbfbb0ad8a8c2d717	-0.10563425178665074
42	0x3fe2a75a5489e951	0.5829288149973683
43	0xbfdf4555285fdc38	-0.4886067289621141
44	0xbfe414e5a586b9ed	-0.6275509102759408
45	0xbfe1bd5fa0cf8367	-0.5543668881256111
46	0xbfe65e097105a445	-0.6989791114293743
47	0x3fe57f416a23898a	0.6717841218017366
48	0xbfe0bd363ed9392b	-0.5230971553335498
49	0x3fcd6d28c8c1b902	0.229893777871844
50	0x3fdf39b87767ed0c	0.4878979841302715
51	0xbfd426aa31501f6e	-0.31485991302223837
52	0xbfc0efa5fc449986	-0.1323134881760774
53	0x3fe2b9d07ee81d33	0.5851824263235471
54	0xbfddcb8d388aca65	-0.4655488063973848
55	0xbfd6a5186849d5cc	-0.3538266199533069
56	0xbfc88f5d77f997b9	-0.19187515600350283
57	0xbfd951d830a1229c	-0.39562039135902594
58	0xbfd0cab7b4cee60e	-0.2623729005532319
59	0xbfd7720d413f254f	-0.3663361680197185
60	0x3fccb3ad220aedc3	0.22423328554383035
61	0xbfe2571654b0357f	-0.573130765349262
62	0x3fc55f6e124f9328	0.16697479147037453
63	0xbfe0897eea81171c	-0.5167841510926539
64	0x3faf79db425ae63e	0.06147656617163165
65	0x3fda4c65a827bb64	0.41091290875822595
66	0xbfd84c0be2b52371	-0.3796415056172498
67	0x3fbeade211c5d74e	0.11984074529558805
68	0x3f98380a341140c3	0.02365127508920818
69	0x3fdb35047d6693fc	0.42511093374406506
70	0x3fcfd711c7e870f8	0.24875089894420177
71	0x3fbe832c879c5b68	0.11918905554590042
72	0x3fc8f3bed1838c0b	0.19493851881188137
73	0x3fb5ad2ef5f26edd	0.08467381958547145
74	0x3fe38c7109337b52	0.6108937434872621
75	0x3fc2fc6b678459c7	0.14832823328533903
76	0x3fe8d406b85af0eb	0.7758821106613402
77	0xbfe66cf89f434471	-0.7008021460152475
78	0x3fdb9d9ba5486605	0.4314946283426198
79	0x3fe0bfcd01723ff9	0.5234131839988542
80	0xbfa386d4163da7cc	-0.03813803454870843
81	0xbfdd8434a51c25f3	-0.4611941921617408
82	0xbfd8d7ac9c27350b	-0.38816371201831207
83	0xbfd03bd5c110aa75	-0.25365203718198553
84	0x3fd8e32006eccb82	0.3888626163126717
85	0x3fd219c3897c890f	0.2828224985734246
86	0xbfe14d0d6024bfda	-0.5406557920268782
87	0x3fca9b5f201ba080	0.20786656444329665
88	0xbfd7a995f63e58f4	-0.3697256951067083
89	0x3fc015ea93dc401d	0.12566883296722234
90	0x3fe1804fb43be915	0.546913005847531
91	0x3fd63a16c16f9c4c	0.3472954644225339
92	0xbfbdd2c3f132cb77	-0.11649727476723891
93	0xbfe0b2c937c95d2f	-0.521824463804398
94	0xbfdea87fa0000000	-0.47903433442115784
95	0x3fcf0ec5a0000000	0.24263830482959747
96	0xbfcd3ebbc0000000	-0.22847697138786316
97	0xbfd0bcd180000000	-0.2615245580673218
98	0xbfc7199d20000000	-0.18046917021274567
99	0xbfa6b77d40000000	-0.04436866194009781
100	0xbfb9eba8f5fd5ea4	-0.10125213628395585
101	0x3fdf4be7880a8324	0.489007838108636
102	0xbfdaa650cc744e49	-0.4164010998367514
103	0x3fdb75fcbbc59841	0.42907636963935053
104	0x3fce11867fb9435c	0.23490983234889995
105	0x3fe39ccc8e98cc13	0.6128905091376303
106	0x3fbe8e16250e96b7	0.11935556797706225
107	0xbfe1567ffd19b52d	-0.5418090766303628
108	0xbfd0f977610db298	-0.2652262161052845
109	0xbfd2676fa3b0da22	-0.28756323800499406
110	0x3fb14b4f4e09b300	0.06755538611623635
111	0x3fca37d4f4528cb5	0.20482885293777078
112	0xbfe2f3491f48bd8e	-0.5921979533213049
113	0x3fddd5373f7f6e6b	0.46613866044001523
114	0x3fc0132c913081a1	0.12558514680223445
115	0xbfccd0e6fc180436	-0.22512519177692675
116	0xbfd25fe1fad9fe54	-0.2871022176477471
117	0x3fb4a0ab078f8215	0.08057660040459098
118	0x3fe3a42191ba22d0	0.6137855383140849
119	0x3fd36f220a2b440f	0.30365801804606546
120	0xbfe2de8e40000000	-0.5896674394607544
121	0xbfdee94d60000000	-0.482989639043808
122	0x3fc508a791f97d3b	0.16432661655105982
123	0x3fc3da24310694aa	0.15509464639504716
124	0x3fe256178ac28df8	0.57300927259024
125	0xbfe5852a113dfbcd	-0.6725054108391021
126	0xbfc27e7a0a176cb2	-0.14448476307629715
127	0xbfd5ec504499f7c9	-0.3425484342513952
128	0x3fa7deb7527c9458	0.04662106401364302
129	0x3fde8d8bfbe4408e	0.4773893318060879
130	0xbfdfaecd80393c84	-0.49504411241373014
131	0x3fe67a77aa75c500	0.7024496392533877
132	0xbfe3dcebdf1f059f	-0.6207179410777605
133	0x3fd2522b7f6229be	0.28626525344648346
134	0x3fd074fe504e842a	0.2571407112355383
135	0x3fe67d5a5c6e04b3	0.7028018765705809
136	0x3fd9d550589d8757	0.40364464429705066
137	0xbfa40c475fe30e75	-0.03915617986197343
138	0x3fc8f713b26ade1d	0.1950401898554767
139	0xbfe15963a0348afe	-0.5421617630966862
140	0x3fe1ca53f9913338	0.5559482454642426
141	0x3fd31400746becbc	0.2980958115510466
142	0x3fdb4a5af5023004	0.4264132874166082
143	0xbfdc794cc9607b7e	-0.4449035612651001
144	0x3fd26476c32706d6	0.28738183076721435
145	0x3fe560f0b6fe0a80	0.6680835317677776
146	0x3fe1a10b080e5e66	0.5509085805269478
147	0xbfc11bc5768ffc92	-0.1336600140493585
148	0xbf8db02a6756cf75	-0.014496165541323805
149	0x3fe2c62affc63a75	0.5866904254524586
150	0x3fc3400de2be91ae	0.1503922803068582
151	0x3fd9e20938b3295f	0.4044211438855622
152	0xbfcdd6e1fded7cc5	-0.23312020205319164
153	0x3fe49e1e3cd1f18f	0.6443015277759957
154	0x3fda98f45c84b2b2	0.41558560404773026
155	0x3fd342d3e79615a1	0.30095384231420935
156	0xbfddce37eabdb845	-0.46571157382902967
157	0xbfde327386eb1719	-0.47182930160157494
158	0x3fe1109218fd9c76	0.5332727897738454
159	0xbfdfb1af13cb116b	-0.4952199643414789
160	0x3fd5b3bbb44703f6	0.3390950451394582
161	0x3fc46f0a00e2a75b	0.15963864367705125
162	0x3fb4337d94925f36	0.07891068341484417
163	0x3fda88817b5be432	0.4145816521336797
164	0xbfca1de700282e72	-0.20403754718460082
165	0x3fd568b78235892a	0.3345164081166724
166	0x3fc67b91aeab0b1b	0.17564602879254995
167	0x3fcc8739d6567e08	0.22287676778522347
168	0xbfdf6712c1ef2631	-0.4906660932434504
169	0x3fc877e4e15b613d	0.19115887645490118
170	0x3fe14d247aa44651	0.5406668086381591
171	0x3fc8370f6c22b5df	0.1891803052907752
172	0xbfd9560d20000000	-0.3958771526813507
173	0x3fd0bb3d00000000	0.2614281177520752
174	0x3fd1b8dff2d8e631	0.27690886226227734
175	0xbfe129b1b8790636	-0.5363396265967768
176	0x3fdd3cc0a209b547	0.4568330366517625
177	0xbfb00182cf69cdb4	-0.06252305568505429
178	0xbfb07a8f1b4f699d	-0.06437010208848055
179	0x3fde87c2b5cf8fab	0.47703616862258497
180	0xbf7c592949041631	-0.006920968313584506
181	0x3fe05147f170913b	0.5099220004672483
182	0x3fde18cabef0167e	0.47026318212770224
183	0x3fdbda4ae6c42083	0.43519852195505154
184	0x3fc3a983f75f70b3	0.1536107023119989
185	0xbfe50dd9e1b4052a	-0.6579408081308078
186	0x3fd1eed2ef22f1d8	0.28020165780233475
187	0x3fe576e64ce18ca5	0.6707641126235059
188	0x3fd4db6080435aea	0.32588970685666985
189	0x3fe334e5e574bcd0	0.6002072793543451
190	0x3fdeb1e54142dd6b	0.47960788129008475
191	0xbfb403d6ad2fa962	-0.0781835720842188
192	0xbfc540018ca4d92c	-0.16601580970172714
193	0xbfd4f248ce8273e9	-0.3272878662772301
194	0xbfd3688100000000	-0.3032534122467041
195	0xbfc3ead620000000	-0.15560413897037506
196	0x3fe037a61c62c731	0.5067930750285311
197	0x3fd84366dc93c338	0.3791138795923419
198	0x3fe0315032f2cf78	0.5060196871840921
199	0x3fe5566bd470536b	0.6667994641489775
200	0x3fb34e5940a7fc87	0.07541425541420398
201	0x3fd477c918a0f743	0.3198111286654816
202	0xbfe5d53dc0000000	-0.682280421257019
203	0xbfdbe5f4e0000000	-0.4359104335308075
204	0x3fd4b408e166fda0	0.32348844539589017
205	0x3fd3f300e9f4a7ae	0.3117067608569596
206	0xbfe24052bfe61970	-0.5703519580863894
207	0xbfe18cfc20082f25	-0.5484600663780596
208	0xbfc31d8754008aec	-0.1493386421362496
209	0xbfdb3e9af3b78521	-0.42569612312770927
210	0x3fd3236a4293ea9d	0.29903656484354163
211	0x3fc4ddc124a45806	0.16301740922125435
212	0x3fd3e50d958afd54	0.310855289495483
213	0xbfc6686650bab8e3	-0.1750610250650829
214	0x3f9ac63252c0ec37	0.026146684933547184
215	0xbfe399e0c5f2a176	-0.6125339380424026
216	0xbfd11d7adcbc49b6	-0.2674243121738543
217	0x3fc337a71c83d778	0.15013588802656463
218	0x3fe3429745f11d7f	0.6018787733127481
219	0x3fda3bda10e378fc	0.4099030651976958
220	0x3fe526d0fd50ead5	0.6609883258418799
221	0x3fbca2c06ba5ab0f	0.1118583929834751
222	0x3fd7a63132d5c01f	0.3695185657916244
223	0x3fd27dc7932305b1	0.2889269768603198
224	0xbfd337e291fcac03	-0.30028595215361537
225	0x3fe41c8c85021fdd	0.6284849736994108
226	0xbfb70b37384f9e19	-0.09001488804607795
227	0xbfe63181fd87c275	-0.693543429542912
228	0xbfe0f2ae45d30fa0	-0.5296241153487138
229	0x3fa64f83b1e24ade	0.043575396980619394
230	0xbfd2fc74d9b06f38	-0.29665871866903926
231	0xbfe02b14596bda66	-0.5052587267408171
232	0xbfa724aea01d390f	-0.04520173744696098
233	0xbfda222a04136f55	-0.4083352126888163
234	0x3fb4bc07ed7b1974	0.08099412486908425
235	0xbfa165a6af7e6d7b	-0.03397866146334657
236	0x3fe23ebe050ffd92	0.5701589678646306
237	0x3fcae5c8a044cad0	0.21013744187947347
238	0xbfe5a23c9dbcc16e	-0.6760542946631583
239	0xbfd9c31da14eafb4	-0.4025339198367377
240	0x3fc756daec710be2	0.1823381094455661
241	0xbfcd7e7d8fcebaee	-0.23042268297054797
242	0xbf94991e867cacc9	-0.020115353544650803
243	0xbfbdb2263fa66c2b	-0.11599959424931743
244	0x3fe277244bcc4541	0.5770436745098452
245	0x3fd7cc4e4bd135bc	0.3718448391344642
246	0xbfe58bd780000000	-0.6733205318450928
247	0x3fd845f5e0000000	0.3792700469493866
248	0xbfd5ce7b20000000	-0.3407275974750519
249	0x3fca8ecb00000000	0.2074826955795288
250	0xbfdbb2d9ca2d2a29	-0.4327911829356333
251	0x3fe1ecf9a42a55b1	0.5601776319842228
252	0xbfd83da020000000	-0.37876132130622864
253	0xbfb904ca80000000	-0.09772935509681702
254	0xbfd3ef411844ccc9	-0.3114779221534261
255	0x3fe22b49ca5c56e2	0.5677842094762264

linear2.bias f8 [128]
0	0xbfd2481bfec6fd2e	-0.2856512058314874
1	0xbfe272f5c0000000	-0.5765331983566284
2	0x3fe1230d891186bd	0.5355289151304629
3	0x3fcacea201e8d1ab	0.20943093388781384
4	0x3fe42a3ec55f94b5	0.6301568846653455
5	0xbfe1346e45859d72	-0.5376502378320949
6	0x3fa67c54b6518379	0.04391731954161222
7	0x3fd3ae7597227353	0.3075231529162938
8	0x3fd0c266c04b5ef5	0.2618653180957005
9	0x3fde43efff3e62f3	0.47289657522337264
10	0xbfc8245104ecc071	-0.18860829105824764
11	0xbfe3f3a558f94e20	-0.6234919297953105
12	0x3fe52e26dc5d35c4	0.6618837646471367
13	0xbfab1d516743e4e9	-0.0529580534511725
14	0x3fd56b28a48ee8d9	0.33466545171871825
15	0xbfd913e9e40b86e8	-0.3918404318811626
16	0xbfe42066e0000000	-0.6289553046226501
17	0x3fd4dc63302df2d3	0.3259513826849744
18	0xbf9f61a766ef6860	-0.030645957620301423
19	0x3f9748b56dfe13d3	0.022738299215706647
20	0x3fd663851755687b	0.3498242118709027
21	0xbfb836a610c988aa	-0.09458387288899198
22	0x3fdd9a0a756ce73d	0.46252690760922005
23	0x3fd55d624ee6dff8	0.3338247080350807
24	0x3fe5d2d9b6b40265	0.6819885795994877
25	0xbfba2b9e7ef0318f	-0.10222807501867791
26	0x3fe6eae9f8e9118b	0.7161760198146551
27	0x3fda021bf91d1043	0.4063787396191893
28	0x3fe1029c73986fea	0.5315687425349982
29	0xbfc89db74df4785c	-0.19231311136622053
30	0xbfe5c2e8c3afe201	-0.6800426313412232
31	0xbfd31c4ce8ebd4f9	-0.2986023211118006
32	0x3fe5a366506bfa3b	0.6761962481248881
33	0x3fcd29b10e6d4fa2	0.22783482746546918
34	0xbfe5cd5e83f0d332	-0.681319482514118
35	0xbfc3165b556d2bce	-0.14911977454388964
36	0xbfc36504794ed38d	-0.1515203087161833
37	0xbfd5c3314f186d23	-0.3400386116424718
38	0xbfc97640efe1e728	-0.198921315317244
39	0xbfbeec0676ab5b8d	-0.12078895947648345
40	0xbfc2e19643a53994	-0.14750936797140624
41	0x3f9c7ff267f30a89	0.02783182868439352
42	0x3fc72797eb8f6d4a	0.18089579584089172
43	0xbfb536903bc88bfb	-0.08286382159762688
44	0x3fe1a7e7e11b955c	0.5517463108668994
45	0xbfdaf15a18f94515	-0.42098095358694937
46	0xbfa70a163cb11872	-0.044998831661858044
47	0xbfd01a9fe0000000	-0.25162503123283386
48	0xbfd8d5b900000000	-0.3880445957183838
49	0xbfd1a1ef60000000	-0.27550873160362244
50	0x3fc514fbf8d89273	0.1647028889721188
51	0x3fe19f4236e0e8a6	0.5506907531592062
52	0x3fbc8c22183b8938	0.1115132626687555
53	0xbfe2a3217525a3d3	-0.5824134147670698
54	0x3fce664e3cc921b2	0.2374971195988685
55	0x3fe594169566c504	0.6743271749493549
56	0xbfcdbab4c7896b79	-0.2322603201199305
57	0xbfe0468d0451b952	-0.5086121639595069
58	0x3fe072f645eb0d0a	0.5140334477986539
59	0x3fe456b83c8e1317	0.6355858977045469
60	0xbfcd2a2000000000	-0.22784805297851562
61	0x3fd0603b331618e9	0.2558734892740078
62	0xbf9a750ff35e2040	-0.025837182263359404
63	0xbfd47cc8d31da22c	-0.32011623970768954
64	0x3fcc89403c27a95b	0.22293856560947742
65	0x3fddfc19b2865de5	0.4685119861037193
66	0xbfc6c8ede940a578	-0.17800687684329453
67	0xbfc7744cf766731c	-0.18323671417319864
68	0x3fe0c8528201498d	0.5244534053002085
69	0x3fe6c19fe3a7ece1	0.7111358114629206
70	0xbfd79e59f0db21b5	-0.3690399982556543
71	0x3fcdbaa455eafa43	0.2322583598633675
72	0xbfe3d17222a83d11	-0.6193171193025667
73	0xbfdc13c85d60f0c7	-0.43870743865023737
74	0xbfc42e10cd64c524	-0.15765581158624642
75	0xbfd3fe33028252a7	-0.31239009137179113
76	0xbfe3b5a436630335	-0.6159230291596943
77	0x3f97710d98a67b61	0.022892200891529216
78	0x3fe20ca8d256d6d9	0.5640453441798982
79	0xbfcbc8bb0867b1b9	-0.217063311676055
80	0xbfdce911bd1c3876	-0.4517254206447271
81	0xbfac52a3735ae3c5	-0.055317981559205566
82	0x3fb8dfac05e84580	0.09716296333524177
83	0x3fbf7af6afa02269	0.12297002589924379
84	0xbfc99b0fd5d17306	-0.20004461231555853
85	0x3fe59c5a2b534424	0.6753359647938209
86	0xbfda081e40000000	-0.4067454934120178
87	0xbfe3450439ce70e1	-0.6021748665839618
88	0x3f9ed9385d86fcd8	0.03012550421567259
89	0x3fd888d8dd471e65	0.38335248574410336
90	0xbf8fe4ad0080b77c	-0.015572883203357916
91	0x3fe38001c5038be6	0.6093758438040566
92	0xbfc1aa95b1b8ebe1	-0.138018333223811
93	0x3fb0416ea0c44e47	0.06349841523142984
94	0x3fe526160351b383	0.6608991684748705
95	0x3fe12c1bc2fed241	0.5366343315604994
96	0x3fd25c6c9041a75e	0.28689111793084077
97	0xbfc5d69f00000000	-0.17061221599578857
98	0xbfd3676e990c7016	-0.30318798967505367
99	0xbfcedb586b35acde	-0.24106888995024794
100	0x3fe38dfdf957b93b	0.6110830183004404
101	0xbfe6958a60000000	-0.7057544589042664
102	0x3fd736ea6286b2c2	0.36272678014465154
103	0xbfb1dafca24f6a43	-0.06974772417690027
104	0xbf95c19f7f1105b0	-0.021246425753138787
105	0xbfb55da5768dd123	-0.08346017975219815
106	0x3fd1f31bacb8067e	0.28046314112734894
107	0x3fd0eb8a48dc9926	0.2643762313404231
108	0x3fe500e1fe5c4ee0	0.6563577621440935
109	0x3fe1ce6925c3ff71	0.5564466226205537
110	0x3fd5c015a458ae87	0.3398489098496857
111	0x3fc1b07acf30e678	0.13819823376416074
112	0x3fd93f293e6708cc	0.3944800481223296
113	0xbfe0e3fd28b235af	-0.5278306765409776
114	0x3fc5db3ebd8f7208	0.17075332885623618
115	0xbfd6e017e2edb6c9	-0.3574275699710197
116	0xbfcefa8c3f31440f	-0.24202111325806228
117	0xbfd5de79c21eddd0	-0.3417038341244423
118	0x3fd16f54c3db46d1	0.2724201119100203
119	0xbfb7d03356cbb18b	-0.09302063817057708
120	0x3fcccf58b63c0368	0.22507771394887333
121	0x3fdf0d544ce92ddc	0.48518855582071096
122	0x3fe2fd9aeca18fab	0.593457662744631
123	0xbfe3bbe980000000	-0.6166884899139404
124	0xbfc9504640000000	-0.19776228070259094
125	0x3fdfa164f32c613c	0.49422572848699864
126	0xbfd3a1e320000000	-0.30675581097602844
127	0x3fd075eff47a5bf2	0.2571983230095035

linear3.weight f8 [2, 16]
0	0x400f82cb398f18d0	3.9388641831202236
1	0x400c0c2bcaa67b91	3.5059429008537752
2	0xc00ee987078ef002	-3.8640270796295235
3	0x3fbd75cd92bf3d02	0.11507878143969566
4	0xc010caa78f92afec	-4.197904818847729
5	0xc00feee130407154	-3.9916404504457805
6	0x400db371485a5640	3.712618413216461
7	0x3fb180b2043d8e63	0.06836998561407763
8	0x3fac641a90c6d2ee	0.055451231167728085
9	0x400fb7748ba30b51	3.96457776156732
10	0xbfaa14f3eae0a9eb	-0.05094110719831576
11	0x400e11779b66b7d1	3.7585289135667854
12	0xc00eded3465efe5c	-3.8588014123668426
13	0xc00625bcf8de827c	-2.7684268420128415
14	0x40104d71d839a518	4.075629595297208
15	0x4010b9e101233547	4.181522386335309
16	0x3fca48db76425c21	0.20534842752815144
17	0x3fcd716873b90596	0.23002343798183905
18	0x3fcc78f56f0bc449	0.2224413673607464
19	0xbfc010542c2bcd16	-0.12549831539909267
20	0x3fd0256eb209e503	0.2522846926363657
21	0xbfc1302c8c02cf1b	-0.13428265415643
22	0x3f75741eac427f43	0.0052376936111214216
23	0x3f9a69d283dd4672	0.025794305132257063
24	0xbfc57746a2df3902	-0.1677025122903118
25	0x3fbe5b61ce079674	0.11858187942524429
26	0x3fc9be2c790bd3ab	0.20111614141901887
27	0xbfc29522fd833861	-0.14517629030746362
28	0x3fc655e7024790b9	0.17449653254801037
29	0xbfa9879f3bfb3c70	-0.049862838813731325
30	0x3fca07c515782123	0.20336211727431772
31	0x3fbe8e9b0ee86122	0.11936349023779205

linear3.bias f8 [2]
0	0x40107c62812959a4	4.121469514988721
1	0x3f97849cf42b28c3	0.022966816332691275

lstm1.weight_ih f8 [64, 128]
0	0xbfc03b939ff1c8ea	-0.12681813535488767
1	0xbf9c952e00000000	-0.027912825345993042
2	0xbfcccdc724f956c4	-0.22502984338159682
3	0x3fc6f870cd36bbf5	0.17945680637555453
4	0x3fb2b8d6995a76e5	0.07313290828684733
5	0x3fc797a600000000	0.18431544303894043
6	0x3fc1ff1c84520026	0.14059788189843053
7	0xbfc3026842b3a0c4	-0.14851096398274966
8	0x3f94bfa9eab3aba9	0.020262389135421142
9	0x3fbed28487cf8f47	0.12039974513714667
10	0x3fca0a71f628d522	0.2034437610579199
11	0x3fcae6c42699466c	0.21016742596343663
12	0xbf9a1a55a365e380	-0.025491083238623258
13	0xbfa5f7a61b52c484	-0.04290503581558716
14	0x3fc5316fc0000000	0.1655711829662323
15	0x3fcd00894613af2b	0.226578864304764
16	0xbfc9e2ef74f8fb9c	-0.20223801814605913
17	0xbfc7c45129074100	-0.18567862037026117
18	0xbf82af338385dc5f	-0.009123232318172634
19	0x3f8ab76671a60f13	0.013045120566637125
20	0xbfcf61f400000000	-0.2451767921447754
21	0x3f92649e38ff2a43	0.017961952427677962
22	0x3fcffabccefba05c	0.2498394022616165
23	0x3fc852c645fd0d43	0.19002607743650843
24	0xbfb41c55fc3db2a8	-0.078557371217992
25	0x3fcef083c8ba275a	0.24171492863780025
26	0x3fb3df83c932e420	0.07762931501464765
27	0xbfb676c5223840ee	-0.08774978719180002
28	0xbfb2693e56baf3a5	-0.07191838853300554
29	0x3fb5200880000000	0.08252003788948059
30	0xbfc25512184e9ee7	-0.14322115122671805
31	0xbfb15d566d4c2996	-0.06783046883007268
32	0xbfc7d9bb97d23993	-0.18633217728752224
33	0x3fc9f6cdd0bba572	0.20284435932198225
34	0xbfc8fa6ba5d159df	-0.1951422271401517
35	0xbfc887f1bb4b2ff9	-0.19164868970108254
36	0xbfbc6d155229d02f	-0.11103947883549446
37	0x3fc4929efa7a095e	0.16072451811130412
38	0xbfcc3e6640000000	-0.22065427899360657
39	0x3fc2726404517e0f	0.14411592684608407
40	0x3fc2c936d924efad	0.1467655716204467
41	0x3fcc81d152f44d36	0.2227117209482487
42	0xbf821dd64923f626	-0.008845972163267279
43	0xbfc662fb84061c3e	-0.17489570566633178
44	0x3fbc290e5d4d4a8a	0.11000146654013512
45	0xbfc0db9800000000	-0.13170146942138672
46	0xbfa9df16d024e69e	-0.05053015986272878
47	0xbfb3def5ed17ee2b	-0.07762085951247204
48	0x3fb472ca9a8f8087	0.07987657807780311
49	0x3fb237c7ed46a261	0.07116364996785186
50	0xbfc1abb8ce46c47a	-0.13805303642360284
51	0x3f94b7af4f340fbf	0.020231951913060927
52	0xbfc685971f1e46e6	-0.17595185298392052
53	0x3fb5432f5b000371	0.08305641147309274
54	0xbfce42821313d9e2	-0.236404666247565
55	0x3fac0fb1a3b3e8b5	0.054807234986541976
56	0x3fbf20174e9773b3	0.12158342045536479
57	0x3fab0c0394665852	0.05282603441735091
58	0xbfc1ae0417893bae	-0.1381230463907434
59	0x3f9158a089d65427	0.01693964806834827
60	0xbfc603a055c6a273	-0.17198566616322672
61	0xbfad89bf1c83cc0a	-0.05769154761392066
62	0xbf8297899dd48a80	-0.009078097466560964
63	0xbfc214b49161293d	-0.1412568769322408
64	0x3f4ba18437004551	0.0008432288723289415
65	0xbf7e19d34b2d1812	-0.007348847738120072
66	0x3f9ff5ba5f02c6fd	0.031210815476419452
67	0x3fc543dafbb011ff	0.1661332825607502
68	0x3f9398b000000000	0.019137144088745117
69	0x3fb690c080000000	0.08814623951911926
70	0x3fcc453bf9ae1b1e	0.22086286250506587
71	0x3fb7296d248f7391	0.0904758657702145
72	0x3faaca89deadd53d	0.05232649653673114
73	0xbfc681d3c0000000	-0.17583701014518738
74	0xbf90c7819bb40d5d	-0.016386056068779953
75	0x3f9fa1b0c6c825f0	0.030890237934761033
76	0xbfc542af0227fab9	-0.16609752278596604
77	0xbfa959a6852dd28f	-0.04951210380287307
78	0x3fc0b8ad801b7d9b	0.13063591723674225
79	0xbfc8255ae3686048	-0.1886399851216558
80	0x3f9d33d5be6eecf6	0.028518047092558306
81	0xbfad4b7c4d786d0e	-0.05721653409656301
82	0x3fc9b1fd162b25fa	0.20074428160141605
83	0x3f76bb4f4e6a4ce1	0.005549726286193408
84	0xbfb48ebb54839658	-0.0803029137929
85	0x3f9677d231e32dd5	0.02194145612229
86	0xbfbbcca2f63de14c	-0.10859125625382154
87	0x3fb76ec8408dbee8	0.09153415275590826
88	0xbfc1b267eb113b2c	-0.1382570169248195
89	0x3fcc3645c391f4b8	0.22040626572917232
90	0x3fc72471ec7eec19	0.18079971358915328
91	0xbfcbc3d214dea570	-0.21691347140339756
92	0x3fcba3b28fb7e217	0.21593315141196065
93	0xbfc18446957d7750	-0.1368492345745218
94	0x3fc1230cb1fd6f87	0.13388212862889423
95	0x3fcb439ba3758d5c	0.21300073129087138
96	0x3fcbdf38486058e1	0.21774962934495704
97	0x3fc8ac9033a5dc8f	0.19276621362562138
98	0x3fc97d9940000000	0.19914546608924866
99	0xbfc44a98dd4d4256	-0.15852652364493974
100	0x3fa841e900000000	0.04737785458564758
101	0x3fc693d32b0690be	0.17638625717984796
102	0xbfb84f0b2b90c5f5	-0.09495611013041823
103	0x3f8b97468697f5b9	0.013472128851385589
104	0x3fc2e6f3480683db	0.14767304436557435
105	0x3fcde66c293496a9	0.23359443675979222
106	0x3fa9bcc5cd9fbcb7	0.050268346167166404
107	0x3fce17708cd7f394	0.23509032132269836
108	0xbfbcbaeaba5d58e9	-0.11222712564390104
109	0xbfbabd2380000000	-0.10444852709770203
110	0xbfcc31ce5c455605	-0.22026996140873237
111	0x3fa075d4f7edae0c	0.032148986115171224
112	0x3fcd53c5d1954314	0.2291190408091316
113	0xbf89e9fcb18ea88a	-0.012653326195352105
114	0x3fc7bb1fdacccf28	0.18539808448405748
115	0xbf818e3ffaf03427	-0.008572101445702597
116	0x3fb098ddac55b937	0.06483254868883113
117	0x3f965eae840838ae	0.02184555703029705
118	0x3fb7e44add4804ac	0.09332721617103584
119	0x3fba226126d50030	0.10208708951995571
120	0xbfcc79304be1f14e	-0.22244838433460717
121	0x3fc18308402877f1	0.1368112862846256
122	0x3fa832a05118a7a7	0.047261247538997346
123	0xbfc91c4e72d1bbf7	-0.19617634397897607
124	0x3fb4dc8628f86fea	0.08148993015532793
125	0xbfbef54e1d9f295d	-0.12093055937945026
126	0x3f9bb8ba7f96d00c	0.027071870839520826
127	0x3f84627f4d787a66	0.009953493644443156
128	0xbfbe5763277f45a1	-0.11852092470441856
129	0x3f9f4fae00000000	0.030577391386032104
130	0x3fa20d61808870ec	0.03525833791738528
131	0x3f814ccdff1d5679	0.008447274539928206
132	0x3fc85c5f98ef0634	0.19031901328530554
133	0x3fc7254d40000000	0.1808258593082428
134	0x3fcc6c2d32e4a51e	0.22205128655449696
135	0xbfa996f8948e1222	-0.04997994244971361
136	0x3fbdb6eadf17e582	0.11607234903921973
137	0xbfce1a76b0209d9e	-0.23518260574313116
138	0x3fcb8f8ca01c48c4	0.2153182775296668
139	0x3fc03ccd8a3ca7ae	0.12685555696344636
140	0x3f7c605ac80d4d9c	0.0069278284216411044
141	0xbfa7dd4e1ad5ae60	-0.046610298896521796
142	0x3f882df000000000	0.011806368827819824
143	0xbfc83f823d8bfe42	-0.18943813328950126
144	0xbfca7942bc0b393c	-0.20682558233097292
145	0xbfa6f644050ba894	-0.04484760819998815
146	0x3fcb3de968d358c5	0.21282689684330172
147	0xbfc5b6bd79dbba8b	-0.169639286519175
148	0x3fc40e8640000000	0.1566932499408722
149	0xbf8ab95c821cc8c9	-0.013048861237255587
150	0xbfbe9d7cb871f238	-0.11959056380323652
151	0x3fc8ba794ebb7adb	0.19319073051789
152	0xbfbac67bbad8d433	-0.10459111510938683
153	0x3fa19ea72cf27a9f	0.03441355155631708
154	0xbfb04c37dbaa1370	-0.06366299736880676
155	0x3fbcb1862549cc47	0.11208380136831507
156	0x3fbb2b151b426d31	0.10612613597406974
157	0x3f90d16000000000	0.016423702239990234
158	0xbfcc71804d80be29	-0.22221378120728844
159	0x3fc99aea14673045	0.2000401115059295
160	0xbf91a98e1dbbe5bd	-0.017248364033525244
161	0xbfcbd5c4896148e7	-0.2174611731339333
162	0x3fb479d715c02b9d	0.07998413353941065
163	0x3fc694c4dff22954	0.1764150708662081
164	0x3fad1beed68e6fb5	0.05685373658272345
165	0x3fa24dd8095e4070	0.035750151771140604
166	0x3fc28c1d00000000	0.14490091800689697
167	0xbfc6c75b988e6a63	-0.1779589171317922
168	0xbfcc44228f96b83d	-0.2208293152920663
169	0x3fb13a4a0f32562d	0.06729567404757893
170	0x3fc2caf1e6ade581	0.1468183876384437
171	0xbfc077d8aab533cf	-0.12865742049544202
172	0x3fcda099c91ed2ea	0.23146364517528834
173	0x3fb47d0880000000	0.08003285527229309
174	0x3fc976ef600e17e6	0.19894210996807188
175	0xbfc2323a378d4620	-0.14215781891339052
176	0x3fa76bdf34c559ac	0.04574487227607746
177	0x3f7930b4bb653a80	0.006149965271403546
178	0x3fca2b306c28824c	0.20444302827037786
179	0x3fb893972dbaea74	0.09600205294092651
180	0x3fc57f07937f9b84	0.16793913557122775
181	0xbfb512ad54a1cadb	-0.08231623951159454
182	0xbfa8a79ff725afe1	-0.04815387622770096
183	0xbf9c39709fec8bb0	-0.027562865982996676
184	0xbfc104073f0dba2c	-0.13293543413915765
185	0x3fab883ea57bee1b	0.05377383966512302
186	0xbf7760b45dfb5e20	-0.0057074590292454375
187	0x3fc72a2eb32a3651	0.18097480533872326
188	0x3fc21be226afddf3	0.14147593392384258
189	0xbfcfcb26388e3358	-0.24838712464807133
190	0xbf9c929c2acff3f7	-0.027903022873932284
191	0x3fc3b7eb932eae24	0.15405029951703952
192	0xbfb7795a469c99e5	-0.09169544433516526
193	0x3fa1c27e3e22e679	0.034686989865304114
194	0xbfba45e555e26556	-0.1026290259054766
195	0x3fb83be9edeb6bce	0.09466421183189697
196	0x3fc39d7a00000000	0.1532433032989502
197	0xbfc6ff26c0000000	-0.1796616017818451
198	0xbfc530216e2e4b60	-0.16553132896350586
199	0xbfcce3b3087514e9	-0.22569883263546522
200	0xbfcb9a28eda74359	-0.2156420860688069
201	0xbf9aebc400000000	-0.02628999948501587
202	0x3fb3837a5ae55129	0.07622494429717065
203	0xbf869bc78c827026	-0.011039313292990082
204	0x3fc3e41627c253ca	0.15539814893113962
205	0xbfb0071c28c94867	-0.06260848994978262
206	0xbfb84307d55de68f	-0.09477280577803014
207	0x3fc8b9acd309b120	0.1931663542230888
208	0xbfce951423d16243	-0.23892452000542805
209	0xbfcbe38bb6591b09	-0.217881645238059
210	0xbfc18099bd3c7465	-0.13673707714125097
211	0xbfc4e032a391988d	-0.16309197413210477
212	0xbfae972b7097ab69	-0.0597470831815688
213	0x3f860ce4d6ac5504	0.010766780663781457
214	0xbfbd10e05fbfe5b8	-0.11353876435887045
215	0x3f9a61868b928f81	0.02576265551455448
216	0xbfcc19acc06e500d	-0.21953353305855253
217	0x3fc4c76693d49f22	0.16233522623337487
218	0x3fc4c0dbbac39461	0.1621355688031683
219	0xbfb9a5bfcca6eabb	-0.10018538233172596
220	0x3fcd5d6329d140a3	0.22941245595803136
221	0x3f845da8ce3ca607	0.009944266122675861
222	0xbfcb59a71381ab93	-0.21367348148791318
223	0xbfb8e56907db3367	-0.09725052301219038
224	0x3fadc480c5655005	0.05813982400528065
225	0x3fcaa5e7196a2fe7	0.20818794957119666
226	0x3fa93a9e00000000	0.049275338649749756
227	0xbfbf1249e572f9cb	-0.12137281276498084
228	0x3faf0ec200000000	0.06065946817398071
229	0xbfc2c8b17c1cddf0	-0.14674967346375878
230	0x3fb1065317dc1550	0.06650275547516071
231	0xbfa341ccfd664cd0	-0.03761139481789544
232	0xbfc05188987e6b51	-0.12748820730197477
233	0x3f7321e2c0a1d992	0.004670987846216683
234	0x3fbbed042617ac61	0.10908533029548685
235	0xbfc7d7506e71deeb	-0.1862583674699104
236	0x3fcc3cc528cf1b65	0.22060455792071845
237	0x3fb137ba80000000	0.06725659966468811
238	0xbfc574ddf3289434	-0.16762899754499616
239	0x3fcb6da3166de6bd	0.21428335757427944
240	0xbfc3eaa05c549ab6	-0.15559772976231095
241	0x3fb15f068db8f562	0.06785622558614571
242	0x3fc71014ed7a3938	0.18017827601983938
243	0xbfc826779caec544	-0.18867392683527318
244	0xbfc5d421a53bb69d	-0.1705362374117855
245	0x3fcb825eef67b11d	0.21491610231112981
246	0x3faea79e32a587f0	0.059872573549696884
247	0xbfcebd9c3e54a909	-0.2401614479397909
248	0x3fb4f1d11e322784	0.08181483256535499
249	0x3fbba7891ccb6df9	0.10802514031404788
250	0xbfc29cd95be6e491	-0.1454116533985013
251	0xbfc4b0f61d5d8945	-0.1616504329095482
252	0xbfc48693bde9f9d7	-0.16035696766989702
253	0xbfcce7289c6e937d	-0.22580440176275465
254	0xbf99dcc3b5763596	-0.025256212187334613
255	0x3fcba11736146cac	0.21585359707464613
