checkpoints/final_with.ckpt (torch, 159739 bytes, 14 tensors)

linear1.weight f8 [128, 2]
000000 64 63 84 36 90 1d d8 bf b8 9d 7b b6 4b 09 e5 bf
       -0.3768044025796853 -0.6573847355002078
000010 07 4b 67 66 ad c7 e4 3f cf 85 06 9e 72 ed b5 3f
       0.6493746757572304 0.08565441473049094
000020 ae 96 f6 f4 4d fd a9 3f d0 a3 08 a8 78 20 d8 bf
       0.05076068511270414 -0.37698189172311647
000030 80 30 25 71 e1 06 e4 3f 0d 33 03 d9 e5 82 e1 3f
       0.6258399209850865 0.5472287405515047
000040 53 0b da fe 3e 82 e3 bf 40 06 22 df 8d 08 d4 3f
       -0.6096491792271571 0.31302210607836756
000050 3c a2 4c 30 fc 8c d9 3f e4 d6 1a d1 26 ff d3 3f
       0.39923004833920905 0.3124482194938152
000060 bd 1e 83 e8 31 95 d1 bf 5b a7 8a 80 64 2a ce bf
       -0.27473113733547533 -0.23566871906705952
000070 fb 64 2c c2 6b 7b c4 bf 6d 75 c3 47 de bd d6 3f
       -0.16001650792239971 0.35533864029078793
000080 00 00 00 a0 47 26 e4 bf 00 00 00 00 da 41 ad 3f
       -0.6296728253364563 0.05714303255081177
000090 ba e1 57 cb d7 39 e1 bf 3f 79 e8 f9 6e 3d d9 bf
       -0.5383109065579028 -0.39437460332000634
0000a0 00 00 00 80 81 f6 d0 bf 00 00 00 20 a9 01 c7 3f
       -0.26504552364349365 0.17973817884922028
0000b0 17 02 e9 ae c5 7e d9 3f e2 1a fc a9 80 3b d9 3f
       0.39836256104538975 0.3942567501075428
0000c0 e7 17 8f d6 24 af d0 bf 99 8a 5f 17 47 29 c5 3f
       -0.26068993523619927 0.1653221954466815
0000d0 f2 14 27 05 fc 19 d3 3f 0d 32 df 40 f6 aa bd bf
       0.2984609651869753 -0.11588992198739607
0000e0 5f 75 44 23 84 c3 e3 3f 0b 42 bb 64 c3 3a da 3f
       0.617616719133064 0.40983662449892283
0000f0 7b ff 69 10 02 46 be 3f a3 eb 42 d4 3e d7 d7 3f
       0.11825573826535944 0.3725125382294953
000100 00 00 00 c0 4c 8c e3 bf 00 00 00 00 9c b3 90 3f
       -0.6108764410018921 0.016310155391693115
000110 e5 92 66 ff ee 5d cb bf 6f b2 d5 3f d1 b7 be 3f
       -0.21380412550674702 0.1199923306318824
000120 00 00 00 c0 0e 7a e0 bf 00 00 00 a0 8a 7a c2 bf
       -0.5148996114730835 -0.14436466991901398
000130 35 06 b7 f0 8a 29 da 3f 7b aa 9a 7b 7d e1 db bf
       0.40878556735342225 -0.4356378275939858
000140 dc 03 6d 9e d4 28 d2 bf ac 89 f0 ad 7d 23 d8 3f
       -0.28374209853433086 0.37716619478501445
000150 d5 48 31 6e 89 40 d0 3f 3b 7f fc 97 8f 0c a1 3f
       0.2539390159701161 0.033298957160012375
000160 00 00 00 c0 1d ec e1 bf 00 00 00 c0 88 5b cd 3f
       -0.5600727796554565 0.22935590147972107
000170 48 ef 5b 37 7a 18 d0 3f b5 e8 b1 4e 9f a0 d6 bf
       0.25149398237384846 -0.3535536068444672
000180 08 57 a2 61 8c 4d e2 bf 1d 58 57 a8 98 c7 c0 bf
       -0.5719663531224066 -0.13109119624886115
000190 5f f6 0d 70 de 1e ac bf e6 03 6e 47 83 51 d0 3f
       -0.05492301099637297 0.25497514701424817
0001a0 03 39 26 23 a7 0e de 3f 05 7d 86 26 7a 58 d3 bf
       0.46964434082555345 -0.302275216696174
0001b0 fd 9d 7e 6e 5d 79 e5 3f 8b 05 42 0f 58 73 d5 bf
       0.6710650594804403 -0.33516503801373493
0001c0 53 ac 35 bc 77 29 c7 bf 51 dc 08 89 c8 80 da 3f
       -0.18095299425053443 0.41411031133924775
0001d0 cf a8 af f1 2e 53 e5 3f 20 cf 4c 63 5a 89 d6 bf
       0.6664042206223487 -0.35213336655873384
0001e0 be 97 0b 8b 93 ff df bf cb 44 00 8a 0a 5a e3 3f
       -0.49997414187088995 0.6047413535435678
0001f0 8c a3 3d 76 dc 70 ca 3f 33 63 b2 aa 08 33 da 3f
       0.2065692498538535 0.40936485929119043
000200 d5 f8 80 e0 db 07 dc bf 99 2a c3 ff 30 0d c3 3f
       -0.43797966884802736 0.1488400696601573
000210 2f 79 01 8f 17 d8 e1 3f 3c 2b 77 8a ce ae 82 bf
       0.5576284211236152 -0.009122480011588878
000220 5e a0 65 3a d8 6f df bf 29 7a 69 01 a2 d1 c7 3f
       -0.4912014551432601 0.1860849863905554
000230 c0 77 91 c3 74 5c e0 3f 94 2e 9d 09 be c8 e5 3f
       0.511286146134573 0.6807546794675141
000240 33 57 ae af 19 df e2 3f b4 47 fb 2b 90 85 c3 3f
       0.5897339278478512 0.1525135245088315
000250 4a 88 32 a8 63 f1 d1 3f c6 3d 49 6f f2 3b bd 3f
       0.2803582327416093 0.11419596878953717
000260 16 94 96 cb b9 8b c4 bf 2e 91 1f 21 c0 e3 e0 3f
       -0.16051409188108384 0.5278015753688459
000270 37 d8 c2 e1 2e 9d e1 bf 54 37 0b 07 0e 77 df bf
       -0.5504373940846169 -0.49164152801391947
000280 b7 3b a1 83 20 2c e2 3f b4 98 48 46 14 e3 e1 bf
       0.5678865977187034 -0.5589696285940335
000290 20 45 b1 2e 4f 13 d8 bf b2 b6 39 9a 0b 4a e0 bf
       -0.37617854652224203 -0.5090387356010153
0002a0 c6 19 db a4 b2 c0 db bf 60 a0 9e 85 e4 64 85 3f
       -0.43363634204106594 0.01044634373450054
0002b0 4c 1a c4 3f 30 06 e2 bf 1b 96 65 40 66 89 de 3f
       -0.5632554288320732 0.4771361950755321
0002c0 eb 23 7c bf 13 8d e0 3f 41 e4 15 c3 62 a0 c1 3f
       0.517221330636969 0.13770708585414762
0002d0 62 be b5 e2 b0 e7 b1 3f 64 f9 81 45 95 42 d1 3f
       0.06994157347593835 0.2696889094148871
0002e0 7c 73 90 1f 59 4b e1 3f 3c 61 de ef 37 82 d5 bf
       0.5404477707375999 -0.336072906729459
0002f0 50 94 33 51 16 c5 d3 3f bd 01 b2 94 d8 8f d9 bf
       0.30890424661476334 -0.3994046642401619
000300 6f f2 4b 22 8e 3c e2 3f de 67 15 69 24 04 d8 3f
       0.5698919935089871 0.3752528215605916
000310 fa b2 0c e8 d0 8d c6 3f f4 89 5c da 0f ae c6 bf
       0.1762028821043698 -0.17718694841558114
000320 00 00 00 00 26 63 db bf 00 00 00 80 b2 23 cd bf
       -0.42792654037475586 -0.22765189409255981
000330 6e 04 ea 9b 43 43 b5 bf 00 c9 75 72 37 1b e4 3f
       -0.08305761867997472 0.628322337679748
000340 ce 81 12 db 72 5b e1 bf af f4 c8 12 db ed e3 bf
       -0.5424131659274793 -0.622785126389905
000350 24 ea ab 98 65 53 96 bf ed 70 f3 e6 ea cb d4 3f
       -0.02180250877698077 0.32494614175608555
000360 65 1a 67 a5 35 5f e2 3f 45 21 2e 93 f2 3a da bf
       0.5741222601435082 -0.40984787343088086
000370 a5 5f 70 5f aa 43 d0 bf 3e 11 26 8a 23 6d c1 bf
       -0.25412997551165467 -0.13614315267126104
000380 49 dd 45 c3 10 ce d4 bf 36 5c c8 36 bc ec d7 bf
       -0.32507723874683286 -0.3738241705881963
000390 00 00 00 c0 97 54 e5 bf 00 00 00 a0 a3 d1 ca 3f
       -0.6665762662887573 0.20952267944812775
0003a0 06 fb 89 7a a3 27 da 3f 24 ff 5a 63 4f 15 c8 bf
       0.408669347445468 -0.18815033294048888
0003b0 23 26 9c 6c c0 69 b3 3f 4b fd 08 a8 91 87 a2 bf
       0.07583239223108555 -0.03619055916032695
0003c0 1b 6f 83 69 7a f7 b8 3f 02 74 29 0a 33 f7 d9 3f
       0.09752621723185621 0.4057128524053156
0003d0 1a 45 10 a1 44 48 d7 bf 27 36 bc 5b d2 52 cc bf
       -0.3637858937155031 -0.2212775180745876
0003e0 74 f2 71 3f b6 ff df bf c3 cd 0c 1f b3 0a a2 bf
       -0.49998241611300576 -0.03523788217571735
0003f0 7e 6c 6a 55 e0 e8 e2 bf de 35 07 25 42 41 e3 bf
       -0.5909272831226102 -0.6017161105352746
000400 11 69 7f bf ae 1a e3 bf 90 d6 5f 60 dc 3e d0 3f
       -0.5970071544827836 0.2538367215305266
000410 6d 00 53 8c c1 5c e3 3f 38 c5 a3 24 08 9e dc 3f
       0.6050727596957707 0.4471454961595387
000420 02 b1 4f f5 e8 c8 d0 3f cc 24 22 fc 47 51 d1 3f
       0.2622625728242981 0.2705860101928692
000430 6b 11 c4 2e dd eb af bf 00 81 1e b6 07 8e e5 bf
       -0.062346374472357656 -0.6735876614584697
000440 b8 df 0c bc fe 0c de 3f 3d 6e 45 98 79 12 e5 bf
       0.4695431553295708 -0.6585052465483795
000450 8a 52 01 51 86 76 e4 3f e2 1d 5a 3d fb 07 db bf
       0.6394683439380782 -0.4223621462956243
000460 5d 64 c0 ee 28 62 c7 bf ef 55 82 7c 95 b5 e2 3f
       -0.1826831022051775 0.5846660072153876
000470 49 53 fc 9c ba c3 ba bf be 11 3d aa c6 77 e2 3f
       -0.10454908688218469 0.5771210980388373
000480 56 d4 a2 d4 fe 10 94 bf 7c d9 d4 e5 65 b6 dd 3f
       -0.01959608242824048 0.464257692761201
000490 3e 3b 78 35 f0 91 e1 3f 2f f2 c1 fc fa 5b 87 bf
       0.5490647358254603 -0.011405907476949554
0004a0 cb fe 11 71 54 42 e2 3f 11 e9 93 d8 74 cc e3 3f
       0.5705969055561239 0.6187080602678937
0004b0 d4 21 d3 80 c6 fb df 3f 39 6b 18 de c9 80 e6 3f
       0.4997421510747959 0.7032212579536924
0004c0 4a 69 70 8b 7a 59 b3 bf fa c8 cf 13 b1 7a d7 bf
       -0.07558408645892203 -0.36686350760204756
0004d0 79 3f c7 fc a7 94 e0 3f ed 6e 36 c6 36 a0 c3 bf
       0.5181465088917171 -0.15332684210158423
0004e0 48 12 bf 16 4d 51 ce 3f d4 d5 c4 94 70 08 87 3f
       0.2368561135355256 0.011246566333833842
0004f0 ed 6a db 54 6a ea e5 3f 41 c2 29 b0 c7 c5 c5 3f
       0.6848651559224358 0.170098267571591
000500 e1 78 9b d7 66 50 a8 bf f4 47 22 2e 7b 2d ac bf
       -0.0474884164993783 -0.055034493810253965
000510 30 cf 1a 0f 62 0d d8 3f 51 89 46 5c fc 8b c2 3f
       0.37581683611937233 0.14489702706948518
000520 27 85 25 e8 68 37 cb bf f0 9a 83 fc 1a 86 e1 bf
       -0.21262847266465565 -0.5476202899852449
000530 25 a2 6a 1c 69 b3 de 3f f6 b2 5b 63 86 a4 d0 bf
       0.4797003533845177 -0.26004180624913376
000540 ad 1f 31 6b 65 33 b4 3f 1d 3a f2 6d ce 3c e3 3f
       0.07890924326886646 0.6011726519953445
000550 d3 10 43 77 33 68 e0 bf 19 a7 9e e9 64 da d6 bf
       -0.5127198533378085 -0.3570797234957453
000560 a2 e9 36 40 89 54 d8 bf 3e 70 f5 bf 88 fd d1 3f
       -0.38015967627475267 0.28109949823351943
000570 04 59 7c b6 09 b8 c5 3f b7 28 23 b1 68 4b d4 bf
       0.16967889223514743 -0.3171025972229801
000580 8c d1 1a 20 5d 0a ae 3f 82 61 94 ce ab 02 e5 3f
       0.058672819298780515 0.6565760645635665
000590 9c 6d aa a5 89 62 d4 3f 3a 76 3c 20 ff da d3 3f
       0.31851426294607577 0.3102414908224521
0005a0 ee e6 a6 13 0a 59 e1 3f 7d 6a 46 ec 2e ac df 3f
       0.5421190627887122 0.4948842341779381
0005b0 fc db 8c cd 11 03 e5 3f f6 f9 fa 44 09 9c b1 3f
       0.6566247000363314 0.06878717359629846
0005c0 0d d5 ea 2f 3e be e2 3f be 10 3c 3d be d6 e3 bf
       0.58572301253176 -0.619963759993446
0005d0 49 06 dd 07 03 2a e2 3f 60 fb 89 40 c7 72 da 3f
       0.5676283982831559 0.41325551321636134
0005e0 5f 3e ca e8 31 76 e2 bf 89 40 66 98 42 77 e5 3f
       -0.5769280955009427 0.670808122305986
0005f0 d0 9e 0d cd 34 62 e3 3f 67 fd 76 3d cd 46 c6 bf
       0.6057380680985833 -0.17403569699488772
000600 00 00 00 20 f7 43 cf bf 00 00 00 c0 aa 5e bf 3f
       -0.24426163733005524 0.1225382536649704
000610 fa 04 31 66 6c 7e d2 bf d5 40 98 f3 3e 8c d1 bf
       -0.28896627406727726 -0.274184930692184
000620 00 00 00 a0 a9 e9 e3 bf 00 00 00 a0 d7 bf d7 bf
       -0.6222732663154602 -0.3710841238498688
000630 d9 b7 6a c8 75 bd 9a bf ea 9a ba 72 74 94 d6 bf
       -0.026113357884859887 -0.3528109665298148
000640 00 00 00 00 8c 59 dd bf 00 00 00 80 5a 80 de 3f
       -0.4585905075073242 0.4765840768814087
000650 e6 f3 c2 9c 7d a9 e0 bf ad e7 97 aa e8 7f e3 bf
       -0.5206897794483865 -0.6093638736631327
000660 00 00 00 e0 33 38 c0 bf 00 00 00 a0 a1 2c c8 3f
       -0.12671516835689545 0.18886204063892365
000670 35 a1 68 19 f7 c5 e5 bf 04 93 b8 3d 79 5b d5 bf
       -0.6804156776679863 -0.33370810534897566
000680 00 00 00 80 2d 9a e3 bf 00 00 00 20 89 50 be bf
       -0.6125705242156982 -0.11841637641191483
000690 66 29 00 b9 d1 92 c1 3f e2 3b f7 c1 b9 e4 b7 bf
       0.13729306729539842 -0.09333382592670561
0006a0 1b 88 8e 14 1d 99 c4 3f 60 61 b7 53 41 36 cb 3f
       0.1609226560950113 0.2125932368060246
0006b0 d7 bb e5 78 a2 26 c2 3f 35 4f b4 d7 b9 f4 c1 3f
       0.14180403617089496 0.14028094322622456
0006c0 b0 ce 4c e7 6d 1f b4 3f 3b d7 56 73 62 9a e1 bf
       0.0786045732209526 -0.5500957730025456
0006d0 f0 a4 31 0c 26 99 73 bf 40 f9 92 7a 8a e3 ce bf
       -0.0047847257838864315 -0.24131899819435354
0006e0 b4 57 39 b8 40 2e 90 3f 36 a5 85 49 23 23 e1 3f
       0.01580144047178296 0.5355392871835309
0006f0 a4 df c6 32 44 5e d5 bf b7 7e 8f a4 a0 89 b8 3f
       -0.33387856444050557 0.09585002915946005
000700 00 00 00 20 40 80 d1 bf 00 00 00 a0 d6 a8 c4 bf
       -0.2734527885913849 -0.16140253841876984
000710 9e 99 43 36 4b bf c1 bf 12 dd 44 65 ff 62 e0 3f
       -0.13865032338726463 0.5120846727285502
000720 ed 07 16 00 0e 39 e0 bf 81 04 06 20 ff 60 d5 3f
       -0.5069646836930112 0.33404520156188516
000730 d9 1a fc 55 c0 36 dc 3f 21 ad a7 2a cc 75 dd 3f
       0.44084175488425853 0.4603147903969376
000740 a0 1b fd 8f 2a 1a c7 3f ce 45 1d e6 bb 94 e6 bf
       0.18048603087137582 -0.705656003419955
000750 c5 56 65 39 4d 00 c9 bf a0 60 24 cd fb e3 9b 3f
       -0.19532170584232325 0.02723687591159829
000760 a6 41 61 fc ed 8e df bf b7 47 65 8c 92 2c ce bf
       -0.49309873243785274 -0.23573524337058213
000770 bf 5c f3 f8 04 6a e6 3f 6e 72 1f aa 5f ae b1 3f
       0.7004418241803235 0.06906698134793895
000780 15 db 2b a4 9d 6b d0 3f ba 00 7b 54 04 e5 ca bf
       0.2565683463321176 -0.2101140415670722
000790 4a 07 2e c3 21 21 d1 3f 53 96 26 ba 28 6d e5 bf
       0.267647209744713 -0.6695750842815847
0007a0 de 88 b9 50 61 be c4 3f 2b 73 9f e3 5f 24 cb bf
       0.16205994073522495 -0.21204756369015718
0007b0 a1 4b bb 59 4c cd c3 3f 78 01 06 cb 70 eb d3 3f
       0.15470270520617382 0.31124515367994077
0007c0 00 00 00 40 2d 51 da bf 00 00 00 e0 36 ea c1 3f
       -0.41120463609695435 0.1399601548910141
0007d0 70 27 c4 a3 1c 98 e2 bf 27 c7 f5 96 df fb e2 bf
       -0.5810683439787976 -0.5932462643088215
0007e0 65 14 1a 4c 97 e1 d8 3f 8a 94 b0 90 6a 06 be 3f
       0.3887689822370873 0.11728540451493266
0007f0 c5 2b 8f 52 9e c2 e5 bf 1d 41 1c 9d a1 5c e0 bf
       -0.6800071346746043 -0.5113075321733366

linear1.bias f8 [128]
000000 c5 a9 52 31 7a 7c de 3f 26 c9 bd 0c 9b c3 d0 bf
       0.4763474923771834 -0.2619388222148181
000010 7c 64 8c 95 08 51 d5 3f 4c 44 fb 34 69 4b c0 bf
       0.33307089428269143 -0.1273013600062164
000020 bb 43 d5 7d ed 67 e2 3f af ec 1c b6 d1 37 dd bf
       0.5751864869763418 -0.4565319326827177
000030 83 a7 03 89 07 c7 c9 bf c7 8f 25 6e 83 50 a2 bf
       -0.20138639631414543 -0.03577051848949924
000040 00 00 00 20 c6 ef d8 bf d2 1b 4e 67 18 8e c5 3f
       -0.3896346390247345 0.16839890522189066
000050 00 00 00 a0 95 b1 e4 bf a8 fd f2 ad dc e7 e5 3f
       -0.6466777920722961 0.6845534703679066
000060 e9 c1 7c 60 be 57 d1 3f df ee 3c ae 4c dd d9 bf
       0.27098044798461146 -0.404132051615063
000070 33 82 9f 1d 9b 68 c4 bf 59 23 de 3e b9 67 e3 bf
       -0.15944231935920214 -0.6064115741620341
000080 00 00 00 00 f0 26 e6 bf ce 61 e2 09 ee 67 aa bf
       -0.6922531127929688 -0.051574171740131555
000090 00 00 00 00 ab a5 db bf 43 c3 c3 67 33 ea dd bf
       -0.43198657035827637 -0.46741948254844007
0000a0 50 79 50 ea 72 58 e2 3f 13 82 f8 78 9f 02 da bf
       0.5732969833805246 -0.4064100915293533
0000b0 00 00 00 c0 85 6e d9 bf 81 24 98 c5 59 a9 e3 3f
       -0.39737075567245483 0.6144226893676575
0000c0 4e d3 37 8e 2f d9 e1 3f fe 74 4b 51 9f 6b e4 bf
       0.55776193406073 -0.6381374919689333
0000d0 97 a1 c5 22 31 9e d7 3f dc 6b 43 40 3c 2c bd bf
       0.36903026958182167 -0.11395622795991706
0000e0 77 d9 4d 3d 58 d0 d5 3f 5d 6f 9e 5d 1f 3b cb bf
       0.3408413504288527 -0.2127417761920424
0000f0 0a 1f e3 49 f8 82 b9 3f 70 86 ee 03 ab cf da bf
       0.09965469173323185 -0.4189250505824935
000100 a1 37 74 52 0d d4 97 3f 62 b1 29 2c 0f 4c db bf
       0.02326985183486097 -0.4265172892835577
000110 14 58 c7 87 c3 1b d1 3f 1c 7e 1d 88 26 df d9 3f
       0.2673195672954318 0.4042450265169195
000120 20 6c 82 f0 af dc 8d 3f 3c 9e b3 51 bd cd d1 bf
       0.014581083800569827 -0.2781823442332756
000130 a0 4c 67 ac 23 12 e1 bf 3a 2b 2d b0 0d 74 83 3f
       -0.5334642760521042 0.009498698176363275
000140 2c 89 36 fe fb 7c e4 bf b8 ef dc 12 cb b8 c9 3f
       -0.6402568783853773 0.20095194264456295
000150 92 e8 fc 33 96 e1 e0 3f e2 27 f3 a0 d5 dc 8a bf
       0.5275374427212844 -0.013116520857142381
000160 0a d5 10 be 24 bd c8 3f ec 36 19 9e bf 0d cc 3f
       0.19327220230631098 0.21916957111027757
000170 27 ab ee a4 ef b4 d8 bf c8 10 da 3b 3a c6 e5 3f
       -0.3860434637705787 0.6804476899128753
000180 1b a8 cb 90 4e ba ca bf e0 9a 59 e0 1a cd cf bf
       -0.20881063528150964 -0.2484468074282722
000190 00 00 00 40 9f 19 e4 bf 17 25 cb 5a 7e e6 c9 bf
       -0.6281276941299438 -0.20234660561826764
0001a0 99 59 72 aa 81 a0 c9 bf 76 9f 8f e0 ea 66 be 3f
       -0.20021076986877231 0.11875789625594088
0001b0 64 49 6b 0d 67 34 e1 3f 31 f6 18 20 4b 27 d9 3f
       0.5376467954722952 0.3930232823803151
0001c0 9b b1 4c af 7f da e1 bf 00 00 00 80 45 43 d9 bf
       -0.5579222129650135 -0.39473092555999756
0001d0 cc 2f 10 47 99 fa d3 bf b6 1a da 92 94 6d cc bf
       -0.31217033328789223 -0.22209412737375595
0001e0 00 be b4 78 3d 82 c5 3f 1a e9 c5 40 f1 4c c6 bf
       0.1680371131310352 -0.17422309553860132
0001f0 1d ce 1e c0 f1 12 b7 3f c9 52 14 1c 4f 0e cd bf
       0.09013281765401655 -0.22699917670310857
000200 71 8d c3 39 d3 d6 cc 3f 58 5b 48 ad e2 79 db bf
       0.22530594177724653 -0.4293142978871649
000210 f9 22 74 a0 42 2e d0 3f f1 f4 d2 f5 7f c1 b4 3f
       0.2528235022478352 0.08107757331432076
000220 c0 b9 87 ce c8 29 e6 bf 2d c0 c1 7f 17 f1 cf bf
       -0.692600634936575 -0.2495450376331986
000230 b5 be bc fb e0 5e e1 3f c8 a9 12 5b 80 90 dc 3f
       0.5428318897956702 0.44631966489637565
000240 aa 4a 72 68 f7 24 dd 3f 00 b7 e8 53 c7 38 b5 3f
       0.45538125228737647 0.08289762304840664
000250 80 51 03 9f 2b eb e3 bf d6 83 35 85 0e bc e2 3f
       -0.6224573236200257 0.5854561425913924
000260 4d a2 8d e9 48 b0 cb bf bd d9 e8 42 19 8a e4 3f
       -0.21631728557555832 0.6418577486827456
000270 cf 78 e7 12 d1 94 e2 3f f3 73 37 2b 67 3b e3 3f
       0.5806661004278569 0.6010013431620095
000280 6b dc 9c 35 a1 5a d0 3f ef 87 0a 09 0c 02 ca bf
       0.25553159938448883 -0.20318746987783196
000290 0c 26 f1 24 57 c7 e1 bf 37 16 b8 70 f1 69 e1 bf
       -0.5555835458300762 -0.5441825105232913
0002a0 6f 46 59 20 ec ff e3 3f 9e c6 df fa d6 a0 d7 3f
       0.6249905235110428 0.3691918802206632
0002b0 27 b6 b6 95 78 8f 96 bf 17 91 2e 8a fb 4c e4 3f
       -0.022031673562812906 0.6343972872605573
0002c0 4b 8a 73 ed 3b d3 c1 bf 71 c2 12 8f 45 c6 d4 3f
       -0.13925885290435 0.324601545066833
0002d0 59 9f e1 ea c3 98 b3 3f 3d 45 c3 fc 29 5d c8 bf
       0.07654976353080424 -0.19034314004833588
0002e0 bd 49 02 6d 44 f7 c6 bf 64 8b 39 e3 36 f3 d9 3f
       -0.1794209987898067 0.4054696291915916
0002f0 3f de 64 9c 05 f8 c9 bf aa b7 2c a6 fd e2 c9 bf
       -0.20288152824808667 -0.2022397099876206
000300 00 00 00 40 6c 7c d8 bf 36 99 45 5d 70 02 d8 bf
       -0.38259416818618774 -0.3751488600595566
000310 00 00 00 c0 a3 aa e4 bf 97 ee 2d d8 33 5e c9 bf
       -0.6458300352096558 -0.19818733268390495
000320 00 00 00 60 f2 86 e2 bf 43 60 fe d5 de 42 dc 3f
       -0.5789729952812195 0.4415814485341835
000330 00 00 00 e0 71 93 e5 bf c3 a8 ca bd e3 0a e2 3f
       -0.6742486357688904 0.5638292986743852
000340 00 00 00 40 c0 3a e0 bf e4 30 72 3b 64 2f e2 bf
       -0.5071717500686646 -0.5682850991302328
000350 a4 0e 22 e4 eb 13 e6 bf 49 10 75 3d b4 2f d7 3f
       -0.6899318176005704 0.3622866249245403
000360 f0 f9 4d a4 89 f8 e3 3f c0 68 fa 39 32 27 d6 3f
       0.6240890702318307 0.3461423460190751
000370 61 e9 e0 2e f7 16 d5 3f 8b b4 a1 90 94 80 e2 3f
       0.3295267064856003 0.5781958412968761
000380 00 00 00 00 bf 55 d9 bf 88 48 8b b2 57 d4 bd 3f
       -0.3958585262298584 0.11652134045587748
000390 fa c5 28 9d 40 91 be bf 64 2f d2 25 d5 4a bd 3f
       -0.11940387570282232 0.11442310498585823
0003a0 ec 8b f8 35 0b 21 cd bf 7b 04 e6 33 74 2b e4 3f
       -0.22757091651246186 0.6303044332163518
0003b0 32 c1 b7 24 bd a3 c5 3f cd 64 af 2d db ac c5 3f
       0.16905941288815424 0.16933765154570893
0003c0 02 8f b4 b8 e5 9b b8 3f 36 7c 02 e8 b3 48 e4 bf
       0.09612880477339661 -0.6338748485030752
0003d0 b4 6b 4a a9 db a3 da 3f 72 95 b8 5f a9 8e b4 3f
       0.41625110180182934 0.08030184351863115
0003e0 00 00 00 a0 6c 38 d7 bf 85 10 a8 27 8c 3a b8 bf
       -0.3628188669681549 -0.09464336364914246
0003f0 35 5f 6a 80 8e 10 b4 3f d0 dc ab a9 48 71 de 3f
       0.07837763438362517 0.47566429681269273

linear2.weight f8 [128, 2]
000000 79 a5 ef 80 5e 30 a1 bf 8e 70 bb 8d 24 b4 c7 bf
       -0.03357215236594419 -0.1851850215961161
000010 61 f9 55 2d 88 30 d7 bf f7 14 89 8d fd 8d e1 bf
       -0.36233715464904576 -0.5485828174938935
000020 a7 57 03 26 b7 92 d2 bf e3 8a 4e 0d 58 0c b3 3f
       -0.290204798814893 0.07440710377572261
000030 94 a7 b8 82 eb dc d4 3f 5a 57 ae f0 33 c8 d7 bf
       0.3259838844847931 -0.37159441474920174
000040 00 00 00 20 3a c6 cd bf 00 00 00 a0 5d ed ca 3f
       -0.23261190950870514 0.2103688269853592
000050 0b fb f3 89 33 a4 df 3f 31 3e 31 3d 05 d0 e2 bf
       0.4943970534513233 -0.5878931231654346
000060 f7 b9 ef c7 3d 4d a7 3f 2d 05 61 84 93 19 77 bf
       0.0455111795962359 -0.005639625776951801
000070 6f e1 43 85 fa b5 ca bf 29 d4 11 64 5a 11 e3 bf
       -0.208678546019438 -0.5958682970509744
000080 cf bd 5f bf e5 5a cc bf 57 77 76 86 3f cc db 3f
       -0.22152397007401567 0.4343413174736858
000090 aa 70 54 a5 5a 04 e5 3f 42 a8 14 8f e2 6b e2 bf
       0.6567815045450704 -0.5756695551438116
0000a0 55 0c ff f3 3a eb cf 3f 50 34 81 ca c1 40 e2 3f
       0.24936615861779168 0.5704049067659387
0000b0 4f f2 2d 68 cd 5f e6 bf e8 a9 74 38 27 b5 e1 3f
       -0.6991946253543321 0.5533634283686384
0000c0 27 99 84 7d 93 1a b8 bf 17 9e 29 df f6 fe e5 3f
       -0.09415551962283485 0.6873735769885937
0000d0 28 dc 00 3d 54 6d d8 3f 26 cb 1b f7 be 36 e4 bf
       0.3816729160057002 -0.6316828562106351
0000e0 6d 66 c2 f9 b6 33 99 bf 77 c1 c0 f0 25 00 e5 3f
       -0.024611338609793188 0.6562680914121718
0000f0 4e 37 08 48 d2 e5 ba 3f 3b e9 3e c2 6b fb a9 3f
       0.10506929644199411 0.050746314489020304
000100 db 3a ea a7 cf 26 e3 3f 5d e3 51 ec 44 cc ce bf
       0.5984876899327348 -0.2406088022142069
000110 12 77 72 8c 59 1b d6 3f d5 75 9b 15 a1 3d c6 3f
       0.34541929927387216 0.1737557750229103
000120 1e be 1b 38 8f 58 e3 bf 15 ec 3f e3 5d 56 9e 3f
       -0.6045604797236057 0.02962633800050803
000130 00 00 00 60 7b 5d e0 bf 00 00 00 c0 6e 6e d9 bf
       -0.5114113688468933 -0.3973652720451355
000140 6d 5b 1f 61 13 a5 d7 3f a8 d0 3b d9 48 77 e4 3f
       0.36945042118661925 0.6395611040920999
000150 00 00 00 a0 50 02 db bf 00 00 00 e0 fb 45 c3 3f
       -0.42201629281044006 0.1505732387304306
000160 b2 b2 b8 ea 56 66 93 bf d9 97 e2 16 0c f5 e5 bf
       -0.018945081783544544 -0.6861629912352739
000170 27 a4 62 a8 ba bc b7 3f 83 c7 d6 9f 99 8d d2 bf
       0.09272352801294002 -0.2898925839355046
000180 5a ef 62 91 78 a9 da 3f 3d a3 14 93 ba 8b 9c 3f
       0.4165936870374388 0.027876773097122543
000190 68 2e 2c 8f ff f5 e0 bf bb 28 50 b3 8a 7d e5 bf
       -0.5300290867175592 -0.671574926587048
0001a0 b1 1d 46 cd 38 32 db 3f 54 70 64 5e cb 6e e4 bf
       0.42494030042913794 -0.6385247081375476
0001b0 00 00 00 00 76 70 dc bf 00 00 00 a0 09 ef d3 3f
       -0.444364070892334 0.31146469712257385
0001c0 ba af b6 7e bb 32 cf bf d1 41 58 9a 4f db e0 3f
       -0.24373573004902288 0.5267713560625059
0001d0 2c b5 e2 fa 2f 76 b2 bf db 65 21 1e b5 7f e1 bf
       -0.07211589694152981 -0.5468392933354908
0001e0 00 00 00 00 1f 75 b8 bf 00 00 00 a0 d4 bc b4 3f
       -0.09553712606430054 0.08100632578134537
0001f0 36 20 cf f8 7c 87 e4 3f f2 0d 0e 69 6e 92 c3 bf
       0.6415390834381529 -0.1529062283481007
000200 d9 a8 ed 6e 8a d7 e4 bf 15 2e eb 27 a4 e3 b7 bf
       -0.6513111273354993 -0.09331727957322074
000210 f1 c7 d2 24 85 70 e6 3f 3a 42 bd 22 25 18 af bf
       0.7012353629309002 -0.06073108719886418
000220 e5 74 8a 09 f5 db ca bf d4 b2 f2 77 09 5c ca 3f
       -0.20983756032811765 0.20593374592626523
000230 f3 a6 eb 6c ab 96 ba bf de ae 71 46 c3 80 da 3f
       -0.10386153611366548 0.41410905722908165
000240 b5 60 2d ee 31 12 b4 3f 9f b7 56 6f 8f b1 d3 bf
       0.07840263428568302 -0.3077124202053429
000250 bf bb 6e c8 c0 af c7 bf 36 03 27 d5 c9 61 e2 3f
       -0.18505105768914906 0.5744370616085692
000260 c1 bb 02 fd 95 22 8b bf af 73 10 63 75 35 76 3f
       -0.013249561103604425 0.0054220757893092405
000270 6b 17 fe 7f 4d fa d7 bf 34 b8 ff 7f 49 9a c4 3f
       -0.3746522664954372 0.16095846891352183
000280 67 f1 ef 46 57 d8 b0 bf 81 92 a9 93 ed a4 e3 3f
       -0.06580110055796738 0.6138828166991318
000290 ff 5f 49 b7 c9 fd e4 3f 33 0b 96 ca b8 48 d1 bf
       0.6559799747292344 -0.27006358894157073
0002a0 6d 37 c4 62 b6 50 b2 bf 31 aa 4c 45 9d d9 d0 3f
       -0.07154407416621007 0.26328212516333155
0002b0 be fe 67 f3 7b 68 d1 3f 27 aa d9 a1 a5 d8 a5 3f
       0.27200220842494705 0.04266851044379321
0002c0 0f af 93 93 4d 60 d2 bf 48 c5 37 97 1b 49 e4 bf
       -0.2871278706722799 -0.6339242890809738
0002d0 69 8f 2c c1 4a db a3 3f 1c 11 70 cb 8d bd c7 3f
       0.03878244026262118 0.18547222550854137
0002e0 5b 10 be ad dd d4 8d bf 88 fe e1 aa 8b 15 dd bf
       -0.014566165795038602 -0.45444003761074514
0002f0 c6 a0 50 9b c0 ce ca 3f 76 47 a7 db 4c 44 e3 bf
       0.2094345816015048 -0.6020874300104271
000300 a6 12 00 6e 59 a9 ca 3f 28 8c 4e df 90 6c e0 3f
       0.20829313155276913 0.5132526742421577
000310 5f 6e 51 fb 9c 36 e8 3f 53 c7 86 22 1d 8e e2 bf
       0.7566666515881016 -0.5798478769631664
000320 c7 7b d0 94 f5 b5 d4 bf fd 27 61 b0 e7 4f e6 bf
       -0.3236059144273295 -0.6972540326034956
000330 00 00 00 a0 23 eb d4 bf 00 00 00 00 0b 3f e0 3f
       -0.3268517553806305 0.5076956748962402
000340 a8 79 03 8a 86 a4 e3 bf 11 4b c0 a7 40 4c c7 bf
       -0.6138336844995154 -0.18201454344724557
000350 6c 79 ad e7 1d 99 c1 3f 71 11 a8 f0 6d 08 a9 bf
       0.13748525440582726 -0.048892436625496034
000360 dc dc 8f ae d0 c9 e1 3f 1a c3 50 7d 45 59 ce 3f
       0.5558856400884014 0.23709934824867035
000370 85 c2 8a 10 8b 32 d2 3f 83 82 a3 5a af c1 e0 bf
       0.2843349134009617 -0.5236431856429394
000380 24 92 53 7a d6 e2 dc 3f 01 64 a2 00 47 84 d7 3f
       0.45134508081381086 0.3674485689348899
000390 34 30 41 05 cd 39 b5 3f b7 31 4d f6 1c 00 b1 3f
       0.08291322115218308 0.06640797627659976
0003a0 f7 0e f5 8b bd 34 d4 bf 38 99 f9 b0 9c 60 e4 3f
       -0.31571901958180554 0.6367934662382941
0003b0 be da 16 01 62 e6 bb 3f d0 f9 d1 fc a5 86 e5 bf
       0.10898411299317964 -0.6726865709204564
0003c0 56 90 b7 4a 87 34 d9 bf 21 d6 5f 8f c6 87 c2 3f
       -0.3938310842188505 0.1447685432500956
0003d0 a5 9b 5a eb fd d5 a1 bf bf a8 cd 4d 7d 0a e3 3f
       -0.03483575342152471 0.5950304526898192
0003e0 d7 3d 72 35 b5 59 dd 3f c9 1e 8e 67 6d 49 d7 bf
       0.4586003324447722 -0.36385665047462773
0003f0 63 66 eb c3 f1 41 d8 3f 8e 93 9b 29 2c b2 ce 3f
       0.37902492649809555 0.2398123934900948
000400 a4 ab 66 52 91 41 e3 bf 27 5c 68 88 81 89 e5 3f
       -0.6017538651843677 0.6730353988849672
000410 55 07 48 73 df 3d e4 3f e4 6b 8a 2e f7 cf e1 3f
       0.6325528384770488 0.5566364201544016
000420 00 00 00 40 5a 64 e4 bf 00 00 00 c0 7d f4 c8 bf
       -0.6372500658035278 -0.194961279630661
000430 85 25 97 e9 47 22 cd bf 80 dd 9d b9 f8 b5 e4 bf
       -0.22760867028982204 -0.6472133279157077
000440 e2 aa 37 b2 d8 b0 c8 bf 98 e3 56 44 81 be d9 3f
       -0.19289692594551072 0.40225249933023965
000450 65 0b 70 fe 3e 6b ce bf 2b 97 dc 88 07 48 da bf
       -0.2376478903171019 -0.4106463276424274
000460 7e 02 ba 8f ee 04 e5 bf ab f1 07 0a a1 c5 d2 bf
       -0.6568520362053076 -0.29331232051461126
000470 ff 2a 63 7a bc d5 da 3f 48 e1 f9 0f 40 f9 e4 3f
       0.4192954249562461 0.6554260551484186
000480 65 08 14 84 66 cf cc bf 7d 66 2c 02 46 45 d0 bf
       -0.22507935952313854 -0.25422811710595977
000490 ca 2d c0 9d a9 c3 c6 3f 46 f7 2a 81 79 46 e2 3f
       0.1778461475627025 0.571102859764985
0004a0 65 6e dd 7a 4c ab d5 bf 33 d7 1c 7c ea f2 9b bf
       -0.33858024595767794 -0.027293838334308162
0004b0 24 f7 e2 ff a9 e7 e0 bf 00 98 7e 58 0a 3f e2 bf
       -0.52827930429314 -0.5701953628929459
0004c0 4c 3f 45 6a f1 f4 d2 bf dd 09 4e 7d 40 4f d0 bf
       -0.2962001359746764 -0.25483715283203684
0004d0 e4 3e c4 b1 98 e9 c7 3f d4 d8 e1 01 d9 bc 9a 3f
       0.18681629829415336 0.026111021747475885
0004e0 90 98 29 2c d3 05 e7 3f 62 e6 a1 7d 09 de e1 bf
       0.7194610464619178 -0.5583541349180445
0004f0 bd 83 be b3 b4 80 c3 bf e6 25 99 7c bf 2c d9 bf
       -0.1523652913720336 -0.393356200864757
000500 84 ae 28 95 ff 0c d2 bf 2b 36 86 8a 80 2d df bf
       -0.2820433575277337 -0.48715222862014923
000510 00 00 00 c0 33 16 c4 bf 00 00 00 80 25 4f b6 bf
       -0.15692755579948425 -0.08714517951011658
000520 26 aa b4 7d 28 39 cb 3f 67 1d 50 6e 22 77 e1 bf
       0.21268182886099501 -0.5457927851247576
000530 4e 14 e5 b9 f5 f0 e0 3f 41 57 81 4f 48 c6 e6 3f
       0.5294140463598838 0.7117044022404359
000540 b3 21 27 0b 55 9f cf 3f ab d9 4c 41 af 3e dc 3f
       0.247049932904941 0.44132596375438976
000550 f7 18 00 20 75 3b e3 bf 99 15 00 00 86 c5 d6 3f
       -0.6010079979903641 0.35580587387115653
000560 ba 9b 00 8c 66 95 e5 3f 51 0c 76 f2 15 30 e4 3f
       0.6744873747273836 0.6308698401993614
000570 50 49 fd 1e 9a e2 9a bf 84 a7 40 d2 c8 63 da bf
       -0.026255043164675584 -0.41234035999752217
000580 7a 36 c4 60 40 eb e4 3f 45 e3 88 03 6f c7 b8 bf
       0.6537172212571953 -0.0967931159619982
000590 df 12 40 d0 e5 58 d7 bf 89 1b 76 f6 b6 3b e6 3f
       -0.3648008855528086 0.6947893918703453
0005a0 a5 e3 56 1e bf 3f e1 bf 71 c2 47 e0 f4 b3 d1 3f
       -0.5390315620962737 0.27660867597936717
0005b0 54 20 14 85 17 e3 d2 3f 21 f3 df 38 f4 33 e1 bf
       0.29511058803519075 -0.5375920401416786
0005c0 7b ca 64 b4 75 fb d0 bf f1 c4 59 4b 75 8a e0 3f
       -0.2653478871972436 0.5169016334240536
0005d0 60 be 05 7a 30 fa df 3f ec 3e 7b 3b d9 bf b7 bf
       0.49964534679654626 -0.09277112676795313
0005e0 c4 4c 56 cf 6a 74 e1 bf a6 9b 59 ca 09 4f 89 3f
       -0.5454610871842296 0.012357784736378562
0005f0 fa e2 01 57 42 bd a7 3f 8d 16 fc 7e c8 8e e5 3f
       0.046365807648674776 0.6736795883341117
000600 0f 49 5f 19 cb b4 a0 bf 17 28 9d fe 46 0b a9 bf
       -0.032629343840783524 -0.04891416414336918
000610 40 e5 28 5d a8 c8 be bf c5 d4 c0 c6 31 98 db bf
       -0.12024929308326637 -0.4311642113637613
000620 5f f3 e6 b1 42 2a ce 3f 3a 03 94 f9 a1 70 e4 3f
       0.23566468893650502 0.6387491106580463
000630 bf aa f8 60 6b 94 d8 bf 51 54 33 4a 90 26 c2 bf
       -0.3840588042245762 -0.14180186865874814
000640 c5 0c cf 05 4f 13 c1 3f 85 cf 54 d7 a6 4e d8 3f
       0.1334017542231775 0.37980052021452365
000650 2a 13 2e 7e 8c b0 e4 bf 4c a8 91 dd e6 d0 df bf
       -0.646551367230676 -0.4971253551253809
000660 e2 8e e8 64 9a 24 b1 3f db f4 ab de d5 82 dc bf
       0.06696476901612017 -0.4454855608490342
000670 ce af 53 cc 2d a4 e4 3f 8c 07 84 a0 76 19 d0 bf
       0.6450413695106307 -0.2515541617905164
000680 6d d5 77 3e e1 dd e1 bf 0a 69 69 9d d7 93 c3 bf
       -0.5583349437789998 -0.15294928728219076
000690 6e 07 c6 d9 44 b9 c4 3f bb 8b da 6f e5 2f b4 3f
       0.1619039595935265 0.07885583859255878
0006a0 94 5a 06 49 22 72 cc 3f 74 48 04 89 be cf de 3f
       0.22223309102692623 0.48142970448055356
0006b0 b6 10 be 5f 39 79 e5 3f 12 34 0a aa ad a7 c9 bf
       0.6710478658647137 -0.200429637934946
0006c0 00 00 00 40 46 c3 e4 bf 00 00 00 80 04 14 c6 3f
       -0.6488372087478638 0.17248588800430298
0006d0 10 85 dd 6c d4 39 99 bf 70 b6 df 05 42 b2 ce bf
       -0.024634665627108865 -0.23981499945459772
0006e0 00 00 00 20 89 e8 c3 bf 00 00 00 a0 21 81 c9 3f
       -0.15553392469882965 0.19925327599048615
0006f0 a2 f5 2c de f9 2e e6 bf 02 8a 56 7f 7a 1a e6 bf
       -0.6932343806617391 -0.6907322394438895
000700 b1 ab 85 87 3f b5 dc bf 6a 3e 21 ef 84 f1 d0 bf
       -0.44856250986657203 -0.264741166615727
000710 8d 76 07 fc af 0c d0 bf 7a 3f 7f cf 55 2b de 3f
       -0.25077437984678214 0.47139497054467194
000720 8c e9 be 0b 3b e7 db 3f 17 e0 72 ce c7 d6 d1 bf
       0.4359881987290002 -0.2787341610051057
000730 00 00 00 40 c3 7b d8 bf 00 00 00 c0 4d e3 cb bf
       -0.3825538754463196 -0.21787425875663757
000740 f3 16 2a b3 95 1e e0 3f 08 c5 6b f9 95 1a da 3f
       0.5037334918312965 0.4078726707221709
000750 8a 97 1d 2d b4 d7 d5 3f dc df 86 9e 44 22 b2 3f
       0.341290515955159 0.07083538885387902
000760 78 bb ac dc f6 9c db 3f 7c c1 9c 86 86 bb c1 bf
       0.43145534086482185 -0.13853532383792444
000770 bc 88 3d 4e ba cd cb bf 79 1e ed 8f 55 5a e1 3f
       -0.21721581287699177 0.5422771273669716
000780 ce ce 0a e3 26 34 e3 bf 6c c4 db b5 01 13 de 3f
       -0.6001161989610979 0.4699100757562238
000790 df d5 06 c7 82 d6 e4 3f 34 34 25 29 d4 75 db 3f
       0.6511854064216854 0.42906669633959216
0007a0 c2 26 2e 1e e7 16 e3 3f 0c 1d c1 31 4e a0 7a bf
       0.596545752473695 -0.006500535437289356
0007b0 17 64 9d 0d 65 76 c2 3f 2a a4 3d 61 c6 fb e5 3f
       0.14423812069688388 0.6869842433199029
0007c0 5c 6f 24 09 e3 97 e0 bf e0 92 77 4e f7 73 c8 bf
       -0.518540876251318 -0.1910390027179778
0007d0 3f ac d2 1c 88 84 d1 3f 64 e6 1e 1e 35 3a e2 3f
       0.2737140923952132 0.5696054065985661
0007e0 06 de ea 4d 0c 6b d1 bf c0 5a 0e 69 ba c1 e4 3f
       -0.27215869530797965 0.6486484577061091
0007f0 00 00 00 c0 06 24 e1 bf 00 00 00 c0 86 26 cf 3f
       -0.5356477499008179 0.24336323142051697

linear2.bias f8 [128]
000000 20 ef af ea c2 da e4 3f ca 9f d9 a7 37 68 cc bf
       0.6517042716727453 -0.22193046279721634
000010 73 c2 19 ac 67 3e dd 3f 62 86 83 b1 e3 db df bf
       0.45693389708234305 -0.4977959855587867
000020 00 00 00 e0 7d b5 da bf 02 52 49 d1 09 f5 e4 3f
       -0.4173273742198944 0.6549119079232357
000030 b7 cc b4 ab 69 1d e0 bf 24 e1 84 3d 62 d8 d5 3f
       -0.5035904267919226 0.34133201606484165
000040 1a 99 79 d3 ba c8 d8 bf 75 45 1b f7 47 1f d2 bf
       -0.3872515740571473 -0.2831592476987546
000050 88 f1 2a ff 49 0d cf 3f 2b a8 06 84 76 49 d3 3f
       0.2425930496155042 0.3013588227573815
000060 00 76 bf b4 84 6c e5 bf 9a 84 c2 e4 f6 6b d0 3f
       -0.6694968729240713 0.25658962573840827
000070 c8 b4 27 b6 8a d6 be bf 6a 88 9e 63 9e 48 d9 3f
       -0.1204611487116437 0.39505729416317215
000080 83 1b 8c 1e 54 09 d2 bf 24 b9 84 cd fd 01 bc bf
       -0.28181937201627977 -0.10940538661518368
000090 5e 1f e5 76 b1 c0 e3 3f 00 00 00 00 b1 c6 c4 bf
       0.6172721216362154 -0.1623135805130005
0000a0 43 fa b0 19 ab a8 d6 3f 00 00 00 80 22 d4 de bf
       0.35404469975393144 -0.481697678565979
0000b0 40 3d e5 f0 74 2b d3 bf 40 83 2e c3 00 9b c6 bf
       -0.29952739262531125 -0.17660531549793212
0000c0 a5 b1 fa b6 a4 fa dc bf e9 ce 2d 02 3c cb d7 bf
       -0.4527980601222004 -0.37177944386279066
0000d0 5c 8a e2 a1 78 b0 d5 3f 00 00 00 60 45 58 d4 bf
       0.3388959484965761 -0.31788763403892517
0000e0 50 0f d2 ba d0 12 c4 3f d4 4a 7c 25 d9 3e dd 3f
       0.15682419893357258 0.45696095143027304
0000f0 00 00 00 a0 e8 07 e4 bf b8 4b ff 7c 5c 55 c9 3f
       -0.625965416431427 0.1979175196016436
000100 63 4d 56 54 d1 45 e6 3f 87 d6 0f 63 d3 db e1 3f
       0.6960226676186888 0.5580841955949872
000110 4d 53 64 21 bf f2 d6 3f 95 1f 85 2a 23 55 e4 bf
       0.358566076859735 -0.6353927450627334
000120 0c 51 84 c1 9a d7 e2 3f b6 a8 fc 5b 4a f2 e5 bf
       0.588818910563107 -0.685826472913752
000130 8d 6b 92 c2 bf 75 cd 3f d1 fd 1f c0 fd 89 b6 bf
       0.23015591621955558 -0.08804307880927033
000140 04 25 1e c5 a3 59 e3 3f ed 0d 83 09 46 a2 e5 bf
       0.6046923494297123 -0.6760587869434268
000150 29 4a 09 a4 b1 47 dc 3f 40 75 af 21 7a 0e d0 3f
       0.4418758489529489 0.25088361062610787
000160 70 bf 97 79 4e b6 da bf 79 00 fc 50 83 82 d5 3f
       -0.41737710832875674 0.33609087856894565
000170 74 2a 7c 10 ea d9 e0 3f 5b 9e 04 ca 4a 7c c1 3f
       0.5266008684132673 0.13660559524690793
000180 17 3b 02 76 96 ef e0 bf 4f d5 a8 f8 01 15 d7 bf
       -0.5292465500695894 -0.36065720828203934
000190 70 cb 2b 4c c6 d2 e1 3f 00 00 00 c0 48 da e5 bf
       0.5569793212620038 -0.6828960180282593
0001a0 d1 00 dc 17 fe cb e3 3f 00 ec 4d d3 a8 3b e6 bf
       0.6186514345172559 -0.6947826506651609
0001b0 89 26 06 39 ff de d3 bf 32 be 6a 02 ea eb cb 3f
       -0.31048565453293314 0.21813702695861675
0001c0 b2 28 74 c5 12 a7 d0 3f f8 bd 50 5b 6a 12 cf 3f
       0.2601973465213049 0.2427494951129885
0001d0 60 4c 71 c5 23 12 d6 bf 03 f2 57 ce c7 95 c3 3f
       -0.3448571613454927 0.15300843787544247
0001e0 04 7e e7 93 20 48 b8 3f d6 7e c2 ee d1 a1 d4 bf
       0.0948505745977784 -0.3223767120016253
0001f0 48 32 56 9b 47 06 c1 bf 4d f4 56 ce ca 53 ce 3f
       -0.133004141662598 0.2369321353452584
000200 8a ce 0b f1 b5 3f d8 3f 9c 94 da 38 ea 61 d1 bf
       0.37888859309826073 -0.2716012530530152
000210 00 00 00 a0 b3 97 dd bf 25 71 e2 01 4d 73 dc bf
       -0.4623841345310211 -0.4445374029544545
000220 c3 ed 7d 86 8e 5c c3 3f f6 5f 2a 62 6a 01 d9 bf
       0.15126210753429178 -0.3907113989494059
000230 ed 83 89 83 1e cb a9 3f 58 32 a6 04 5e 70 e3 3f
       0.050377801472457275 0.6074667063526915
000240 44 e0 e6 a4 9b 06 e0 3f 82 84 98 22 63 c9 c7 3f
       0.5008066387881702 0.1858333510327022
000250 f3 97 b7 ba a0 5a e3 3f d0 94 08 b6 a5 82 e6 3f
       0.6048129698581292 0.7034481578199578
000260 f7 70 84 84 93 8a df 3f 92 65 bd 4d 92 72 c0 bf
       0.4928330225100263 -0.12849644466295423
000270 a4 d4 50 96 a6 61 e0 3f c3 5b fc d8 90 58 c1 bf
       0.5119202552656543 -0.1355153140545707
000280 50 7a f3 71 02 a2 c1 bf 00 00 00 c0 9d 90 d0 bf
       -0.13775663913743807 -0.25882667303085327
000290 a2 c3 82 51 6d 7d c6 bf c2 5d f6 3b e9 16 e2 bf
       -0.17570272903460898 -0.5652967616214755
0002a0 bd 69 0d b0 9c e2 cb bf 77 82 2a 20 f4 b3 b6 bf
       -0.21785315128620467 -0.08868337426475557
0002b0 56 16 51 3e 36 fa e1 bf ab e4 dd be 31 6d a2 bf
       -0.5617934434055296 -0.035989336537519755
0002c0 e0 7a ab 6d 52 36 de bf 1c 76 d3 83 79 dd e3 bf
       -0.4720655508989875 -0.620785481903741
0002d0 c4 0d 28 b7 fc f3 da 3f 48 ab 2c 15 36 31 b2 3f
       0.4211417950284295 0.07106340424495017
0002e0 e7 c1 c9 11 b6 c0 d1 3f 01 13 8d 21 1e 4b de 3f
       0.2773871587478695 0.4733348205229931
0002f0 bf 36 0f 51 4f 05 cb 3f 83 74 ee 8a 4a 51 b6 3f
       0.21109954317073762 0.08717790500527837
000300 ee fd 0a b8 07 a3 e5 3f a7 b3 96 f0 6a 33 e7 3f
       0.6761511416042916 0.725026578807605
000310 fe 65 36 1f 04 94 d9 bf 19 97 d1 72 5d 7e da 3f
       -0.39965918586821647 0.41396270954861475
000320 5d 05 7f 64 d9 ad dc 3f 29 c9 e0 09 39 96 b2 bf
       0.448110912457272 -0.07260471812404447
000330 53 62 7c 5b 00 90 d6 bf 5d ab 77 fc af d6 e2 bf
       -0.35253914770286093 -0.5887069636349725
000340 b8 27 34 02 a3 6d e6 3f 0b 2b 89 10 54 48 ad 3f
       0.7008833926240561 0.05719244672635256
000350 17 20 53 7c 4c d1 a8 bf 32 24 44 13 3f 64 d7 3f
       -0.048471822906833655 0.36549355393850924
000360 00 00 00 00 ee e1 c8 bf 7f 50 9d f7 d7 36 e3 bf
       -0.19439482688903809 -0.6004447780819787
000370 00 00 00 80 a1 2a ce bf 09 9e 86 16 ee c5 b1 bf
       -0.23567599058151245 -0.06942642259547695
000380 9c 7d 93 a0 70 e2 e4 3f 25 ae 3b 19 94 5f dd 3f
       0.6526415954830784 0.4589586492936369
000390 2b d3 ea fb 29 55 d4 bf 00 00 00 60 4a 91 d2 bf
       -0.3176979980592473 -0.2901178300380707
0003a0 ec 1f 6c 44 30 ff c3 bf f9 b3 40 ae 10 85 e0 3f
       -0.15622523632941865 0.5162433055280636
0003b0 16 59 3c 6e d0 5a e3 bf c4 05 6e 69 cc 8b 6e bf
       -0.6048357155839621 -0.003728770486703255
0003c0 07 0b 83 f3 05 d8 d1 3f 21 8f b5 c7 bc df b3 3f
       0.27881001263101307 0.0776327121325804
0003d0 87 4f b6 5e af 47 90 bf 3b a7 cf 34 a2 8e dc bf
       -0.015898456722041068 -0.44620566518152643
0003e0 6f f3 b2 35 a0 f1 e5 3f c9 2d f3 9f be ba e2 3f
       0.6857453392800447 0.5852959751149963
0003f0 51 22 1f 19 b3 6a e1 3f 00 00 00 00 53 30 e4 bf
       0.5442748537689771 -0.6308989524841309

linear3.weight f8 [2, 16]
000000 07 8d cd 89 8a 4d 0f c0 96 a2 a1 ee 22 91 a7 3f
       -3.912861897073188 0.04602917826634216
000010 0e 7d 6d 51 6e 7f b3 3f c2 de 85 b7 af bf 11 c0
       0.07616319168072413 -4.437193744226251
000020 64 ef fa cf c4 59 10 c0 3f 41 d8 09 f2 eb 0f c0
       -4.087664842310776 -3.990207745468211
000030 a9 ac e5 04 1c 7b a0 3f 5d d5 2f ae 7e f7 73 3f
       0.03218925056247574 0.0048747013524822165
000040 c2 e4 0c 07 ad 37 12 c0 b4 b2 34 71 32 5a 10 c0
       -4.554370985185587 -4.088083046761927
000050 aa 3f 6b 68 d5 e6 0d c0 cc ef ae 07 2c 1c 11 40
       -3.7377117307405188 4.277511711170472
000060 14 e1 8b 1a e2 d7 0f c0 98 bd 7d a7 82 d5 0e 40
       -3.980411727327132 3.8542531094787584
000070 fc 47 a1 ea 0c e1 c1 bf 72 00 f3 dc 44 60 11 c0
       -0.1396804948477096 -4.344012691814088
000080 a0 d1 3d 01 80 b4 ca bf 9a b1 c0 f8 b9 d8 86 3f
       -0.20863342342967162 0.011155560401754628
000090 72 d7 5b 24 ee 8c 90 3f 1a 2b 92 c6 7e ec c3 bf
       0.016162606209909787 -0.155654761274797
0000a0 a9 b0 7a ea b2 bf 8c 3f fb 69 e5 55 c6 e5 c7 3f
       0.014037511616458014 0.18669966882846709
0000b0 f2 14 fa 1e b5 89 bc 3f 66 fb da 0f 20 49 ac 3f
       0.11147624975463424 0.05524540132090898
0000c0 3b dc df b5 cf 6a c4 3f 4f 84 60 db 04 d8 c5 bf
       0.15950962429607948 -0.17065487586754322
0000d0 5c cf 05 b5 58 1c d2 bf 28 21 95 c8 1d 82 82 bf
       -0.2829801338004836 -0.00903723972682309
0000e0 21 2b 23 82 59 38 c3 3f bd 51 82 60 0f 8b 99 bf
       0.15015715460170845 -0.024944534554906406
0000f0 f6 e0 f4 0a 9f a4 be bf af 89 e5 1c 1b 69 a5 3f
       -0.11969942109579165 0.04181751945249645

linear3.bias f8 [2]
000000 5f 1c 03 b6 5a 7a 11 40 e8 9f 3a 6f e9 ef 99 3f
       4.369486659946317 0.0253292535914226
