checkpoints/final_with.ckpt (torch, 272271 bytes, 8 tensors)

linear1.weight f8 [64, 2]
00000000: f887 8b23 91df debf a419 0843 4c23 d9bf
00000010: 7b0d 7c51 b881 cfbf d92c dbf1 6259 dbbf
00000020: a17b fb8b af67 c6bf e3c9 43d3 0944 dc3f
00000030: f8c1 0a7c 37d6 98bf e5ee 5db8 ce7c e33f
00000040: 4eff d8be 942d e4bf c16b b389 6508 bcbf
00000050: 356b 4fe5 72ac c63f bc45 9478 f68c 783f
00000060: 8a42 ce22 68b0 a03f 523d 8add 2d90 c13f
00000070: 8086 4294 9309 e4bf 99c9 7462 e7da a33f
00000080: 7ce4 eefc 60bc d8bf 5bc2 ac98 783b df3f
00000090: c351 e30c d872 e2bf 0f3a 3537 acce e3bf
000000a0: 08cc 3403 6190 e5bf 05dc adc7 2cfd e53f
000000b0: 5757 593d ed5f bcbf 461b ab07 73a4 d33f
000000c0: 66b3 ba43 98e2 e1bf 37ec 05aa a41d e5bf
000000d0: 35ad f3e9 a89f 9bbf 1eb1 dd94 51a6 bd3f
000000e0: 4743 dd35 46c7 d53f ceb5 f492 821f c0bf
000000f0: c82d 94c3 1b0a bf3f 1c0a 9202 ca8e 96bf
00000100: a67b 319c 53da ba3f 0dac edd3 a801 d5bf
00000110: c755 8847 8ba2 c43f bb5a 1ffc 2f7b e13f
00000120: 32b1 c4c5 0099 dcbf 08c3 19fd c26a d73f
00000130: 408f 310b 1e46 c2bf 28b3 06f5 adbf e23f
00000140: 3cee 793c 5e77 dfbf a449 4b07 c3ec cc3f
00000150: 9005 b4fb dd6f 623f 2cce 6c72 5877 d13f
00000160: bc30 9e9e 9911 e6bf 9cbf ab7a 2cbf cc3f
00000170: 2081 5d8e fcb1 d9bf 0a7d 7ad3 ea1c d1bf
00000180: a7c4 a582 cb81 d33f 9d0d 4f88 16be cfbf
00000190: 7198 7062 6647 cbbf e83e 9bd3 717a e5bf
000001a0: 3e47 969f 7b98 dd3f 0de4 96a8 59ef ca3f
000001b0: d58c cd69 1dc0 c4bf 9d3f c338 10a1 db3f
000001c0: 1c11 d5bb 589c ddbf c163 273e 02d7 d8bf
000001d0: 309c a14f 6417 dbbf 5231 4028 d273 dc3f
000001e0: 2939 57de a6c4 bf3f c42b 568e be86 d4bf
000001f0: 6406 9e4b 1889 b0bf edd1 8a74 be5d e1bf
00000200: f528 4a2a 64ed e1bf 72fd f215 60ed d33f
00000210: 1f67 1db6 4113 d03f 1881 42b0 adbb dc3f
00000220: a897 e738 180e b5bf 590c d074 b3ec b3bf
00000230: 8762 d94c 6b51 c3bf f13b 130d 1838 cd3f
00000240: 2c38 a01b 882e de3f d2d6 a137 412c d1bf
00000250: a6eb ac4e 3d9e bcbf b0e3 e474 ca01 e5bf
00000260: cc8e ff41 bde9 aa3f f4aa 0a61 b3b9 e0bf
00000270: 03f4 4ad6 c84d ac3f 8c46 1a3e cf81 bfbf
00000280: c05f 3cf0 1787 d03f 27b8 5210 0a18 d03f
00000290: 3800 5078 ca96 d63f e058 353a 7641 e3bf
000002a0: fcb8 0af8 eb80 b03f 1a4d d4f2 65b7 dabf
000002b0: 0844 d847 f27a cfbf 65b1 0df8 ee13 b73f
000002c0: e6db 89f2 c4c8 db3f a294 1031 732e d43f
000002d0: 654b 333f de11 da3f 880d 6f78 f512 d23f
000002e0: 677e 1bdf ee0b e2bf 7795 3673 79f8 e4bf
000002f0: d50e 1bcb 1b97 cf3f 8c30 2982 f088 e3bf
00000300: a603 466e 4f3f c23f 573c 03a1 f96d d1bf
00000310: 5e76 6fac 8e14 d43f 1f68 956b 889e 74bf
00000320: 8503 3b24 ba43 c43f f377 0f90 3230 e33f
00000330: 4005 11dc 661d e0bf dce2 a612 b136 dabf
00000340: 833d 9dec e897 d3bf b5c4 e94f 2bf8 d7bf
00000350: bc3e e513 6faf e4bf 0849 6dec 3280 e03f
00000360: a9db bd1c 9850 d4bf e480 e966 d255 e43f
00000370: d3b4 5183 2b67 d8bf b331 a01a aca5 df3f
00000380: 63d3 862e b34a babf 85d7 f688 d840 d13f
00000390: e5d8 cf06 f4b8 e3bf 6b5a b235 5a04 e3bf
000003a0: e9f6 9492 7c53 c4bf d3cf 78d1 9d63 d83f
000003b0: 8a83 54f3 cb2b 83bf 738d 195d a741 dc3f
000003c0: dd0b 270f 022e e03f a18e a28b 1bf8 e43f
000003d0: d807 7c5c 1584 d53f 537b d44d 0ae8 b93f
000003e0: 6809 fb7e 3211 dbbf 734b 27c2 129a c7bf
000003f0: c1f3 a2d0 8074 cebf d48d f769 01b9 b0bf
-0.4823954436416211 -0.3927794127088424 -0.2461462400316171 -0.4273307191730971 -0.1750392373569101 0.4416527331478887 -0.02425467199890538 0.6089852906147512
-0.6305640914433555 -0.10950312244260287 0.1771377200774055 0.005993807580368434 0.032595876930945414 0.13721249883063052 -0.6261690040302739 0.0387794788060944
-0.38649773312096847 0.48800482663776784 -0.5765190364568799 -0.61897860319897 -0.6738743841764299 0.6871551418288396 -0.11083872554567385 0.30691219090333666
-0.5589104960286988 -0.6598685570492141 -0.026976241378105576 0.11581907162116464 0.34028773555933295 -0.12596161056118976 0.12124799275277731 -0.022029072195900765
0.1048938995677263 -0.3282262868512483 0.161210451057441 0.5462875293986466 -0.44683856309235914 0.3658912154851781 -0.14276481195985902 0.5858983789126784
-0.491660651263121 0.22597539764553887 0.0022506080255204133 0.27290927099531603 -0.6896484468466251 0.22458415975370094 -0.4014884367261562 -0.26738997127718334
0.3047970558028034 -0.24798852592185208 -0.2131164532340253 -0.6711968548715648 0.4624318178622281 0.2104293893042101 -0.16211288133772564 0.43170552771788967
-0.462667640142415 -0.3881230933162066 -0.4233027246140777 0.44456914835679584 0.12409441879501472 -0.320724143028823 -0.06459190221905825 -0.5426933551994445
-0.5602284265490015 0.31136324065661036 0.251175334784067 0.44895498478764884 -0.08224631680749772 -0.07783052064773822 -0.15092221500778555 0.22827435148653266
0.4715900678428422 -0.2683260958941506 -0.11178954287326678 -0.656468609150684 0.052564539247922676 -0.5226685424180162 0.055280948790347416 -0.12307448640992841
0.25824545345812666 0.25146724313788343 0.3529535460402289 -0.6017409455187384 0.06446718984327399 -0.4174437400226495 -0.2459395266346578 0.09014791065209733
0.434128987173095 0.3153350810192227 0.4073405854407411 0.2824071575270968 -0.563956676251064 -0.6553313493974845 0.2467989675261523 -0.6104662458615322
0.1425570763058463 -0.2723373482121522 0.313754719156213 -0.005034001247020497 0.15831686753338317 0.5996334851913602 -0.50358908635841 -0.40958811589693567
-0.306146842068266 -0.3745220451738292 -0.6464152706702957 0.5156492822373204 -0.3174190788917551 0.6354763040544893 -0.3812969953931546 0.4944868335740253
-0.10270233045487269 0.2695828759709616 -0.6163272984547602 -0.5942812966121215 -0.15879780919379208 0.38108010727159786 -0.009360879290911023 0.441507187764919
0.5056162162730932 0.6552865721937061 0.33618673354805884 0.10119690323015833 -0.42292463684511583 -0.18438944320822834 -0.23793039500551852 -0.06532296025357393

linear1.bias f8 [64]
00000000: 4abf ed37 f202 d13f 9cfd f2f5 91ca e4bf
00000010: 8acf 10cc d952 e03f 1219 f010 7c7b d43f
00000020: 996b 97bb dc8f e53f 2a4d 9fc9 afdd e63f
00000030: aff7 7607 2e5a d33f 4e04 5ca5 d951 ccbf
00000040: 0822 a62e bf30 b93f 8aa5 2569 bf22 d43f
00000050: 707c 6b7e 77d7 b0bf d02a 6d5e cdf6 e53f
00000060: f8c6 8ce8 2ebc d3bf 5432 56f4 8f9a db3f
00000070: 729b 0f65 31a8 db3f 32b9 8067 ee51 87bf
00000080: 9a1b 8e12 e621 d93f b4fe 2519 0891 d9bf
00000090: dcf2 2c1c 89f2 e3bf 2bec e0bf f54a e2bf
000000a0: 65b6 e669 158d c1bf 5802 ad1e d0c3 e33f
000000b0: 9ab9 42a7 5cd9 c93f 39f2 25e9 0fd3 d13f
000000c0: 9fa9 896f 04e7 d13f c0df 892f 0e74 ba3f
000000d0: 3bd7 047b 2245 cbbf 02ce 719d 9f00 cebf
000000e0: 62f8 8dc7 4892 d53f 90ce ce2f e376 ba3f
000000f0: a992 6a11 7005 d9bf d64b 342b 657f e5bf
00000100: e880 b33f d951 e03f 3be0 a173 1d72 e5bf
00000110: 4cb3 2e4e 15ea d3bf 89b5 e60f b6f3 e0bf
00000120: 50a1 42b8 9399 9ebf 636f 3cc5 00e9 c3bf
00000130: e84b bb7b de34 da3f 11ec f6f9 8a77 e63f
00000140: 7b0a 7c03 42a8 7f3f 8505 e34a 6fb2 c1bf
00000150: 1213 0138 1e6d dcbf 019b 4c6a a9b4 d9bf
00000160: ad44 31d7 fb7e e9bf d82c e4f7 7afd e4bf
00000170: f42b 557a 5308 e33f b4ce 452f e7b5 c6bf
00000180: e29c 1558 6534 cabf 9756 c88d 41db cd3f
00000190: 25c4 d185 d316 e5bf cdde 4b47 a296 cd3f
000001a0: c3ee 9187 e23c cbbf 840e 6ffa 5031 cb3f
000001b0: 1108 8b09 0e20 b83f f5f0 e6b4 70f2 e2bf
000001c0: 4587 849f e294 adbf 7c27 84ce 5c07 c13f
000001d0: 5732 6ce3 922e e0bf 9845 360f 4154 da3f
000001e0: b8e2 5f6d 0e6e e23f f11c cb1a a6f5 d23f
000001f0: 6b9c 643d 1bd8 62bf 7c64 f622 2bd8 dabf
0.26580481969630354 -0.6497278026289908 0.5101136193902545 0.32003690389719097 0.6738113082786753 0.7145613611159309 0.302379138269198 -0.22124786924544754
0.09840006722345873 0.3146208311869364 -0.0657877620355849 0.6863772243753719 -0.30836079320862053 0.4313087354756011 0.4321406828807347 -0.011386740239768576
0.39269401371023493 -0.39947702842617194 -0.6233563947967826 -0.5716503856305101 -0.1371180312248043 0.617652950204568 0.20194585959457073 0.2785072113836438
0.27972517864568575 0.1033333650647128 -0.21304732329161333 -0.23439402759287026 0.3370534847998724 0.10337657849486903 -0.39095689488230306 -0.6718011707147251
0.5099912876285346 -0.6701800592845822 -0.31116230616571694 -0.5297498999186 -0.029882724877695666 -0.15554818754832941 0.40947687228361795 0.7020926363105692
0.007728822580022605 -0.1382578960092752 -0.4441600367465962 -0.4016517198637502 -0.7967509463288899 -0.6559424249293455 0.5947663678465447 -0.17742624099957072
-0.2047239952182514 0.23325366423585045 -0.6590364087734356 0.23115948182361593 -0.21279555911666223 0.21244251468862185 0.09423911793695107 -0.5920947583431643
-0.05777652928578773 0.133037186468126 -0.5056852762077807 0.41139246449992006 0.5759346138211958 0.2962432157186888 -0.0023003131892838555 -0.41944387831023966

linear2.weight f8 [3, 64]
00000000: e32b 0647 f7dd a53f 8108 2c62 9345 afbf
00000010: a76e 232a 4a19 abbf d619 6021 c3ac adbf
00000020: 5d64 2cde 3f12 b0bf a0b6 e728 a9c3 91bf
00000030: 82d6 76b1 c73e ad3f a22c 0c21 162f b73f
00000040: a9f3 b664 8c8a b93f 599a 9c17 b475 a83f
00000050: a04b 7493 3d50 8bbf 840a 5c3d 4348 bbbf
00000060: 3b76 caef 9e5c b7bf f8aa b2a2 95d9 b2bf
00000070: 3a98 8696 6b58 abbf 12d4 13ff 949e b23f
00000080: 8ea2 5f05 07aa 853f dce7 5df2 f26e 963f
00000090: 5027 721c 8105 b5bf 848b 5384 287e a3bf
000000a0: 49c7 d396 860c b23f e034 fd2f b1eb adbf
000000b0: 9bee 3866 4480 8ebf f04b eea1 1157 b4bf
000000c0: 0c01 7661 9663 813f 7577 0f70 df8d acbf
000000d0: 56ab 3dfc e45a 8e3f c829 699f 4a2d 66bf
000000e0: c59b d147 33ff a43f 4076 e907 6664 993f
000000f0: dd6a 8e4e f79e 8d3f 4e29 1e36 11cf b8bf
00000100: 22e9 5659 78ea b7bf f722 c229 c3b7 893f
00000110: fb66 c815 cc5d bebf 6e01 2c11 f834 a3bf
00000120: 12aa 91dd 1458 9d3f 4690 d9b8 a1f3 70bf
00000130: 9770 f6b0 6b1a ac3f 1a61 392f 1c19 9b3f
00000140: 28d9 9cae 819c b0bf a99e 287d 5c3e b33f
00000150: 31fd 9266 1320 a93f 0d2c d016 b4f4 b53f
00000160: 613d b837 33b7 be3f f54c ccdc 81ce b7bf
00000170: f8e9 7ec7 2997 753f 5541 631c aa81 b8bf
00000180: bade 181e 3d4c bfbf bb1b e26b c806 b73f
00000190: 4945 1610 a8bc ba3f 7ad0 bae8 68d1 a3bf
000001a0: 872b 1d6b 7599 b1bf 326a fe9e bc7b c1bf
000001b0: a048 b168 b638 b23f cfea 993e d3c8 b13f
000001c0: efcc fb53 77d5 b1bf 3b44 ef76 2929 b9bf
000001d0: 41d9 af1a a516 9f3f 2fe8 0040 154d 98bf
000001e0: f801 ca98 3cbd 8f3f 9a73 5aa8 9ba2 b3bf
000001f0: 2b95 361e 839f babf 58c2 b3af 4c99 703f
00000200: 8734 5bbf a087 ffbf 7afd 8fb5 f344 0040
00000210: 8565 dc89 ba5b c13f f1d4 24b8 a747 00c0
00000220: 261f cecf 429d a23f bba7 53e4 2db5 a33f
00000230: 5cd1 77c2 aabe ffbf 12d6 2644 15f3 f6bf
00000240: c87b d8c1 ba01 fe3f c867 67bf ae66 be3f
00000250: d099 eab9 0001 00c0 120e 769d 09f3 f3bf
00000260: 0055 9596 713b 90bf c4dd 4a76 8b3e fd3f
00000270: a518 c0f9 ea46 00c0 71a5 33ae 0e1e b5bf
00000280: fbc5 dd93 eabb ff3f 3074 55bc 7c2b 00c0
00000290: a503 4b7c 581f 00c0 b84d 9a5b 0602 fd3f
000002a0: 9271 7888 ec37 983f 47d0 570f 7f76 b7bf
000002b0: d2ee 4115 79a9 bb3f 338b daa1 4718 be3f
000002c0: ccce d25e 70e8 9c3f ce42 5682 18e2 f63f
000002d0: d4ba 90d2 ea24 f6bf d598 1757 9bea fe3f
000002e0: 9c7e ebed 13ac febf f950 683e 2d61 fdbf
000002f0: 7ca4 e38e 98b2 b33f 8632 b08b e87b bc3f
00000300: 0678 e6e9 a97b f3bf 5b77 c518 99b0 ff3f
00000310: 7829 3f29 f1ec b13f f589 39c2 d14f ff3f
00000320: 4cf5 1e92 b03b a33f 0aee cb10 4d5e d6bf
00000330: bd92 f51c e12d b7bf cbd8 1e17 72dc f33f
00000340: 1589 c3f4 be58 d63f a7ff 0764 bd1e ab3f
00000350: dd8d 837a b468 ff3f e2e3 ddb3 af70 a43f
00000360: 20ee 3748 905f febf 3766 605e 27df ab3f
00000370: 3904 b070 2e70 b4bf 01df f54e 3731 f8bf
00000380: 6495 18ad e845 0040 0014 ea9b 0100 9dbf
00000390: 386f 0364 ae4d fe3f d509 546b efd7 ad3f
000003a0: f981 0c68 5235 ff3f fda7 78f5 3c21 fc3f
000003b0: 1dc6 2504 e4a0 fb3f 8b92 a59e 4340 fd3f
000003c0: 919d 7a55 642c fd3f b961 7c54 5fa2 febf
000003d0: 3c7a 035e 3b38 fd3f 3d01 487e 12c4 fe3f
000003e0: 7caf 93ea 988a fd3f 8e54 e25a be6e ffbf
000003f0: 4baf f70f 30c0 ae3f 3f18 2947 3449 aa3f
00000400: 834b c761 01d5 b43f 7922 bfcb 47b5 b13f
00000410: e3b3 2307 c350 b2bf 964b a400 c0c8 b4bf
00000420: bb9b 1bf2 3756 b7bf 3d27 2176 441c babf
00000430: 378a e0eb b472 b53f 4b8e d6ea 355a 843f
00000440: a913 f160 8138 99bf b09b 9681 c438 89bf
00000450: 788e 17f8 740d b0bf 0aae 4770 f591 97bf
00000460: 51a1 60fe b10a aebf 9cd1 a69d ec73 b7bf
00000470: 9fc8 f587 da55 acbf 5344 418a b15c aa3f
00000480: a643 ee50 f054 aebf f139 7b84 f8d7 b93f
00000490: fa03 783d 1f45 903f 499d b175 a550 98bf
000004a0: ea03 d10a aa7f be3f 6318 7c31 f673 bfbf
000004b0: 3c54 e6cc 5c8d 983f 4eed a711 2b0a a8bf
000004c0: 18f1 040b cd62 a43f bc7d 7f91 cfd3 b13f
000004d0: 115a e46e 54fe afbf 8e53 cf9a d49c a9bf
000004e0: c13c 4667 e07a a5bf a71c 07c2 62c9 ba3f
000004f0: 5b4a e43a 6c02 82bf 6fd4 57e6 81dc b13f
00000500: daa5 82e9 cf41 9b3f 0592 187e aa68 bc3f
00000510: bf01 736c 45f2 bc3f 3890 ae35 01ef a8bf
00000520: 1e85 e1e7 15b8 a93f 5ffa 4473 8111 773f
00000530: 02b4 23c1 e8cd a03f 4176 c34c 24c5 b63f
00000540: eb17 5477 2c9b ba3f 71d5 e863 276b ba3f
00000550: eb57 cdef 29ed 97bf caa2 9204 fdc5 bcbf
00000560: 5f68 dc8d 2fb9 9c3f 0cbc c8d4 fbf9 ad3f
00000570: da7c 5622 0568 b83f cc9b 3190 6e31 b83f
00000580: 49d0 1f54 74cc 9a3f 8c39 14c2 1760 acbf
00000590: 4670 ba2f c5c9 b53f a19b 49fe b4cd b7bf
000005a0: a585 b988 0e66 75bf 686a 7f88 2cc7 5c3f
000005b0: 3f4e 4520 8d80 b9bf d7de 6a8e 4eef abbf
000005c0: 5dd2 2c77 bb22 b43f 1c8e 43e4 7510 bb3f
000005d0: ec73 fdd7 d671 81bf 044d bba7 e544 82bf
000005e0: 010d caf7 3261 8ebf 9922 6f7c e203 acbf
000005f0: ab94 a646 0a30 bb3f 60da 0ea8 9bfb b73f
0.0427090906333303 -0.06107769559277277 -0.05292732014069417 -0.05795869619764786 -0.06277846502452307 -0.017347949144030594 0.057119598782645845 0.0905622320826063
0.09977033099035161 0.0477730063269532 -0.013336640417525747 -0.10657139061008009 -0.09125703195828631 -0.07363257619969577 -0.05340896809075031 0.07273226954914971
0.010578207828033894 0.021907611887833287 -0.08211523956756861 -0.03807188620864735 0.07050362760835784 -0.0584388133125715 -0.014893087739543722 -0.07945356562986183
0.008490729188225042 -0.05576990359234816 0.014821804950505484 -0.0027071435427263625 0.04100952388471727 0.024797052605540992 0.014463359913681579 -0.09690959521518502
-0.09342147999897013 0.01255753012834891 -0.118618731802055 -0.03751349649064904 0.028656316779612175 -0.00413859532054423 0.05488907370747247 0.02646297491296066
-0.06488810074811069 0.07517030768996825 0.049072843810331064 0.08576512867891513 0.11998291120857153 -0.09299480095460295 0.005271113586724933 -0.09572852318820442
-0.12225706085961976 0.08994724878185327 0.1044411696696176 -0.03870704499186757 -0.06874784340941008 -0.1365886474930718 0.07117786460847464 0.06947059896803441
-0.06966348457699544 -0.09828433183362588 0.030359821084823272 -0.023731548339334715 0.015497659123185223 -0.07669995174587854 -0.10399646270396505 0.004052447849276129
-1.9706122851232821 2.033667963463526 0.13561183673372681 -2.034987867950456 0.03635605608638874 0.03849166309539905 -1.9840495678336856 -1.434346452920526
1.875422246179129 0.11875431225726552 -2.000489666435193 -1.2468353415323503 -0.01585175973499009 1.8277697201536833 -2.034627867865384 -0.08248988869640585
1.98337800750994 -2.0212340081766555 -2.015305491484883 1.8129943445427283 0.02365083296727872 -0.09165186047158712 0.10805470246298945 0.11755798055177706
0.02823043421513098 1.4301991549765947 -1.3840130067070975 1.9322770502126805 -1.9170111936327094 -1.8362247884552387 0.07694390762812192 0.11126569185598542
-1.2176913391808752 1.9806147544508892 0.07002169854164275 1.956987150850748 0.037564771496799126 -0.34950567856114445 -0.0905438132954925 1.2413197425026279
0.3491666212340914 0.05296890112003832 1.9630627427767344 0.03992222853316442 -1.8983309575113552 0.05443690325791944 -0.07983675242577783 -1.5120156368629412
2.0341352007987314 -0.02832033647657184 1.8939651400350623 0.05828808007392509 1.9505180420311474 1.7581147755358864 1.7267799531949841 1.8281894871844624
1.8233378733656063 -1.914641695044436 1.82622849201256 1.9228691990720812 1.8463372386131303 -1.9645370054397833 0.060060026120338415 0.05133975380572097
0.08137520444078743 0.06917237018854817 -0.07154482769301711 -0.08118820205372254 -0.09115934048496303 -0.1019938267137634 0.08378153570860368 0.009937688092413263
-0.02462961343941897 -0.01231530685875079 -0.0627053361600306 -0.02301772592356425 -0.05867534856980917 -0.09161261414448635 -0.05534251126927469 0.05148844540293198
-0.05924178111957383 0.10095170244606046 0.015888679625280823 -0.02374514132352815 0.11913550151895405 -0.12286318500636777 0.023976755148016546 -0.04695257750059999
0.039816291422967776 0.06963822653005186 -0.06248725751554585 -0.05002464666146188 -0.04195309887574573 0.10463540303236361 -0.008793683573945879 0.06977092622385482
0.026618240954723628 0.11097207621111956 0.11307176492392211 -0.04869846134468542 0.0502325864370141 0.005631929078218605 0.03282096250209322 0.08894564508542492
0.10393026269238674 0.10319753827282853 -0.02336564565788272 -0.11239606248512782 0.028050177606111833 0.0585478493925323 0.09533722008062587 0.09450427074771922
0.02617055667356308 -0.05542062992218452 0.0851100198291884 -0.09298258979980158 -0.0052242820489437946 0.001756471147010297 -0.09961778676852705 -0.05456014145368975
0.07865497264430972 0.10571991751526649 -0.008517912355893352 -0.008920473271621272 -0.014833830058029298 -0.05471713799449169 0.1062017843710971 0.09368298390368457

linear2.bias f8 [3]
00000000: 6d9a 1405 d19e bebf 98fb 1a26 a93e fd3f
00000010: fc46 72ca e98e ac3f
-0.1196108472255248 1.8277980316631552 0.055777841532416134

encoderlstm.weight_ih_l0 f8 [256, 64]
00000000: b4df a235 bcb7 b3bf a0e6 831c 8058 773f
00000010: dab6 e7cc 3015 af3f e87a b7a8 b7d4 bfbf
00000020: aa5f c387 d42c b9bf 333b 6464 da2c bebf
00000030: 4491 e2a6 9742 bb3f ad70 0393 6258 9cbf
00000040: 5fd8 8bed 3912 b73f aefd 57a8 bdb5 bb3f
00000050: a9ef 96bb 6dd7 babf dba1 623a 8428 b03f
00000060: 310b 11bc 7684 b73f cbf7 9abe 1926 98bf
00000070: 1200 5daf 8187 b83f f573 6758 31ba b9bf
00000080: b1f1 1087 4b36 a03f 86b1 83ac 6c41 ab3f
00000090: 6b23 009d 7718 b2bf bb51 261e 30d5 a03f
000000a0: 7c40 5e1c ab99 b03f 17f1 9b16 7aa2 ab3f
000000b0: c798 c465 2c6d b9bf 197e a45c 0241 b73f
000000c0: f586 179c aec0 90bf b78e 6f54 e5ae aabf
000000d0: 459e e16a 5765 ad3f 4703 7524 e07d a73f
000000e0: 52f6 7e67 ffd1 b03f b80a 7b96 f444 923f
000000f0: 9495 dad1 bed6 b93f 9db8 46ba c1a2 b1bf
00000100: 0f14 f70c 3915 a23f d865 5459 7e21 c23f
00000110: 0e69 06ce 5f7e a1bf 7e97 cd44 0458 bf3f
00000120: c2ab 1621 7ba8 a1bf d7db aa04 6c4b 973f
00000130: 8956 f651 e177 bc3f c30a 417a db95 a1bf
00000140: b4fc 9768 d9f1 a6bf 95d5 a7cc f048 b6bf
00000150: b64a eda6 f183 803f 1dc1 efad d91d aebf
00000160: ac32 14d6 05c7 ad3f 0141 6a31 c55a b5bf
00000170: 713e 0d5c e96c a9bf c790 2e5b 41eb 6d3f
00000180: 8652 bb25 b1d7 b53f cfbb c154 af03 aabf
00000190: 3a25 e5a8 1180 b3bf bfdb c97f 735e 933f
000001a0: 0940 8522 13f6 ae3f 4eb2 ac1c 9510 b1bf
000001b0: e6ce 5418 94b2 bfbf f794 e3c6 6ed9 bebf
000001c0: 0ca0 fc3a a461 b8bf ecc4 8af6 e112 be3f
000001d0: be29 f100 f633 bb3f 7194 38b6 0ca9 b7bf
000001e0: 86c4 8083 965e a33f 049c 14e8 68dc a83f
000001f0: 04d2 71be 1d70 bbbf edf2 e38f f7be 803f
00000200: d587 3d9d 6805 b8bf 8d5f bedc 9734 b5bf
00000210: bbe2 6a72 dad1 b5bf f94b d814 df0a b1bf
00000220: 1cc0 53e6 41e6 a03f 8aa4 130c aefa b8bf
00000230: 2649 d5f3 9acb b43f 6ceb 4628 1d63 ba3f
00000240: 3878 0599 9258 ab3f d3be 12a7 a0e5 b13f
00000250: c467 879d 78ac 91bf ca75 dcff 8f4a b73f
00000260: 9227 a886 cdde a2bf 7141 9b31 04fe b9bf
00000270: c976 e612 1172 b83f 7657 b397 6630 b83f
00000280: 487a 4976 479c bfbf 21a4 90c1 9661 bbbf
00000290: 7d6d b1ac 50ce b2bf ef07 1939 5bf6 bebf
000002a0: 813b a53e e850 bf3f 3c04 8e91 5784 873f
000002b0: 8eda 6412 4011 b4bf 0a5b 7e9a 8a59 bdbf
000002c0: bf6c b2f1 8966 98bf 4da9 4453 3ea0 be3f
000002d0: 595f 7e11 3112 be3f 6beb 7a6d 70ec b93f
000002e0: 4485 d0e0 26ba bcbf 25eb 3126 7f05 96bf
000002f0: de58 6c2a 4b04 99bf 73b3 5e83 10fe ac3f
00000300: b59c a333 be4e acbf 7ebc 1ed7 648c afbf
00000310: 1158 cb4a 7293 b23f 62ea aeff 19ea 923f
00000320: 3d10 887d 80fe b63f 16e3 cce9 40be ba3f
00000330: 0709 00f2 d5dc af3f affd cc6f 569d a33f
00000340: b77e 6f33 5b9d b5bf b170 ec74 3617 b53f
00000350: 0c90 e4b9 7e26 b53f 9a4e b33e 45ff b1bf
00000360: c0ec 78b1 e77b aebf 110f 4c98 e853 c03f
00000370: cc2f e5aa 2fef b6bf d02f e07e 852c 833f
00000380: 3771 6aa8 e6c0 763f c29d 7a9a 1e4b b9bf
00000390: defe 222e 47d5 9bbf 253a 8905 8a83 aebf
000003a0: 3ca4 c381 a4d0 b4bf 8f7a 1928 faa5 a7bf
000003b0: 6ede c4cf a5bc 943f a361 0b99 c693 6fbf
000003c0: d072 224f ad2d b43f e8ee 2e24 d20d a43f
000003d0: 357c 4b2d 0452 b3bf ace0 23ed 8082 bebf
000003e0: 9ba6 80f6 4dbf b4bf 7c49 2ec2 bfaf b53f
000003f0: e0af 04c9 a21f bb3f 6c88 13e0 efb2 b9bf
00000400: 9f97 a7e0 b1bb b23f c705 95d2 7eb8 91bf
00000410: 3c39 151a 586d a1bf c4cb 56f3 7f0a 9e3f
00000420: 1d1d d3a4 9bd6 b93f a001 f76b 3970 adbf
00000430: 898b dfcc 3dab abbf 0a99 26c0 dc7d a13f
00000440: f8a2 cca1 416d bd3f 379b aa03 d770 b73f
00000450: 92e8 9483 8307 babf 094e 1e27 4891 ab3f
00000460: 7bd0 ba33 4315 5dbf 9ea4 a112 84ad b63f
00000470: 1a3d 5658 3745 9abf f3ec c10e 8077 a83f
00000480: 7064 8eea 0f30 bc3f 895a cecb b126 b23f
00000490: 7d6d 60bf 622b ab3f fd63 bb4b 617a b63f
000004a0: 5495 1102 c961 b33f e895 af08 49c8 95bf
000004b0: e91b 5451 0a7a 9bbf c6b7 4a80 2a7b b13f
000004c0: f7aa ff62 b77a bb3f 4f94 15bc 02be 8b3f
000004d0: b549 fb82 0ef0 a8bf 6328 5f27 b610 ba3f
000004e0: 866d b225 4ca6 b6bf 54c9 0c5b ab08 a73f
000004f0: c62c d07e 9d84 a93f c4a4 d772 a136 b33f
00000500: 190a 68d9 4247 893f c291 7881 55ac abbf
00000510: 9942 d1ce 020d 913f 8870 0c38 bb73 b0bf
00000520: 6ff1 8531 7583 bc3f 7a55 e088 a03a b6bf
00000530: 4c4e 62de 9aac a03f 402f 02ec d091 a6bf
00000540: 1eb0 7879 c41a b23f 0b6b 81a8 f2bf a3bf
00000550: 919a 36a3 e8b7 b9bf 962b 40d4 df12 a83f
00000560: 8314 8b30 23ff babf 751a 4b28 70af b7bf
00000570: fee0 196a 91be 903f 34ca dd25 9ffd 80bf
00000580: f4c6 dc1d a1bd a8bf 573f 7e7b c65d b1bf
00000590: e608 dd64 034d b4bf 5d2b e9f4 6590 bcbf
000005a0: 3eb8 0f48 c0b9 913f 4322 de1d a081 aa3f
000005b0: 9d92 685a e628 b3bf fb85 92ce 3286 ac3f
000005c0: 2bbc 503e 514b b33f fb25 b1e6 06ad 8b3f
000005d0: 948b 0fb7 967c b23f 4a44 1eab 68b5 ae3f
000005e0: cf85 4091 35c2 8cbf fbd1 48f4 1ecd 9dbf
000005f0: 3417 528b 8b28 bebf e289 9510 bf26 903f
00000600: 10cd 2321 1402 a53f fed9 7a75 0df3 b73f
00000610: f4d6 bc13 4ddd ad3f b492 6978 db83 86bf
00000620: b26b d562 f26e 8ebf 33f1 effe 5f42 94bf
00000630: 173f 489d 5d4c bcbf 9db9 d7a5 0512 bc3f
00000640: f6e5 31bb 4b2c b3bf 512d 0a9b 67cc 953f
00000650: 3200 28b8 8df1 8e3f 8d14 2904 4948 a33f
00000660: f110 45a8 6c26 893f 277f fbc3 ea83 bcbf
00000670: 277b cf22 714f 893f d295 d559 61e1 bbbf
00000680: 0eac b2a2 cdc6 8abf 2c10 02cc 62ee 61bf
00000690: 757d 88d7 785a b3bf 787d f83a fe25 ad3f
000006a0: 31b0 0645 cfe8 b43f 9399 d5c1 b498 bfbf
000006b0: dbb2 11c4 d983 bdbf e6aa 6820 6426 afbf
000006c0: c27d 6f57 7a47 a7bf 6297 3d88 ec90 923f
000006d0: cdcb c247 1875 b93f 2f9a a182 5afb b83f
000006e0: 7ff5 f287 ca6e b83f b6f4 5e07 7b34 a03f
000006f0: 59d7 7432 b208 a13f 7ff5 ae09 90a4 b0bf
00000700: bb14 678f 4fcb a13f 6720 07f5 c30d a3bf
00000710: 34b5 0964 e441 a63f 9c9d 215a 9a4a adbf
00000720: 2a92 2835 a608 c23f 345a 19d2 e869 963f
00000730: def1 c43f 70ba bc3f 1267 6ccd de33 b73f
00000740: ae58 8f62 b182 87bf ffe8 8079 be68 b23f
00000750: da19 4f01 c9c5 973f 379a 1f63 a6d1 bb3f
00000760: a648 6291 b451 8abf 07d4 ec48 35c8 adbf
00000770: 1315 15cf 401e bcbf f53e 4246 e854 c13f
00000780: 1c3a f6da 9a00 b0bf 8bcf d9aa a77e b4bf
00000790: d431 c174 551b bcbf fb90 57da b5b5 b23f
000007a0: 4b08 3428 12e3 91bf b572 6b82 87c8 963f
000007b0: 904d 42f6 76cf b7bf d5a1 c348 0758 a2bf
000007c0: 8952 573f 59d8 94bf 6ef8 63be f9a6 ba3f
000007d0: 8b65 1b43 4507 ac3f b8d2 4487 16eb b8bf
000007e0: f6b7 97a5 b4fd 823f c2ec e77a d0fc babf
000007f0: b1dd d7d4 76dd 933f 4cf6 d0f9 b3b4 aebf
-0.07702232655981228 0.005699634966953276 0.06070854665072796 -0.12433956021366621 -0.09834030451327061 -0.11787190390553519 0.10648486923543482 -0.02768091223048035
0.09012186097592821 0.10824189529375047 -0.10484968023132403 0.06311823296949319 0.09186498729199567 -0.0235828421198148 0.09581766635255942 -0.10049732597640555
0.03166423820264031 0.05323352437867172 -0.07068584044476516 0.032876495056516096 0.06484479372579871 0.05397397542944498 -0.09932210430688136 0.09083571206837639
-0.016360023762792292 -0.052115599209881784 0.05741379909232739 0.04588222928078394 0.06570431019550796 0.017841169056519418 0.1009330046022881 -0.06888972089538688
0.03531816752687444 0.14164714204598172 -0.034167283916035726 0.12243677787554749 -0.03448853281891885 0.022748649392010236 0.11120422602683723 -0.03434644572600611
-0.04481391336229859 -0.08705048557734181 0.00806416311903511 -0.05882148979424271 0.05815904844539452 -0.08341629463598467 -0.049659054266723575 0.0036522175300480494
0.08532244845566525 -0.050809363456998484 -0.07617292760291586 0.01891499011477626 0.060471151317528955 -0.06665927839339611 -0.12381864160561981 -0.12050526004493976
-0.09523989143474426 0.11747562665074768 0.10626161120413877 -0.09242324303393602 0.03783102374325957 0.04855659325613007 -0.10717950725103981 0.008176740721404363
-0.09383252943874194 -0.08283375872849615 -0.08523335736652886 -0.06657213457974355 0.033006724706752005 -0.0975750712856486 0.08123177006681156 0.10307485802961275
0.05341013067185013 0.0699100883382429 -0.017259487738421134 0.09098148342714932 -0.03685610073814795 -0.10153223239035981 0.09549051963264356 0.09448853686930456
-0.12347838056437255 -0.10695783830364337 -0.07346061912669728 -0.1209465994261618 0.12232829598836582 0.01148289120624401 -0.07838821839400564 -0.1146475436383804
-0.023828654648792687 0.11963262112536661 0.11746508290377501 0.10126402542929973 -0.112215452085839 -0.02150534315704102 -0.024430441345509084 0.05662585834156788
-0.05528826122627476 -0.06161799550988521 0.07256235433609982 0.018471151571910822 0.08982089104398568 0.10446553905502429 0.0622317178640675 0.03830976595645141
-0.08443231588125398 0.08238544802265114 0.08261863745116232 -0.07030136853000571 -0.059539070524317506 0.1275606864584167 -0.08958719179389546 0.009362261709632863
0.005555058486290946 -0.0988024832864687 -0.027180778685532363 -0.059597314048563534 -0.08130863349983114 -0.04618818034645244 0.02025088387128309 -0.0038546446670404007
0.07882197553631021 0.03916794482890201 -0.07547021966773644 -0.1191788271861493 -0.08104407566193077 0.0847129677843323 0.1059514752166133 -0.10038661213505556
0.0731764958833012 -0.017305356600678026 -0.0340373546447261 0.029336928584324587 0.10093090795554756 -0.057496828488641016 -0.054040843256891576 0.034163378196625585
0.11494836998157243 0.09156555022728417 -0.10167715036814887 0.053842787528221754 -0.0017750889082153432 0.08858514265888792 -0.025654663817076352 0.047786714364486026
0.11010837055654732 0.07090293145879846 0.05306538187161445 0.08780487154889723 0.07571083355431557 -0.021271840243476975 -0.0268327343119629 0.06828561432004596
0.10734125296555051 0.01354601036536898 -0.04870648716827778 0.1018174978372897 -0.08847499771439091 0.04498801695298718 0.0498398988057374 0.07505234769600394
0.012342951068608209 -0.05404917912918307 0.01665119540513391 -0.06426591986059027 0.1113808866411483 -0.08683207837778709 0.032566871305928474 -0.04408123856509727
0.07072093930827392 -0.038573821134113194 -0.10046247467708215 0.04701899972868444 -0.10545558867586817 -0.09252072318768419 0.01635195932473809 -0.008296244948472788
-0.04832175721675283 -0.06783714785546856 -0.07930012905584113 -0.11157834271686569 0.017310146711615675 0.05177021374317239 -0.07484283168066459 0.05571135303149429
0.0753680016648423 0.013513616480980586 0.0722135731626124 0.05997778977246833 -0.014042299742928059 -0.029102786693515608 -0.11780616904624425 0.01577280558320549
0.041031483693496296 0.0935524379554877 0.05832901826799555 -0.010993685352511086 -0.014860051766552338 -0.019784450469147074 -0.11054024782083292 0.10964999483960587
-0.07489465065182074 0.021287554586291894 0.015109164412024343 0.037660867460126736 0.012280320058046775 -0.11138789448477536 0.012358554720717741 -0.10890778010578764
-0.013074499633452443 -0.0021888665797309605 -0.07559924375572342 0.05693048925263161 0.08167739329536584 -0.12342385990414177 -0.11529313122600675 -0.06083977599731387
-0.045467208073883394 0.01813096601053788 0.09944297553992883 0.09758535088767738 0.09544053858822642 0.031650395059366884 0.03326947084353433 -0.0650110267296977
0.0347542631675792 -0.03721439710676649 0.043471467219982435 -0.0572098002456258 0.1408889541209118 0.021888387511660848 0.11221982533329064 0.09063522830220119
-0.011479745693503265 0.0719107672347583 0.02321542807092123 0.10866775436407115 -0.012851153074994247 -0.05816809191893673 -0.10983662658425812 0.13540366583446653
-0.06250923009631787 -0.0800576011768596 -0.10979208088355757 0.07308518009773828 -0.017467769340335598 0.022249333701312952 -0.09300941002066154 -0.03582785380587309
-0.020356554499658706 0.10411034486966894 0.05474296993424862 -0.09733715822660371 0.009272967627989442 -0.10542014122613622 0.019399506321830354 -0.05997240471377249

encoderlstm.weight_hh_l0 f8 [256, 64]
00000000: f1f7 bf54 db3a bbbf fb25 1a2b 9db8 9abf
00000010: 9e1c a3d7 fee2 b2bf 01ea 1842 4caa 8c3f
00000020: 5cbf fc01 84d5 923f bde6 235c 7a09 b7bf
00000030: d100 9fcb f07a a9bf fc36 830a 6593 b2bf
00000040: 6797 b283 9919 5b3f f79c e60d d668 9e3f
00000050: dda2 a0d8 f55d 8d3f 1995 245f 0667 b8bf
00000060: 5348 1ac9 a3a0 843f bbf0 813c 3548 b5bf
00000070: 9343 d06b b975 b2bf 3039 7559 2892 b73f
00000080: 30de b18f 5432 b13f 74e9 3a24 c777 923f
00000090: 4f45 07f6 c307 ba3f 2f27 aa7a 3f60 b33f
000000a0: 0e26 9772 ec5b bebf 4c92 0925 4a87 93bf
000000b0: 5088 b754 f7c4 bebf 1763 128b e580 973f
000000c0: c28c b7bd 21b8 aabf a877 116e 00fe b2bf
000000d0: 1f86 03be 2ef9 bf3f 68d7 8193 ad03 b9bf
000000e0: 1acb b8cb 9714 b63f a135 8c25 6a55 ad3f
000000f0: 3ad0 ce12 a4cf 7fbf f0d7 caf8 3190 9bbf
00000100: a827 89f5 aafe abbf e6a3 9d91 7833 bb3f
00000110: 151e cd7c 5a5f bc3f 250c 42b9 db20 aebf
00000120: 66da f284 92f5 b83f c590 6f08 c273 9d3f
00000130: 124d 43f8 3956 ba3f fcf1 5823 367b adbf
00000140: b6c3 370e 942b aa3f a6b7 812a aa58 a2bf
00000150: a510 8ecf 3caa aabf f097 70b1 1dec bcbf
00000160: ae09 3176 fd2b a4bf 55bc 9e45 b123 b0bf
00000170: 650c 4c98 94b6 bc3f 6eb2 a777 c296 a9bf
00000180: 3688 e8a0 ced2 bd3f b3d3 2920 7963 b2bf
00000190: 4454 f635 b224 82bf 27a8 5890 5899 b23f
000001a0: 78fd f9c4 4709 953f 62fa 1f23 a5d1 a5bf
000001b0: 25b4 75bf 8c61 b13f 062d 52ac 76ea ba3f
000001c0: 4253 bcbc 908e b3bf c8be 3335 b80d b93f
000001d0: eaae 0482 fb52 b13f b291 baf6 3582 b9bf
000001e0: 82e0 1f1b 4a3e 983f 893e 659b da5a c03f
000001f0: 74b8 cffe 7289 79bf 9843 a372 d97d 79bf
00000200: d496 696a 6410 95bf c278 4643 bc34 b43f
00000210: 815f c389 95b7 7bbf ee4d 3ff6 76c8 b03f
00000220: 27ba e81f b0e9 54bf f921 840d c0ae a33f
00000230: 166e d29c 3539 c03f f5a4 4d97 8a3d 863f
00000240: ae86 9a81 6172 99bf df63 077a d5a6 b93f
00000250: aa00 46cf 7288 ba3f 118d 059f 7ba3 b13f
00000260: 3a96 5445 df35 bbbf bd4f c71f 24b1 a33f
00000270: a800 8417 b447 bf3f 7b45 b16b 9fda 9dbf
00000280: 447e b763 fa73 913f 230d a379 7973 9e3f
00000290: 5a98 585d 5912 b03f d9f2 21b1 0112 8bbf
000002a0: 1007 15d7 ab95 b03f 04ee cd5e 5712 a2bf
000002b0: 07bb d9b4 01bd aebf 2d29 adc0 77ad a53f
000002c0: 482c 5296 ea35 aebf 501e a020 8621 91bf
000002d0: 9251 e678 a946 b1bf 6103 abf1 0740 bcbf
000002e0: 1b95 1b82 8eba a13f 3763 448b 0cb4 b1bf
000002f0: a5cc 9984 e81f 793f fcd9 a812 7473 b4bf
00000300: b800 b9ea 554f b9bf 9a6e 0ffe 7ac5 b5bf
00000310: 79c3 dab5 99dc be3f 279d c0eb 8d6b c1bf
00000320: 743d 13ff 1c2f afbf a627 1fc1 1ae9 b73f
00000330: 638d 8a66 0c02 9a3f 93e3 c7e9 1436 bd3f
00000340: d21a 12b6 c84e c0bf c4a5 3e92 2440 8fbf
00000350: 2de6 f373 2c33 b1bf 974a ae2c b003 91bf
00000360: 2c99 e692 7acd a6bf 8c44 eaf2 78d6 a33f
00000370: ea80 a9ca c159 983f b56b 23cc 6ecc adbf
00000380: ee2d 3c4a 9400 a43f 7647 957c f9a6 813f
00000390: 88b6 b123 bfa9 bfbf b84b 8e0b bd9c ae3f
000003a0: ac88 0967 7f72 b9bf 5d92 f507 d36e abbf
000003b0: 065f 29a0 91c3 793f 1321 6f5c b12a af3f
000003c0: 0818 e545 8f35 9a3f c461 d081 1f9b b4bf
000003d0: cb88 d790 e748 b0bf 94da a8e0 6cf6 b6bf
000003e0: 36a6 370d ecb4 b03f 3648 ae11 7b24 bc3f
000003f0: e09c 2c25 0138 bc3f 1277 1439 a311 a5bf
00000400: f13e 6d1e 6e5c a13f 2bbf 2834 b5d6 8d3f
00000410: c875 74b6 0810 bcbf c48f f900 d41b ab3f
00000420: 853d 900a 6f4a 913f 97b3 2489 535f bc3f
00000430: 2589 832d d84d b0bf 8869 eb07 6861 a73f
00000440: 2060 7951 15eb a53f cfe9 a5a7 9908 88bf
00000450: e6eb 6bb2 4285 aebf 0e65 12bc cd10 b43f
00000460: b7c5 33a2 a6b5 a6bf 1dd3 04ef 66e5 b0bf
00000470: 19c5 0543 cc63 b7bf 2329 7d5d 128a babf
00000480: c940 8562 b70c b6bf 80f2 e9fb 9fc4 98bf
00000490: f579 1ac4 f992 6a3f 75b5 65b7 b89d a2bf
000004a0: 5207 122f 3a71 a03f ea69 1067 6a7c bfbf
000004b0: 5b8b 59a2 521c 9a3f 0a1a 22e3 31e4 ba3f
000004c0: 40a3 75cd 7deb 96bf b558 e555 583d a0bf
000004d0: 9644 16bc 4aa5 b0bf 396e 27ad 978f 81bf
000004e0: 4b1a 8e24 1b84 ad3f ab43 d830 f640 9abf
000004f0: c7c2 5560 c1d8 ba3f df38 fd52 7308 b5bf
00000500: c971 e0c6 a93c 99bf 137f 95c8 4197 a93f
00000510: 4dea d7b8 98a0 ae3f de3f 6d51 1b28 a33f
00000520: 4065 85a4 315d af3f 4c49 a5f7 20ca 343f
00000530: 708b cf2b 7b2d ab3f d137 ef2f 870a aabf
00000540: 06e5 9b7b 290e b83f 2952 fb4d a8a7 bd3f
00000550: 6699 bc26 5e91 37bf 449d a5bb cec9 b13f
00000560: 98dc 9a6e 85f5 afbf c328 2532 3a89 b73f
00000570: ea5d a801 5814 a33f 359a 03fc 8e2c b9bf
00000580: bb99 b085 7aaf afbf 8618 f987 f3eb a83f
00000590: aaad 3e4c f2a7 87bf c5bf c4af 60dc 84bf
000005a0: 7179 168d ebf9 b03f dda0 dfb2 ccdb bf3f
000005b0: 4ff0 6307 54b5 a1bf 75c5 f088 ffd4 97bf
000005c0: d6db a512 50e3 b53f 9519 02d5 a587 b4bf
000005d0: b13b 3103 a8bf b83f a624 a38e 0197 b43f
000005e0: b573 43a3 2dc4 a43f b1a2 1566 3e94 a53f
000005f0: 3391 9dc6 329c a2bf 7c11 b81b 9a64 bebf
00000600: f45b 7c8c bcf1 b8bf ba49 9957 9e75 ab3f
00000610: 4669 9c3d b9da b73f 9ee3 1eb3 a8ef a03f
00000620: 0305 c116 232c 91bf be76 830f 4017 a8bf
00000630: e216 c695 8189 b8bf d5c4 3e4b bfd6 b83f
00000640: ca64 5d0a 3444 ba3f f500 0afd 1486 b83f
00000650: 9d27 d327 c972 bdbf 3f07 7d58 8614 acbf
00000660: 56bb 513a 749d b3bf c51b a046 fefb 943f
00000670: 559b 0b2c 45dc bfbf 1399 79af e8c9 b0bf
00000680: 3ec3 e5f8 6b9e b5bf 8fb6 76d1 7800 b03f
00000690: e431 3a27 cbf8 babf e49f c2bd b57f b8bf
000006a0: a79d 88f0 30c5 933f d010 2ff0 2639 ad3f
000006b0: e537 e852 5772 87bf fbaf be91 11b8 a73f
000006c0: 7496 34ac 7ba5 a3bf ceae ec97 2930 bdbf
000006d0: 422d 257f 1fe2 773f eeed cf8c 8bcd babf
000006e0: c8c0 e7da 8d33 473f b1b3 21d0 e522 b23f
000006f0: b510 3870 cff8 b4bf 2f2c 01ac ed5a a9bf
00000700: ead9 63b5 691a c03f 9eaa 819d de62 a5bf
00000710: 49f8 e9d2 df0b 9c3f a927 ae12 1b6c 643f
00000720: dcff 1d24 2f5a b7bf 2e97 1744 fc4c b8bf
00000730: 2c1a aab0 4715 a0bf 594e 97ac 4911 b9bf
00000740: fa03 d721 8f8e ae3f e8b8 fa8f b2e3 833f
00000750: fced 9854 a52f b73f 6cea d7fb 97a0 a73f
00000760: 2505 0d9e 3e84 afbf 8a2b 9d8c b16f ae3f
00000770: ebf3 ebfd 65f3 a03f 1c6a ee25 577c b03f
00000780: 0b45 3c76 4db1 acbf 8a5e 8fe3 6607 b3bf
00000790: 7818 a97d cd9b b9bf 3fbd d771 551c b4bf
000007a0: f6b0 aca1 3755 a63f f182 814f 61f5 bebf
000007b0: cd09 f5f8 f62c 7d3f 57ce 83fb 70c3 b5bf
000007c0: 9a57 97b1 a0a5 b63f 27cf d967 25b8 b43f
000007d0: ea96 2885 ee95 a1bf 39b8 7c63 4fc9 b63f
000007e0: 5f8d b99d bd05 9ebf 0584 fbfe 1717 773f
000007f0: 90d8 bb22 bbc0 a13f bfc0 e403 3f04 afbf
-0.10636683291519923 -0.026094871288057302 -0.07377617611483564 0.013996692435388704 0.0183926225865315 -0.08998837232129638 -0.04976608739480216 -0.0725615645089554
0.0016540526546946156 0.029696793173255433 0.014339371369787407 -0.09532203505348881 0.010072021078745197 -0.08313305594669178 -0.07210883028188979 0.09207393821745735
0.0671742296998381 0.018035041414557765 0.10168099171211974 0.07568737740271268 -0.11859014318101677 -0.019070776472647474 -0.1201929647282054 0.022952639210958994
-0.05218606415635342 -0.07418825804913232 0.12489597453124944 -0.09771237231492835 0.08625172351530033 0.057292286952456146 -0.0077663811797954955 -0.02691724854476968
-0.054677336189868087 0.10625413470337683 0.11082997843652038 -0.05884443890047234 0.0974971365529683 0.028761894001846828 0.10287821112733678 -0.05758065396773657
0.05111372636373039 -0.03583270806198806 -0.05208005937223107 -0.11297784406687561 -0.03939811771171563 -0.06304462384899641 0.11216095655622522 -0.04997832975991377
0.1164979117243384 -0.07183033976782731 -0.0088590548246349 0.07265237354354835 0.020543214223378098 -0.04261508992930342 0.06789474176703487 0.10514013011031773
-0.07639412505916446 0.0978655938995373 0.0676724617412067 -0.09964310907032006 0.023675115495251926 0.12777264201803387 -0.0062345973974356934 -0.00622353497074437
-0.02057034396638964 0.07892967836821455 -0.006766876347874874 0.06555884849449686 -0.0012764186827883912 0.03844261326782212 0.126745893071402 0.010859568350229479
-0.024850390944840477 0.10020193318577196 0.10364453850161462 0.06890080101361586 -0.10629077379834309 0.03846085441514855 0.1221878583346575 -0.02915429205706264
0.017043983780125296 0.029737375306251878 0.06277998475033666 -0.013217938631208724 0.06478380204228196 -0.03529618294029649 -0.06003575642249897 0.04233907916075661
-0.05900509915326119 -0.01672944616441746 -0.06748446656849286 -0.11035203600023415 0.03462643945912643 -0.0691535797126449 0.00613394572575313 -0.07988667922550258
-0.0988668153813731 -0.08504456236499394 0.12055359544571144 -0.13609479914996678 -0.060906320702652034 0.09340064253697608 0.025398439177150133 0.11410647113360843
-0.12740429773494683 -0.015259061539682935 -0.0671870978439066 -0.01661563179693334 -0.044536428863738514 0.03874566998741455 0.023779895777239192 -0.05820032350467078
0.03906691938581362 0.00861925994346156 -0.12368387814941617 0.05978956953108344 -0.09940334573323878 -0.05357989761504165 0.006290024614450612 0.06087259534212044
0.025594938889547364 -0.0804919902733508 -0.06361243520908315 -0.08969765171864658 0.06526065180482807 0.10993165189418694 0.11022956044745369 -0.04115018913056025
0.03390831109447657 0.014569678930541471 -0.10961965994325518 0.05294668685817741 0.016885504741421826 0.11082956407763188 -0.06368781195809399 0.04566502663301991
0.04280916804845014 -0.011735153607095676 -0.05961044719693813 0.07838140336606989 -0.04435463647849807 -0.06600039801999143 -0.09136654506962251 -0.1036693075413138
-0.08613153605733993 -0.02418756461200866 0.0032439115755800115 -0.036359569918981295 0.03211385559644832 -0.12299218193258069 0.025498667868656493 0.10504447741741543
-0.02238270346188931 -0.03171802567037344 -0.06502215473143944 -0.008574662181607727 0.05764851399640188 -0.025638434153794225 0.10486992456368248 -0.08216019416906616
-0.024645474208328886 0.0499821240762214 0.05981900459660903 0.03741536492327645 0.06125788815797728 0.0003172235953076321 0.05308136853979917 -0.05086157283913873
0.0939660956172653 0.11583949951029439 -0.0003596167432412728 0.06948558884834194 -0.06242005324514216 0.09193767284628777 0.03726458568797482 -0.09833615925490664
-0.061885670489846466 0.04867516550852806 -0.011550801231200964 -0.010185962070494168 0.0663134784176458 0.12444762579946507 -0.03458654966559093 -0.023273461087403875
0.08549976783056876 -0.08019482088466241 0.096674443034529 0.08042916996341151 0.040559221439003514 0.042146635018814556 -0.036347948784881366 -0.11872256447538193
-0.09743860654667441 0.053631733124933814 0.09318120721983289 0.03307845293551924 -0.016769932044785395 -0.04705238522886422 -0.09584817797266568 0.09702678286591333
0.10260319951102584 0.0957959287425217 -0.11503274175916407 -0.05484409170322956 -0.0766213076001184 0.02049252801955583 -0.12445480656934411 -0.06558088573510572
-0.08444857431983352 0.06250720132694652 -0.10535878856371245 -0.09569869883364351 0.019306912117966892 0.05707666093761221 -0.011448557107566823 0.046326207200166857
-0.03837191083065941 -0.11401615103812476 0.005830882104713555 -0.10469886958883709 0.0007080500270699947 0.07084499675120416 -0.08192154397699165 -0.04952185368218697
0.12580605847297416 -0.04176994011580358 0.027389046905675483 0.0024929550904219844 -0.09121985084311696 -0.09492470419317264 -0.03141235381649596 -0.09792004073761386
0.059681389695022305 0.00971164228334627 0.09057076754918819 0.04614710759411342 -0.06155582122165474 0.0594459041736491 0.03310698246603024 0.06439728427941599
-0.056040211375270564 -0.07433169418015431 -0.10003361051448845 -0.07855733899463234 0.04361890648428528 -0.12093170348226658 0.007122959839139087 -0.08501344814777077
0.08846477828714541 0.08093484673900929 -0.034347013239580296 0.08900924853216531 -0.02931877398658622 0.005637258276437689 0.03467354582782989 -0.06057927057770617
