checkpoints/final.ckpt (torch, 37117 bytes, 4 tensors)

linear1.weight f8 [64, 64]
0.0712105929851532 0.10845667123794556 -0.11402267443271275 -0.04657289751098802 -0.0877080918060202 -0.07470053222355358 0.04578114204972097 -0.08474010724362574
-0.0799217290705232 0.04353159872763626 -0.07511881343346112 -0.12127088842127699 0.08881171314512633 0.1193587950540626 0.0734142171695633 0.09935876659826086
0.053933470305355266 0.09908951360292319 -0.08782894093700476 -0.029234500982846676 0.019604732556070915 0.03499956262532214 -0.11767927341642108 -0.05972585861427703
-0.0690348529485247 0.09382172936282399 0.025865736735502128 0.06509127203974398 -0.07529906182162796 -0.05071474058188745 -0.007628607597252343 0.02375235346137395
-0.06716877504815719 -0.05938433918179162 0.11724106769997829 0.11679449865046353 0.1236347472591781 -0.03925479394915917 -0.03436789400478938 0.049381594765936364
-0.040751289013498615 0.06718367423872264 0.09618437821291617 -0.014799159701072836 0.061656841900769754 -0.10830617257711098 0.033754153655042675 -0.03368954622628517
0.005853367539336059 0.1084890883621488 0.06187963903955163 0.12346151441988719 -0.09814553336324915 -0.002983102425540777 0.12012741362901858 0.052135117587123164
0.00546900630531888 -0.07544150402012541 -0.061290503255012285 -0.02568674378153258 -0.012144250752270344 -0.017229696133881256 -0.038780390786433486 0.0018727410812396
-0.08988827466964722 0.03570586442947388 0.007131964845392696 0.02240432442282719 0.011059308538237542 0.03968422764823535 0.0879813643281262 0.1211839365056271
0.12010322819038731 -0.0014253919928708505 -0.09799179316559373 0.08815409669463099 -0.09958888622111144 -0.005217746168131932 0.03575386277138267 0.04655402454636108
0.018445401483158416 -0.04839101254767637 0.07575179630035662 -0.058660765685559266 0.09643373356657532 -0.08990984508189169 0.017937497309423355 0.0833811846856542
-0.09496513671823344 -0.07101289601748449 0.10392872009314072 -0.025435845881334983 0.04849662695738603 0.0005445690043245226 -0.11828606614800019 -0.11564131122884491
-0.058071665856557375 0.0634646262520816 -0.11600957438700232 -0.010328420470850214 0.0968754218248848 0.09296100058169868 0.11281990962832156 -0.04766119595111032
0.0542602279111379 -0.020320524009545596 -0.007065255996336947 -0.027719946957747005 0.006810565877489536 -0.024853185040527095 0.04410634305753067 -0.029384400446932496
-0.05924931538625722 -0.02552670625810644 -0.03803515354788974 -0.037294937310850186 -0.07701574329146672 0.13779831588427874 0.0483506091094812 -0.08818539024797827
0.007799649659770421 -0.009633476943490494 -0.02419508763926241 -0.09949690006335403 0.08071044921325156 0.1285398373591358 0.05802150986942458 -0.06043364017486299
-0.05755564570426941 -0.07943548262119293 0.11501997673037134 0.1211987361866958 0.08975164255886711 0.11303598755387814 -0.12077155580092179 -0.07235821781551674
0.04899437348795797 0.0413485496189096 0.039391262105936076 -0.10076290237476238 0.03580174838952623 -0.001039432700226707 0.06042508902259379 0.026228791445181154
-0.03273119506629329 -0.10297099219179652 0.12108312480048455 0.10118698085263511 -0.08011617923152306 0.02716315229836633 -0.11001461432762587 -0.05956796254829033
-0.10017862550212023 0.08067061784412731 0.10135937473696437 -0.09645153820699864 -0.07346025586888087 -0.06749447284094076 0.03408967688902219 0.11492950050546073
0.08964183166845645 0.08115624217702293 0.1284651044672647 0.07592398488680766 0.0961559825771561 0.14113381482818016 -0.041407172452215035 0.06284625550016155
0.11069010879544582 -0.02181227164248065 -0.04461295057663646 -0.04365679208406237 0.08954559399945237 0.08827357654703802 -0.09880627175511413 -0.060207604937267616
-0.05480712794156938 0.14520276854236183 0.05931143615947072 0.14101668377232024 0.015025733708445777 0.007988849640168287 0.13323691057453657 -0.0592906833356796
-0.07441368320912034 0.12822021926158073 0.09552371837064366 0.1293962739485862 -0.016772206733622723 0.04188714982298191 0.103091082642121 -0.0489304886629328
0.07824638485908508 0.04018634557723999 -0.1068830510884796 -0.011696537237452115 0.05827050854519228 -0.08445660540835918 0.011298788717796267 -0.08103160769461637
-0.12337308287112506 0.055763816980227136 -0.06179041022951339 -0.016387959311669906 0.08055860931733515 0.02290578101909807 0.0004482719900804029 -0.04825644588651789
-0.0705987988564453 0.09212277422826318 0.002025257802826061 -0.038556045955021254 0.0502919258275043 0.11037580539496117 0.05189157086006747 -0.011346440216331034
-0.021106315436801318 -0.09870951144552885 -0.03753386302133756 -0.043851568135060345 -0.08120001691996029 0.08904924762685151 0.07697384729182492 -0.04671991063501451
0.03358437790667785 0.06030985520933058 0.06641421874114495 -0.02677002375275521 0.10658511939555862 0.008855608401984042 -0.09668911287197232 0.09498150885202777
0.0565902143267747 0.10178509580784528 0.10118555101849774 -0.08391704105769758 0.08931306409593773 0.0623539236246063 0.08222174279123694 -0.0784912909499093
0.10641924092319771 -0.0429474388698814 0.017782839425553684 0.12359228195971819 -0.005327599272250577 -0.050095601090243906 -0.09129971552269389 -0.11542304915565126
-0.0997022684205986 -0.08930174080326936 0.09873052087987604 -0.02033943631705736 -0.14373802414860495 -0.10356265644887204 0.10378064803082607 0.014659012354180519
00000000: 0000 0080 db3a b23f 0000 0000 d1c3 bb3f
00000010: 88e2 b009 9730 bdbf 3e1a 611f 67d8 a7bf
00000020: 9dc3 e699 0974 b6bf 5ada e4f6 921f b3bf
00000030: e310 c137 a070 a73f 0c5a 4515 87b1 b5bf
00000040: e000 991c c075 b4bf 146e c111 c649 a63f
00000050: 95d3 028f fc3a b3bf 81eb b9e3 9b0b bfbf
00000060: e5c5 754b 5dbc b63f 3c46 3f49 4c8e be3f
00000070: df01 ce2d 46cb b23f fb44 1c7d 936f b93f
00000080: 7619 3ef6 2a9d ab3f 0915 4d2c ee5d b93f
00000090: ff7c f71c f57b b6bf ac79 8b26 a6ef 9dbf
000000a0: cd5a b354 4313 943f 643b b371 76eb a13f
000000b0: 0b96 bd96 3a20 bebf 1f9b f242 6394 aebf
000000c0: 8db5 b2a3 44ac b1bf 5a7a 446b b304 b83f
000000d0: afb5 7635 8c7c 9a3f e96d aa54 d2a9 b03f
000000e0: fa80 f19f cc46 b3bf 76db 7250 48f7 a9bf
000000f0: 63b5 4ec2 2c3f 7fbf 024e 4775 8952 983f
00000100: 56eb 240c f931 b1bf fc58 5cc5 9f67 aebf
00000110: d5ff 84b7 8203 be3f f773 0e88 3ee6 bd3f
00000120: ff9c 20dc 86a6 bf3f 5b1a 7250 3419 a4bf
00000130: c5e0 9029 ab98 a1bf fb89 165d 8b48 a93f
00000140: 7867 2a5b 5add a4bf c130 ae03 f332 b13f
00000150: 8281 cf16 8a9f b83f 0b26 6597 054f 8ebf
00000160: 88af 134f 7c91 af3f 9a72 2c0d f4b9 bbbf
00000170: 15ea 1a74 3948 a13f 6098 8496 c13f a1bf
00000180: 6f58 7262 b3f9 773f 2200 7dde f0c5 bb3f
00000190: 3123 ed23 b0ae af3f 1180 bf7e 2c9b bf3f
000001a0: 772b 0bd0 1020 b9bf ef52 77eb 0470 68bf
000001b0: 58c3 e390 abc0 be3f 9c05 0542 74b1 aa3f
000001c0: 0041 9133 ab66 763f a909 8768 2250 b3bf
000001d0: f041 1206 7861 afbf e2fd ed31 a04d 9abf
000001e0: 4bfd 85be 15df 88bf a0ff a855 a9a4 91bf
000001f0: 02c3 4efc 05db a3bf 54c0 a86c d8ae 5e3f
00000200: 0000 0000 eb02 b7bf 0000 0000 0a48 a23f
00000210: 0662 463c 6836 7d3f 0f75 bdc2 28f1 963f
00000220: f8a2 e743 43a6 863f d516 d5b7 7d51 a43f
00000230: 105f 725a f285 b63f 019b 1714 e905 bf3f
00000240: dfc3 38cd 15bf be3f 3438 93ff 865a 57bf
00000250: ea30 ec7a fd15 b9bf 2dd6 4f52 4491 b63f
00000260: 835f 5d41 a87e b9bf cd50 6a12 345f 75bf
00000270: db15 9e8e 544e a23f 96fc d8d9 edd5 a73f
00000280: dcea 86f0 59e3 923f 890c a0f0 b4c6 a8bf
00000290: 3d29 b93f 7864 b33f 1608 5bac c808 aebf
000002a0: 654d e693 e1af b83f 2714 37e4 5404 b7bf
000002b0: 93a5 4311 355e 923f 6c9d 5325 7858 b53f
000002c0: 0509 779c a24f b8bf af45 fdb1 e62d b2bf
000002d0: 1249 ea95 129b ba3f 6662 d3b8 da0b 9abf
000002e0: 361f 7fc5 8cd4 a83f 89cb 3008 2dd8 413f
000002f0: 789b ade1 fe47 bebf d860 cb41 ab9a bdbf
00000300: f836 5bc3 91bb adbf 289f 34be 373f b03f
00000310: 98da 03b0 cdb2 bdbf 6a13 2221 1127 85bf
00000320: 6d2a 86e0 d3cc b83f ea44 4dc9 4acc b73f
00000330: 20fa 30fe c3e1 bc3f 94e9 cb5b 0c67 a8bf
00000340: db24 b420 ffc7 ab3f b1fc 3b48 e7ce 94bf
00000350: 3dfc 1237 75f0 7cbf d581 8526 9e62 9cbf
00000360: 178c 605b 65e5 7b3f f44f cd03 1d73 99bf
00000370: 4cdd f449 1b95 a63f a883 babb f116 9ebf
00000380: 20ea c91f ed55 aebf 1171 3642 ac23 9abf
00000390: fb4c 2cf9 5779 a3bf dde9 1c70 5218 a3bf
000003a0: 75c7 b6c2 4db7 b3bf 7d5b 150e 60a3 c13f
000003b0: 81da bb39 69c1 a83f cb9d 1957 5193 b6bf
000003c0: 7cf2 5783 86f2 7f3f 073d 5a63 b7ba 83bf
000003d0: acb6 89d8 98c6 98bf 0b53 d3fb a078 b9bf
000003e0: 91fe d0a3 70a9 b43f 2167 d84e fe73 c03f
000003f0: c31a b5ce feb4 ad3f 732f 4278 28f1 aebf
00000400: 0000 0000 ef77 adbf 0000 0040 e255 b4bf
00000410: 7891 71fe f271 bd3f 2407 3d60 e106 bf3f
00000420: 3e78 8db1 f6f9 b63f daa1 d02d edef bc3f
00000430: 27b6 737a e2ea bebf 264f 1d73 1186 b2bf
00000440: 4e38 a35f ca15 a93f f853 b318 a32b a53f
00000450: 687f fc6c 172b a43f 5882 59fa 98cb b9bf
00000460: 53fd f154 9b54 a23f d326 0c5d b207 51bf
00000470: ce7b 6b8a 09f0 ae3f 13f4 e165 b8db 9a3f
00000480: afc9 bca8 24c2 a0bf 1183 e693 4e5c babf
00000490: d895 1dbd 4dff be3f 1005 8bd5 63e7 b93f
000004a0: b20b ae71 7e82 b4bf a96a 1c4b a8d0 9b3f
000004b0: 4b84 9ef2 ea29 bcbf 808a 1126 b17f aebf
000004c0: d232 4a70 4ea5 b9bf f77d 6361 d4a6 b43f
000004d0: b365 a31f b0f2 b93f e479 3f4a 0cb1 b8bf
000004e0: 133c 8394 4ace b2bf ce39 8359 5147 b1bf
000004f0: 9e36 bdbe 3374 a13f e33d 040e 056c bd3f
00000500: 539b 5e5f c4f2 b63f e33d 04ce a7c6 b43f
00000510: a99b 2e67 8b71 c03f 6222 1218 c16f b33f
00000520: 42cf 7bb0 ad9d b83f 06fc 853f ac10 c23f
00000530: b012 0127 5233 a5bf e99b 0c34 b116 b03f
00000540: 1762 44dd 2f56 bc3f f976 6cc5 f455 96bf
00000550: cad0 6837 82d7 a6bf d0a6 7fdc 2e5a a6bf
00000560: b781 bac5 75ec b63f d6d7 5edc 1899 b63f
00000570: 7ff1 d329 5e4b b9bf 8f23 5afc 87d3 aebf
00000580: 5f86 310c ae0f acbf 09cc 161b 0196 c23f
00000590: 2add 2a8d 115e ae3f e409 7fae d50c c23f
000005a0: 5a6a 02d7 cfc5 8e3f 695a 7f3f 755c 803f
000005b0: b8d3 c436 e80d c13f 97ba c433 595b aebf
000005c0: 4811 c26f c60c b3bf 520c 3528 8569 c03f
000005d0: 30ec 640e 3e74 b83f fbad 6a9e 0e90 c03f
000005e0: 0e53 9cbd bb2c 91bf 2f87 3985 3b72 a53f
000005f0: 5207 755c 2d64 ba3f 0e50 2bc1 6a0d a9bf
00000600: 0000 0080 f407 b43f 0000 0000 4e93 a43f
00000610: a7f5 eb08 b05c bbbf 3d59 4aa7 5af4 87bf
00000620: 28b8 0bd1 a1d5 ad3f f7fa 28b6 f29e b5bf
00000630: 9e02 38c0 d123 873f 289d fdc8 7cbe b4bf
00000640: c25f 23dc 6095 bfbf 6fdd 7534 138d ac3f
00000650: 53cc 481e fea2 afbf dccd 2a55 01c8 90bf
00000660: bfdf 6d30 7d9f b43f 1028 77f1 9c74 973f
00000670: bbeb 7f89 c160 3d3f 4fbd cea1 11b5 a8bf
00000680: 3aae 394c c312 b2bf 66f5 86ae 5b95 b73f
00000690: 4771 ee00 4697 603f 2e39 e138 9ebd a3bf
000006a0: a02d 5d01 ddbf a93f 98e6 70ba 9641 bc3f
000006b0: b169 902f 8891 aa3f 07c5 3d6d cd3c 87bf
000006c0: a415 29da e49c 95bf 7772 76cb 0645 b9bf
000006d0: e29f 5674 a337 a3bf b66b 0976 b673 a6bf
000006e0: b21a 1b39 86c9 b4bf 786d 4a76 eecb b63f
000006f0: 0304 c4dc 8eb4 b33f 47b5 7f10 aceb a7bf
00000700: 0908 88b9 f831 a13f b94a 80ef eee0 ae3f
00000710: 308c 7bb1 8500 b13f ecf9 1fe2 9969 9bbf
00000720: 5a4f 0b92 2949 bb3f 2f19 c8a3 e322 823f
00000730: 6614 aa21 9ec0 b8bf 7c83 3e4a b550 b83f
00000740: e13f 9d7f 64f9 ac3f 2405 b789 960e ba3f
00000750: 8cc2 73d8 4be7 b93f 977e eb52 967b b5bf
00000760: 66c9 6591 38dd b63f 2a6c 7d7d daec af3f
00000770: f7f8 4ef0 7b0c b53f 0b93 a657 0118 b4bf
00000780: c426 6e97 4a3e bb3f 6144 c9ea 34fd a5bf
00000790: 3c14 0d27 aa35 923f 8214 0e69 bea3 bf3f
000007a0: 0687 3f8a 64d2 75bf 6f4d b670 21a6 a9bf
000007b0: c8d7 4d0c 6b5f b7bf d7ff 536d 5d8c bdbf
000007c0: 9017 347e 1686 b9bf 48d5 3998 7adc b6bf
000007d0: 0bce 4b46 6746 b93f 5d0e 3477 dcd3 94bf
000007e0: 2578 74f0 0166 c2bf ede7 880e 1583 babf
000007f0: 8e05 4059 5e91 ba3f 7111 3955 8b05 8e3f

linear1.bias f8 [64]
-0.1052461064545364 -0.10341222730778231 0.006605276658135074 -0.11067387989793095 -0.047199934567380156 0.00847647216200905 0.06163175520227154 0.07598266029845696
-0.07276403042315778 -0.06509625856622946 -0.033076781029003646 0.0783962079824302 0.09292945664246323 0.02320433553401207 -0.05244747729760263 0.021042070836158094
-0.04351795929806425 -0.005092987290266641 -0.05439305872205853 0.08697447735207252 0.030256491948374518 -0.056206541510683904 0.019834016010903524 0.04422269309749018
0.0991084758671427 -0.07629073819536442 0.12435726349049185 -0.04176057905559924 -0.012940877466374871 0.12298987905150902 0.08912939259795723 -0.016708773092814412
0.10235742341158534 0.06593947591526653 0.017014815837264476 -0.02208770364106102 0.06853699444410845 -0.09011852781793274 0.10754570023555343 -0.006415264681875883
0.07041609670631517 0.008985366523762264 0.024103059062751373 0.06469078386380057 -0.06106578973929219 -0.08690536806608204 -0.03504026791039612 0.05155357377505093
0.03632495475389038 -0.008378138134252339 -0.12039462799537796 -0.07059810661459519 -0.11903638707007605 -0.08635017992450061 -0.05011982972694838 -0.025222300813940758
-0.08639645046109533 -0.020829375876494787 0.0901041800130289 0.09560362426247182 0.08850102647584585 0.07401895724201599 0.028944309948138132 0.021634367135043672
00000000: dbe9 40a9 68f1 babf 171f 4b46 3979 babf
00000010: 28c0 a473 220e 7b3f 0edc ae96 1f55 bcbf
00000020: a233 aefe 962a a8bf 2c30 c5d5 1c5c 813f
00000030: 7848 fa89 328e af3f dc81 0b81 9973 b33f
00000040: cd1b feda a9a0 b2bf 4748 a2fd 25aa b0bf
00000050: 8a94 8d99 70ef a0bf 493a 6a1d c611 b43f
00000060: 414b 1d91 39ca b73f 2ed9 f998 e0c2 973f
00000070: b876 804f 65da aabf 4b5e 5378 0d8c 953f
00000080: d29b f267 fc47 a6bf 8437 9c5d 62dc 74bf
00000090: 8a69 ae30 68d9 abbf 1758 d097 f543 b63f
000000a0: 79cb a3cd 8efb 9e3f 8b24 3893 1ac7 acbf
000000b0: 64ef 7548 5e4f 943f 1385 3059 5ba4 a63f
000000c0: 9b14 9b4e 2c5f b93f f46a 8931 ca87 b3bf
000000d0: 1b33 b6ab e0d5 bf3f 9c94 9c82 a461 a5bf
000000e0: 8f3a ff2b bf80 8abf e6e5 43c4 437c bf3f
000000f0: ed10 5212 2fd1 b63f 4aae f5c7 1a1c 91bf
00000100: bd3a 0e9a 1834 ba3f 824a 92d4 68e1 b03f
00000110: 7a28 46f6 546c 913f 17de 20b3 289e 96bf
00000120: c91d b4f5 a38b b13f 39df bd01 0212 b7bf
00000130: 984d 5671 1d88 bb3f 55bb 0f80 e446 7abf
00000140: 5d31 7710 ca06 b23f 88a5 e57a eb66 823f
00000150: 09de a1e9 78ae 983f 5931 0c41 938f b03f
00000160: 2c5a abe3 0344 afbf 6ecf b021 6e3f b6bf
00000170: cabb 6f49 ccf0 a1bf 1827 b6e2 3a65 aa3f
00000180: dbad 6439 2f99 a23f b0ca 4daa 8e28 81bf
00000190: 1baf daad 2ed2 bebf 97b7 11af b712 b2bf
000001a0: 4afe 7f2d 2b79 bebf c489 c79e 0b1b b6bf
000001b0: aedd 1d6b 4ea9 a9bf 8ac4 80f4 dfd3 99bf
000001c0: 278c 38e9 131e b6bf 7b17 bec0 4b54 95bf
000001d0: 118c 634a 1111 b73f 901d 96a7 7a79 b83f
000001e0: dc4d 60d6 00a8 b63f 7e73 a308 e8f2 b23f
000001f0: c2b8 87c2 93a3 9d3f cc38 42cd 5127 963f

linear2.weight f8 [4, 64]
0.006217348667667495 -0.01995280674762933 0.15630841849585525 -0.03832192562748837 -0.11185204213470842 0.051916754880171626 0.02001703282650963 0.11725933869235547
0.07468841180440569 0.1607744047648121 -0.06202677439251559 -0.1750723796527667 0.012625187899066498 0.016228587192500497 -0.1438155964135483 0.09369754450410638
0.06513763599477927 -0.011647636995993046 0.12432489405960506 -0.06240892979822496 -0.058818290665298686 -0.013939211555071834 -0.1916328518546728 0.087360634878506
-0.05656122760672083 0.13259684659691864 0.08726308957106839 0.1484548390356139 0.005128139958326997 -0.18941388813284557 -0.15928691588090368 0.02746623731857234
0.1282218416665035 0.0528522172885343 -0.151610261640044 0.15186021461468494 -0.02954839737159015 -0.09939205830486587 0.038000045477962666 -0.008509885473890918
-0.051956115259890086 0.06303542655996515 -0.007204318706940084 0.10923043496971992 0.030835847448152123 -0.08067103942595479 0.05907648252103042 0.11546254046783465
-0.2045971557096611 -0.06372796066635966 -0.05190872586403025 0.07450896915730175 -0.12183495892304932 0.13963602359734872 0.09644041535894779 -0.19678338494920958
0.07020649835226571 0.016529402719381355 -0.14689793836310608 0.0451656368786238 0.05513820999133704 0.08513059231983403 0.21445791106066497 -0.1049462669494551
0.017508276810090862 0.053528991852976576 0.16957120468793843 -0.013291644811780013 0.089328681893005 0.008488104150903477 -0.023347146199254883 -0.09097144116232143
0.15552344311229183 0.028591676440675416 -0.04879850936461088 0.03261898071257976 0.014359675152935795 -0.004124906891650574 0.15346427711172905 0.1837358927277141
-0.004123209626893792 0.004818858050788808 0.09867138813034397 0.08914481776229939 0.12583153343930847 -0.019117377099298775 -0.09084088739127609 -0.11590658633879826
0.12182436476464249 -0.09679263364965261 -0.07041388671600775 -0.054628423981158 -0.05554063185734622 0.14900843941843295 -0.056597344756997084 -0.16633279565315942
0.05854899444857296 0.04998157382401499 0.1278193903507362 -0.1385268182414885 -0.004870465395571753 -0.09632000668729962 -0.1111766065646107 0.1093574004041584
0.05647490331824415 0.05296055938852424 -0.050395314570568714 -0.10510904802224834 -0.07072788362413499 0.14405281811670875 0.11635811371961455 -0.03061422785752422
-0.16170864973004098 0.03142912894209394 -0.06718389669482239 -0.19075715684484099 -0.11441770684070307 -0.020226498316506088 0.03633295105928738 0.11616560362071511
0.12206951444487825 0.05617575352880125 -0.2527026763381503 0.07539099770731826 -0.0670508017549033 -0.011047888672578096 0.012839663095403504 -0.1632122151543787
-0.003768220543861389 -0.10971127450466156 -0.11871331930160522 0.028582781553268433 -0.057806819677352905 -0.03127589821815491 0.026198208332061768 0.11727875471115112
-0.03839680552482605 0.07046177983283997 -0.06693871319293976 0.10079553723335266 0.015342161059379578 -0.09784375131130219 -0.09816005825996399 0.10365886986255646
0.08940993249416351 0.011753320693969727 -0.04612194001674652 -0.05038285255432129 0.027859732508659363 0.03689616918563843 0.0521630197763443 -0.0058999210596084595
0.03336195647716522 -0.07474255561828613 0.06738924980163574 0.09737695753574371 0.06896431744098663 -0.09837724268436432 0.10918618738651276 -0.1069549024105072
0.1127983033657074 -0.025969594717025757 -0.0014388859272003174 0.08797930181026459 0.09174981713294983 -0.043227002024650574 0.06278857588768005 0.06186161935329437
-0.04775601625442505 -0.04734042286872864 -0.06375081837177277 -0.0643949806690216 -0.0769309401512146 0.11058388650417328 -0.021876513957977295 0.10502070188522339
0.08403763175010681 -0.04541461169719696 0.01316024363040924 -0.08998551964759827 -0.07253618538379669 0.0026170015335083008 -0.09011006355285645 0.07956914603710175
-0.03168800473213196 0.04162375628948212 0.03572387993335724 -0.05835600197315216 -0.022115617990493774 -0.12193132936954498 -0.039488643407821655 0.04939596354961395
0.10396893322467804 -0.08096233010292053 0.09935413300991058 -0.07759945094585419 0.06674942374229431 -0.06242379546165466 0.017196327447891235 0.09804576635360718
0.08720889687538147 0.009649783372879028 -0.11287210881710052 0.09239351749420166 -0.04267995059490204 -0.09101426601409912 -0.08953341841697693 0.006914108991622925
0.1239568442106247 0.028237923979759216 -0.028099551796913147 -0.02233080565929413 0.047362908720970154 0.00758381187915802 -0.09875021874904633 -0.12152417004108429
0.0038945674896240234 0.07706756889820099 -0.013641878962516785 -0.03467392921447754 0.0671568214893341 0.030540287494659424 0.04887259006500244 -0.11037662625312805
0.015065386891365051 -0.11883443593978882 0.025020435452461243 0.08328880369663239 0.1244189441204071 -0.11548866331577301 0.02260430157184601 0.12388917803764343
0.004910603165626526 -0.06748296320438385 0.041994303464889526 -0.1211664080619812 0.06277643144130707 -0.06262391805648804 -0.049703165888786316 -0.019733205437660217
-0.11810696125030518 0.027200162410736084 0.07631571590900421 0.08257049322128296 0.004767969250679016 -0.0453965961933136 0.024805963039398193 -0.11904987692832947
-0.006514757871627808 -0.03298647701740265 -0.03058399260044098 -0.06637382507324219 -0.11167512834072113 -0.05817195773124695 0.03250885009765625 0.11463266611099243
00000000: c89b 20d3 5c77 793f be24 c731 826e 94bf
00000010: 2abc c30c ea01 c43f 8f61 9472 ee9e a3bf
00000020: 5e9a f5de 55a2 bcbf 4a4a a638 d594 aa3f
00000030: f048 6955 587f 943f ae91 d540 b504 be3f
00000040: fa10 179e c71e b33f 89d6 3f75 4194 c43f
00000050: e104 fc2e f9c1 afbf d150 8590 c568 c6bf
00000060: 300b 0f09 3cdb 893f b61f 020d 3a9e 903f
00000070: 4e1e a0a9 8c68 c2bf ff52 5cf1 8ffc b73f
00000080: af19 5630 dcac b03f 8baa c95f b7da 87bf
00000090: 1c8e 109a c1d3 bf3f ac68 ec30 10f4 afbf
000000a0: 16cf a055 6e1d aebf 03a6 164e 298c 8cbf
000000b0: 4f0b c7df 6c87 c8bf 99cf c23d 445d b63f
000000c0: b8bf 95dd 97f5 acbf 0ddf d7f7 eef8 c03f
000000d0: 5d0c dbb3 df56 b63f cea2 4b73 9100 c33f
000000e0: 37b1 9096 3e01 753f c129 78db b63e c8bf
000000f0: cbd0 317f 8363 c4bf 001a 1cfc 1b20 9c3f
00000100: 3f96 4bc4 9269 c03f 72f9 8c21 720f ab3f
00000110: ecb1 bd0d f767 c3bf d5b3 aacf 2770 c33f
00000120: 30d6 7061 ef41 9ebf 49ca e607 c271 b9bf
00000130: d212 26f1 bd74 a33f 5eae 6c7e a16d 81bf
00000140: 71a3 bcef fd99 aabf 7580 90f7 1623 b03f
00000150: a8c1 c793 4682 7dbf bd3c ec99 86f6 bb3f
00000160: d747 56b1 6e93 9f3f 099d 1174 dba6 b4bf
00000170: 07f5 c7d0 453f ae3f eff0 38fb f38e bd3f
00000180: a955 5056 3d30 cabf 301d e7c2 7950 b0bf
00000190: 7c13 edcf c793 aabf 7f0e ca11 0513 b33f
000001a0: 0a81 156c 9330 bfbf 2cd8 58dd 97df c13f
000001b0: d2b5 faad 51b0 b83f 6963 60ad 3230 c9bf
000001c0: b3c0 6396 0df9 b13f af9b 6870 15ed 903f
000001d0: 5547 8f38 8dcd c2bf 29e9 974a f31f a73f
000001e0: b575 5851 133b ac3f a21d e755 1ecb b53f
000001f0: 4ee0 2f59 5b73 cb3f 299c 6230 c2dd babf
00000200: 2d10 3c91 b0ed 913f f4f2 caea 2668 ab3f
00000210: ad2f 3d5d 82b4 c53f ba90 365e a638 8bbf
00000220: 2e43 5397 3ede b63f 6e89 dd0d 3662 813f
00000230: 32de 8575 50e8 97bf 3d83 a984 e749 b7bf
00000240: b0dc f632 31e8 c33f e686 00ed 2247 9d3f
00000250: 270d a143 1efc a8bf 735d c75e 6fb3 a03f
00000260: 82e9 4df9 9a68 8d3f 84cf 2d43 47e5 70bf
00000270: cc4a a6a9 b7a4 c33f 75f6 2e61 a884 c73f
00000280: 5371 08a8 7fe3 70bf ca1b b75b f0bc 733f
00000290: ab1c 1231 8742 b93f e59e e5dc 31d2 b63f
000002a0: beb3 7668 3f1b c03f ce07 b575 8193 93bf
000002b0: c332 7c30 5941 b7bf e154 b7d5 0dac bdbf
000002c0: 3526 85ae e12f bf3f 07db 04ec 66c7 b8bf
000002d0: 0d27 a1fc a406 b2bf 94b8 dcbc 41f8 abbf
000002e0: 4b5b da5a d26f acbf 4ea9 1063 b512 c33f
000002f0: 7221 8bc1 53fa acbf ad91 ca9e 644a c5bf
00000300: cd98 bd40 22fa ad3f 1b19 f451 2f97 a93f
00000310: dcef acc2 625c c03f 20aa fb2c 3fbb c1bf
00000320: d8c9 7199 0df3 73bf e425 ac8e 6da8 b8bf
00000330: 9077 46f1 1176 bcbf 5eba 4fba d8fe bb3f
00000340: a5de 974d 47ea ac3f 5968 1a7d a51d ab3f
00000350: 068a e727 6acd a9bf 93ed c433 6de8 babf
00000360: 62b9 14fb 381b b2bf 7b9c 5a9f 5270 c23f
00000370: 5ecc 0c35 a5c9 bd3f 62ed c20d 5659 9fbf
00000380: 7511 0979 deb2 c4bf 3168 e591 7a17 a03f
00000390: 4042 1fbf f632 b1bf 4932 1003 bb6a c8bf
000003a0: 90d1 f694 7a4a bdbf b2c2 2053 41b6 94bf
000003b0: a434 2289 3b9a a23f 1598 786c 07bd bd3f
000003c0: 311d 619c f23f bf3f c4fd 7780 11c3 ac3f
000003d0: 53fa 9ed8 472c d0bf 87d4 900d d34c b33f
000003e0: 3838 b5c8 3d2a b1bf b8fe 4e84 46a0 86bf
000003f0: f7fa b068 ae4b 8a3f a9a8 324b 23e4 c4bf
00000400: 0000 0000 88de 6ebf 0000 00c0 0916 bcbf
00000410: 0000 0000 ff63 bebf 0000 0000 ce44 9d3f
00000420: 0000 0000 db98 adbf 0000 0000 6503 a0bf
00000430: 0000 0000 b4d3 9a3f 0000 0000 fb05 be3f
00000440: 0000 0000 bfa8 a3bf 0000 0080 c809 b23f
00000450: 0000 0040 e522 b1bf 0000 0080 bccd b93f
00000460: 0000 0000 b66b 8f3f 0000 00c0 490c b9bf
00000470: 0000 0080 0421 b9bf 0000 0040 6389 ba3f
00000480: 0000 00c0 91e3 b63f 0000 0000 2012 883f
00000490: 0000 0080 4b9d a7bf 0000 0000 c8cb a9bf
000004a0: 0000 0000 4387 9c3f 0000 0000 0ee4 a23f
000004b0: 0000 0080 1cb5 aa3f 0000 0000 842a 78bf
000004c0: 0000 0080 d114 a13f 0000 0000 5422 b3bf
000004d0: 0000 0000 6c40 b13f 0000 0040 b2ed b83f
000004e0: 0000 0040 a5a7 b13f 0000 0040 402f b9bf
000004f0: 0000 0040 a0f3 bb3f 0000 0080 6561 bbbf
00000500: 0000 0080 59e0 bc3f 0000 0000 c697 9abf
00000510: 0000 0000 2093 57bf 0000 00c0 cf85 b63f
00000520: 0000 0080 ea7c b73f 0000 0080 d921 a6bf
00000530: 0000 0080 e912 b03f 0000 0080 53ac af3f
00000540: 0000 0000 7a73 a8bf 0000 0000 013d a8bf
00000550: 0000 0040 f951 b0bf 0000 0080 307c b0bf
00000560: 0000 0000 bfb1 b3bf 0000 00c0 394f bc3f
00000570: 0000 0000 cc66 96bf 0000 0000 a3e2 ba3f
00000580: 0000 0080 7d83 b53f 0000 0080 9540 a7bf
00000590: 0000 0000 c2f3 8a3f 0000 0080 4a09 b7bf
000005a0: 0000 0040 bb91 b2bf 0000 0000 4070 653f
000005b0: 0000 0000 7411 b7bf 0000 00c0 a45e b43f
000005c0: 0000 0000 6939 a0bf 0000 0080 b54f a53f
000005d0: 0000 0080 664a a23f 0000 0080 d6e0 adbf
000005e0: 0000 0000 7aa5 96bf 0000 0040 e436 bfbf
000005f0: 0000 0000 db37 a4bf 0000 0080 6d4a a93f
00000600: 0000 0040 b59d ba3f 0000 0080 f2b9 b4bf
00000610: 0000 00c0 456f b93f 0000 00c0 8edd b3bf
00000620: 0000 0080 7d16 b13f 0000 0000 03f6 afbf
00000630: 0000 0000 ea9b 913f 0000 0000 8719 b93f
00000640: 0000 0080 5253 b63f 0000 0000 44c3 833f
00000650: 0000 00c0 2fe5 bcbf 0000 0000 1aa7 b73f
00000660: 0000 0080 25da a5bf 0000 0000 b64c b7bf
00000670: 0000 0080 a9eb b6bf 0000 0000 f851 7c3f
00000680: 0000 00c0 a2bb bf3f 0000 0000 67ea 9c3f
00000690: 0000 0000 21c6 9cbf 0000 0000 e3dd 96bf
000006a0: 0000 0080 f33f a83f 0000 0000 3410 7f3f
000006b0: 0000 00c0 b147 b9bf 0000 0040 351c bfbf
000006c0: 0000 0000 80e7 6f3f 0000 0040 b3ba b33f
000006d0: 0000 0000 46f0 8bbf 0000 0000 c8c0 a1bf
000006e0: 0000 0080 3031 b13f 0000 0000 f445 9f3f
000006f0: 0000 0000 d405 a93f 0000 0080 a441 bcbf
00000700: 0000 0000 9ada 8e3f 0000 0000 ef6b bebf
00000710: 0000 0000 f59e 993f 0000 0040 6a52 b53f
00000720: 0000 0080 ebd9 bf3f 0000 0040 aa90 bdbf
00000730: 0000 0000 9525 973f 0000 0080 33b7 bf3f
00000740: 0000 0000 241d 743f 0000 0040 9046 b1bf
00000750: 0000 0000 4780 a53f 0000 0000 c304 bfbf
00000760: 0000 00c0 1d12 b03f 0000 0000 1f08 b0bf
00000770: 0000 0080 b172 a9bf 0000 0000 f134 94bf
00000780: 0000 0000 423c bebf 0000 0000 5cda 9b3f
00000790: 0000 0040 6d89 b33f 0000 0000 5723 b53f
000007a0: 0000 0000 9487 733f 0000 0000 393e a7bf
000007b0: 0000 0000 bc66 993f 0000 0080 0d7a bebf
000007c0: 0000 0000 38af 7abf 0000 0080 9ae3 a0bf
000007d0: 0000 0000 6951 9fbf 0000 0000 e0fd b0bf
000007e0: 0000 00c0 bd96 bcbf 0000 0000 b7c8 adbf
000007f0: 0000 0000 00a5 a03f 0000 0000 9158 bd3f

linear2.bias f8 [4]
-0.11087831379897646 0.042995550640212654 -0.065999835729599 0.07674318552017212
00000000: b52b 9a6b 8562 bcbf 6017 bf47 8303 a63f
00000010: 0000 0080 5de5 b0bf 0000 0000 71a5 b33f
