checkpoints/final_with.ckpt (torch, 24320 bytes, 4 tensors)

linear1.weight f8 [64, 40]
00000000: 0000 00c0 7ae8 a73f 0000 0020 add2 b03f
00000010: 0000 0080 0852 b2bf 0000 0020 e818 bcbf
00000020: 0000 00c0 8317 bf3f 0000 0040 9f95 c1bf
00000030: 0000 0060 cf47 c13f 0000 0020 5452 c13f
00000040: 0000 00e0 ea12 b3bf 0000 0000 0edb b7bf
00000050: 0000 0000 f804 b33f 0000 00e0 b119 ba3f
00000060: 0000 0080 b312 b4bf 0000 0060 9240 a23f
00000070: 0000 0000 9852 bbbf 0000 0020 fe19 b8bf
00000080: 0000 0080 238c b13f 0000 0020 92e1 9abf
00000090: 0000 0080 aff6 c13f 0000 00a0 6b00 babf
000000a0: 0000 00e0 050e 55bf 0000 0080 7fbe b0bf
000000b0: 0000 0000 7d1a c03f 0000 00e0 0205 c33f
000000c0: 0000 0080 8f35 a43f 0000 0040 3ef0 bc3f
000000d0: 0000 00c0 5975 ab3f 0000 00a0 74e9 b23f
000000e0: 0000 0040 54db b8bf 0000 0000 f253 a43f
000000f0: 0000 0000 1227 c0bf 0000 00e0 2d6d 8a3f
00000100: 0000 0060 de42 7e3f 0000 0020 b73c c03f
00000110: 0000 0080 19dc b8bf 0000 00e0 f7ca 903f
00000120: 0000 00e0 2004 a93f 0000 00e0 562b bbbf
00000130: 0000 00a0 43eb b2bf 0000 00a0 e118 c4bf
00000140: 0000 0020 2f66 b73f 0000 00a0 4d9a bd3f
00000150: 0000 00a0 2c53 963f 0000 00a0 241b 92bf
00000160: 0000 0060 4ecd b53f 0000 0000 5a5b c0bf
00000170: 0000 0040 6d39 92bf 0000 00c0 761b c1bf
00000180: 0000 00c0 16b2 b3bf 0000 0000 c207 c33f
00000190: 0000 0080 400d c2bf 0000 0080 ae4b c2bf
000001a0: 0000 0080 5d91 c13f 0000 00c0 b56e 913f
000001b0: 0000 0080 cd51 c3bf 0000 0020 c745 9dbf
000001c0: 0000 00e0 8252 813f 0000 0040 cfe2 abbf
000001d0: 0000 00a0 8f2c 5fbf 0000 0060 4514 b43f
000001e0: 0000 00a0 74c6 b3bf 0000 00e0 2211 b3bf
000001f0: 0000 00c0 78b3 bebf 0000 0080 0eb1 c0bf
00000200: 0000 0000 574e a6bf 0000 0020 04b5 69bf
00000210: 0000 00a0 02c5 b43f 0000 00a0 3c34 c23f
00000220: 0000 0040 c319 c33f 0000 00a0 7c83 9d3f
00000230: 0000 00c0 e50a c3bf 0000 0020 92bc 993f
00000240: 0000 0080 c9ee b2bf 0000 0000 d29f a03f
00000250: 0000 00a0 aba7 753f 0000 0000 cb69 c1bf
00000260: 0000 0060 1b2a 94bf 0000 0000 2ab0 b63f
00000270: 0000 0060 2963 b0bf 0000 00a0 a75a c3bf
00000280: 0000 0080 4f23 b5bf 0000 0060 1633 c33f
00000290: 161d c8c3 3d81 bb3f b1a5 fbb9 0dce bc3f
000002a0: 171d c873 f919 c03f 4f5a 04a6 ae51 c2bf
000002b0: c3a8 a7d4 91cb b9bf e90e 0df2 7e1b b7bf
000002c0: 5074 20ef 0aa4 b23f 654b f793 b881 c03f
000002d0: 6791 e8f2 50e6 b93f 591e 8f5a 2ab5 563f
000002e0: 7f51 4fe9 a0cf b9bf d11d 1a04 29e4 bebf
000002f0: 97cb 78da 5b2a bf3f 2b78 1e0a ccab b1bf
00000300: 7832 6a93 d122 a23f 43b6 a595 2dc5 b0bf
00000310: fa61 6916 71c5 c13f 27b7 a437 4db3 c2bf
00000320: ede7 d186 f366 c63f 775b 7f33 197c c1bf
00000330: 0ed4 58a6 fac5 a83f 00ae 9e94 3be0 ae3f
00000340: e160 1bb4 c065 c33f c3de 8f82 897d b03f
00000350: 9791 299f 10d4 bdbf 9196 6b56 5bb3 c33f
00000360: 8f19 35d8 232b 593f c1ff e6ef 4cdd c23f
00000370: f15a c9b3 d85e b3bf d0a7 2f23 c43e be3f
00000380: 39ee c896 c1a3 c03f d9c7 188c 71e8 bbbf
00000390: 1777 a101 9e90 7abf 66d0 e2ce 9ed0 bfbf
000003a0: 72cb 0709 c142 b63f ec85 b9fd 4050 b33f
000003b0: ba9e b1b6 e42b a33f 9f55 2222 6ddd a93f
000003c0: 0000 0080 0ff3 bfbf 0000 00e0 a321 c13f
000003d0: a47b 4cc8 7446 a23f 5649 528c f869 aabf
000003e0: 5c84 b377 d98f bbbf 5649 522c 22ee b0bf
000003f0: 7bb9 727c 4576 b23f fc91 84bd 30bb bb3f
00000400: 5c11 ce1e 42c9 adbf 946a dbfa dbf3 8e3f
00000410: 692b 030d 0b34 99bf 5191 64a2 929d a53f
00000420: 7bb9 72dc e203 c13f fc91 841d da92 c23f
00000430: d0b0 0b0d 786e b23f 9cfe bf29 741e a93f
00000440: 1fa2 cb31 1fda a6bf 813e 6f75 bb17 b63f
00000450: 31f2 f236 a7a1 bebf 290e 0375 8b86 b43f
00000460: 6925 b4aa c7c9 c2bf a440 c802 5f1f 623f
00000470: 5168 3245 18c8 a73f 8425 e8eb d111 b83f
00000480: 30c1 0293 201a b13f 8374 9c9e 6798 c33f
00000490: 61b3 6805 ba86 c33f d2f7 f329 de49 bf3f
000004a0: 79eb ff60 6c39 93bf 22f9 8593 cfae c13f
000004b0: 7546 6467 97af 96bf 4386 c42d 7266 b5bf
000004c0: 70a0 c0b6 dda5 c03f f94e a302 ac7b b8bf
000004d0: fb40 4263 bbbd b93f fa73 d081 f58c 8d3f
000004e0: bb76 a67e 1b37 c13f 0c49 b14e 2b2a ab3f
000004f0: 25e7 9228 afa4 c43f 8689 f58f eb3e a23f
00000500: 0000 0040 290c aebf 0000 00a0 6798 b83f
00000510: 0000 00c0 d16a c33f 0000 0000 7c5d 80bf
00000520: 0000 0080 ff3d a9bf 0000 00c0 2f98 b53f
00000530: 0000 0040 9a03 a1bf 0000 0000 cf0c 9abf
00000540: 0000 0000 6fb3 be3f 0000 00e0 3f38 853f
00000550: 0000 0060 d7af a83f 0000 0040 65f7 b63f
00000560: 0000 0000 796c a83f 0000 00a0 4a23 7f3f
00000570: 0000 0080 28d9 c03f 0000 00e0 410b 72bf
00000580: 0000 00a0 8903 c03f 0000 00c0 1b42 a23f
00000590: 0000 00a0 c96e c2bf 0000 0000 d965 abbf
000005a0: 0000 0060 29b4 c0bf 0000 00c0 e755 ab3f
000005b0: 0000 00e0 8abe abbf 0000 00c0 4e27 b6bf
000005c0: 0000 0020 861e c3bf 0000 00e0 df5c c33f
000005d0: 0000 0020 dda6 c1bf 0000 00c0 c723 a03f
000005e0: 0000 0080 2efe c03f 0000 00a0 e292 bfbf
000005f0: 0000 0060 9bb4 6a3f 0000 0060 b3ea 9dbf
00000600: 0000 00a0 7ebf b63f 0000 0080 41d4 b93f
00000610: 0000 0000 a598 91bf 0000 0000 bf34 ad3f
00000620: 0000 0000 ccb3 a2bf 0000 00a0 a7b5 b4bf
00000630: 0000 0080 a22a c0bf 0000 0060 b531 bb3f
00000640: 0000 0020 d3c8 c33f 0000 0000 07af 99bf
00000650: 6743 24fa 2416 2b3f cb0e 8d9c 8e27 b0bf
00000660: 8548 f451 590d ac3f cb0e 8ddc fd3d c3bf
00000670: 6436 77cd 0772 bc3f 9ed3 58ca a00a b13f
00000680: e9dd 2e98 bfa0 9bbf 6ae2 e5c6 4c22 c23f
00000690: a75a 7116 56b1 b83f 066c 7d62 b97e ab3f
000006a0: cb6c eefa 2ad3 b83f 96b1 9c16 61b8 a9bf
000006b0: 74bf b5af 3ea8 c13f 9967 dba7 f7bf bfbf
000006c0: 7039 c6dc 7435 c23f aa10 ed12 db77 b03f
000006d0: 34ed 37fe 01e2 bc3f d428 3f1b b20f b5bf
000006e0: bd0c 86b8 a52a a4bf aa5b 03fd 04af a6bf
000006f0: b83c 0231 bba7 ad3f a1a0 8674 64ed c23f
00000700: 3284 56f7 9099 bf3f ad3d bef5 e60f 91bf
00000710: e573 9c73 1599 b63f c1dd e5ac 1668 bfbf
00000720: bc94 0ba8 707e b73f 6176 bf70 b16f c2bf
00000730: 5ae6 e415 b39d ab3f 9aac b081 9955 b9bf
00000740: 3ffc 9a4b 3d39 a73f b4b8 5f96 5ecb bdbf
00000750: 49c4 fd4b 4b12 6bbf 6e99 fc81 f2ab be3f
00000760: 0661 878f 8cfa c4bf 6f58 f698 cc75 4dbf
00000770: 8ba8 5323 2613 bcbf 0844 9846 8114 a0bf
00000780: 0000 0080 8bf9 c2bf 0000 0040 8e45 bb3f
00000790: a491 7d39 988a bcbf eaf6 1440 a923 bcbf
000007a0: 4223 fb72 8f02 babf 1609 ebdf d1da c33f
000007b0: 889b 168f 673f 67bf 2093 fb20 d2cc 9dbf
000007c0: ec19 d977 a009 99bf dded 2960 b5ac c0bf
000007d0: f313 46e0 d70e c23f b95a 2edf 7980 ab3f
000007e0: 4696 0e67 173f bb3f 7136 829f c9e5 b53f
000007f0: 4225 8884 278b 863f 3e60 4970 9a24 c1bf
0.04669555276632309 0.06571466475725174 -0.07156422734260559 -0.10975504666566849 0.12145255506038666 -0.13737860321998596 0.1350039690732956 0.13532496988773346
-0.07450740784406662 -0.09318625926971436 0.0742945671081543 0.10195457190275192 -0.07841035723686218 0.0356488935649395 -0.10672903060913086 -0.09414661675691605
0.06854459643363953 -0.026251109316945076 0.14034074544906616 -0.10156891494989395 -0.0012850816128775477 -0.06540676951408386 0.12580835819244385 0.14859043061733246
0.039471134543418884 0.11304081976413727 0.053629688918590546 0.07387474924325943 -0.09709669649600983 0.03970295190811157 -0.12619233131408691 0.012903555296361446
0.007387989666312933 0.126852884888649 -0.09710845351219177 0.016399262472987175 0.048859622329473495 -0.10613005608320236 -0.07390234619379044 -0.1570093184709549
0.09140295535326004 0.11563573032617569 0.02180165983736515 -0.0176816675812006 0.08516397327184677 -0.12778782844543457 -0.017797190696001053 -0.13365063071250916
-0.07693617045879364 0.14867424964904785 -0.14102941751480103 -0.1429346203804016 0.137248694896698 0.017023887485265732 -0.15093392133712769 -0.02858649380505085
0.008458158932626247 -0.05446479469537735 -0.001902714022435248 0.07843431085348129 -0.07724694162607193 -0.07448022812604904 -0.11992602050304413 -0.1304033398628235
-0.04356643557548523 -0.003138073021546006 0.08113113790750504 0.14221914112567902 0.1492237150669098 0.028821894899010658 -0.1487700641155243 0.02513340301811695
-0.07395610213279724 0.032469332218170166 0.005286856088787317 -0.1360410451889038 -0.01969187520444393 0.08862555027008057 -0.06401308625936508 -0.15120406448841095
-0.08257004618644714 0.1499965637922287 0.10744081525637159 0.11251912870979798 0.12579267648127576 -0.14311774355219817 -0.10076247636576156 -0.09026330384682137
0.07281559312873864 0.12895877098943767 0.10117059641249214 0.0013859666453174462 -0.10082441040078115 -0.12066894865176116 0.12174009403024254 -0.06902766463323988
0.03542189526078671 -0.06550869849680745 0.1388379439765826 -0.14609685151065685 0.17501682360654006 -0.13659968390012597 0.04838546066859105 0.06030451001364767
0.15154274744305155 0.06441554486797955 -0.11651710401344527 0.15391103477229653 0.0015361642879994951 0.14737855638486333 -0.07566599263496322 0.11814523562466595
0.12999744284194195 -0.1090155570061876 -0.006485573971159806 -0.12427704382827329 0.08695608587713169 0.07544332689715078 0.03744425516270895 0.050517473618280954
-0.12480255961418152 0.13383911550045013 0.03569378800442927 -0.05158974373729801 -0.10766371891397014 -0.06613362867418479 0.07211717880520567 0.10832504870320031
-0.05817610384022728 0.015113562195826526 -0.0246125914280059 0.04221780998548986 0.1329310966879794 0.14510656777669328 0.07199812239167902 0.04906046876567169
-0.044632887676758985 0.08629962555937178 -0.1196541318085529 0.08017799002396288 -0.14678283534184836 0.0022122245484369075 0.04644847721756718 0.09402191171115787
0.06680492009286776 0.15308852429089734 0.15254903091536234 0.12222088360064667 -0.018773740215674437 0.13814730361259203 -0.022154203115013666 -0.08359445206999631
0.13006183074435596 -0.09563708366777836 0.10055133031187673 0.014429014228932491 0.13449424442381094 0.05305610023119031 0.1612757633318377 0.03563629276574702
-0.05868653208017349 0.09607551246881485 0.15169736742973328 -0.007990807294845581 -0.049301132559776306 0.08435343205928802 -0.03323061019182205 -0.025439485907554626
0.11992543935775757 0.010361193679273129 0.048216562718153 0.08971245586872101 0.04770258069038391 0.0076020159758627415 0.1316271424293518 -0.00440526707097888
0.12510795891284943 0.03566061705350876 -0.14400596916675568 -0.05351141095161438 -0.13049809634685516 0.0533897802233696 -0.05418809875845909 -0.08653728663921356
-0.149369016289711 0.15127180516719818 -0.13790477812290192 0.03152298182249069 0.1327570080757141 -0.12333504110574722 0.0032599482219666243 -0.029215624555945396
0.08885947614908218 0.10089501738548279 -0.017183855175971985 0.05704304575920105 -0.03652799129486084 -0.08089683204889297 -0.126301109790802 0.10622724145650864
0.1545661836862564 -0.025081738829612732 0.00020665360813911933 -0.06310359308286732 0.054789344076327 -0.15032933491794717 0.11111496702434348 0.06656842174636643
-0.02698039404250877 0.1416717501813481 0.09645593688888231 0.05370120360631607 0.09697216631177523 -0.05023482705141473 0.13794692592227487 -0.1240229401404619
0.14225636272426412 0.06432885372220434 0.11282360512261819 -0.08227074780657812 -0.03938787343488446 -0.04430404270686179 0.05792031262637337 0.14786964120617532
0.12343698538326534 -0.01666222453019166 0.08827337334191972 -0.12268201562061788 0.09177307226817083 -0.14403360371845778 0.05393752710592699 -0.09896239677680044
0.04535857723157521 -0.11638442202795113 -0.003304621757643154 0.11981120751861393 -0.16389615066760416 -0.0008990525256418312 -0.10966719019384834 -0.031406440608527986
-0.14824050664901733 0.1065300852060318 -0.1114897861821818 -0.10991914572238284 -0.10160156781342969 0.15511535104276025 -0.0028378508220216515 -0.029101641905884823
-0.0244507859372564 -0.13027064509866096 0.14107798052660278 0.05371456956270521 0.10643144861259043 0.08553753036741242 0.011007603389787794 -0.13392954333062507

linear1.bias f8 [64]
00000000: 0000 0060 f351 c1bf 0000 00c0 13e0 bc3f
00000010: 1377 53bc 185e b1bf 42da 31eb 62ef c13f
00000020: 0000 0060 91d5 91bf 0805 466c 4640 ae3f
00000030: 15a9 047a 4b62 c2bf 969f 746c 3d0b bd3f
00000040: 95b0 e361 b833 c2bf f082 4973 7a66 adbf
00000050: 361c be3b 84b5 babf 0088 a0e4 f677 bc3f
00000060: 4671 3d52 b512 9f3f 0000 00a0 0cfd c0bf
00000070: 5435 f165 81e8 b13f 0138 ea09 0883 b2bf
00000080: 0000 0020 c560 64bf 0391 adf0 6519 b2bf
00000090: e840 157e 7dbb 9e3f 7209 a5f9 16ea 90bf
000000a0: d844 9752 5cd5 c03f 175b 1162 66ff 82bf
000000b0: dcf2 9b35 e69c b2bf ced3 b16a 279b 75bf
000000c0: aa35 6e0b d819 7e3f 06af ab24 0b63 c33f
000000d0: 8fc4 70df 74e9 613f 5a1c f1d2 1d2c c0bf
000000e0: ee41 8774 82b4 913f 24f9 2848 161e 80bf
000000f0: a32b a935 b52a ac3f 56dd 79b0 25af c1bf
00000100: 5e56 db24 25d0 b83f 84f6 e350 d24a b03f
00000110: 5c73 4184 2c7f 9f3f 8478 197c fa2d 7cbf
00000120: db18 fa8d 62db c33f 4bc6 c59d 26cc bdbf
00000130: c610 8771 cacc bc3f 99ca 5524 4de8 babf
00000140: 8804 b45c 63e3 a83f 050f 2e60 16ac 4abf
00000150: c1f1 bb72 7504 c03f 324f a28b 09e8 b83f
00000160: 0d99 325e 4bf0 babf 01ac 7eca c7b6 c1bf
00000170: 0000 0040 5734 ad3f a5a1 402d 7d9f b43f
00000180: 0000 0080 04dd bebf 7399 c6d8 f309 a13f
00000190: ca9e 17d5 a6e8 c03f 122d de54 deb7 bbbf
000001a0: 655a f890 6906 a3bf 210a 81c6 f021 adbf
000001b0: 4cdd 3704 84d6 c13f bbea 617a 689c c23f
000001c0: 01b9 441e ae91 aa3f 0000 0080 08f9 c1bf
000001d0: 0000 0080 d781 c2bf e290 edbf 62bd b4bf
000001e0: 722d 4646 3bd4 b0bf 3337 fa24 d0c9 bc3f
000001f0: 9759 da45 0ef9 93bf 82bf dceb 8c1a 903f
-0.13531343638896942 0.11279414594173431 -0.06784205053142171 0.1401179932033348 -0.01741625927388668 0.05908413001726315 -0.14362472017212072 0.11345275781479666
-0.1422033765769625 -0.05742247254670996 -0.10433222254333505 0.11120551187244132 0.030344803947955933 -0.13272245228290558 0.06995400179694872 -0.07231188051284222
-0.002487549791112542 -0.07070004583289706 0.030012093372818877 -0.016517981516935128 0.1315112498546458 -0.009276199214736587 -0.07270659264390694 -0.005274919482975938
0.007348865436950383 0.1514600686126572 0.0021865160629422407 -0.1263463287343452 0.01729015194161037 -0.007869886471891414 0.055013335037606546 -0.13815756909364535
0.09692604207824604 0.06364168619981042 0.030758567402119893 -0.00687978597269823 0.15513259823291645 -0.11639634467953745 0.11249985953969874 -0.1051071370800777
0.04860983378058231 -0.0008139714485513044 0.12513607122663298 0.09729060801538195 -0.10522910165545714 -0.13839051616136547 0.057039953768253326 0.08055860857769533
-0.12055996060371399 0.03327905675114353 0.13209996609588465 -0.10827436038941965 -0.03715829748778247 -0.05689957068581842 0.13935899930923268 0.14539819694240017
0.05189270133483782 -0.14041239023208618 -0.1445874571800232 -0.0810147970747184 -0.06573839631726289 0.11245442297714874 -0.019504759801372975 0.015726282020466005

linear2.weight f8 [3, 64]
00000000: 0000 0040 edd0 b83f 0000 0000 30eb 6fbf
00000010: bc6f a352 d8dd c33f c210 f530 9a94 c13f
00000020: 0000 0000 c3f1 903f a90c 4c33 b9b7 833f
00000030: 5a5b 368a b7f6 c23f f516 e2b1 fdee a0bf
00000040: 60c9 0934 fe33 b2bf f07f 515b 42ab 993f
00000050: 52e6 244c 8444 913f 06dc f42d a20b bd3f
00000060: 821f 0fe5 e3d2 d33f 0000 0040 4a9e b1bf
00000070: c304 1c46 4a69 9b3f 4729 0038 1f5c b23f
00000080: 0000 00c0 2782 b9bf 59e7 504f 730b 8cbf
00000090: 076e 6d89 1abd b0bf 42ea 4e32 316e b03f
000000a0: 1f4d 8b6e 34e2 cb3f ce1c c066 9f37 a5bf
000000b0: e2ca 3a31 c19c a9bf fa31 c5e3 0009 d13f
000000c0: 9da6 f712 363a b53f 026a 7c7d 1c1a cc3f
000000d0: 77a6 b7e8 0bd4 bebf c32d 433b 4890 c33f
000000e0: f643 f5a9 ac64 bebf 55c7 d3f0 1c5b 98bf
000000f0: e7b4 19d5 aea4 ce3f b50c 040a bb22 b8bf
00000100: 05da c2dc 20eb a13f 4bb2 c402 c3e1 5cbf
00000110: b8c7 3bec b9b6 c93f 5828 cdce b781 7cbf
00000120: a07e 126b cc53 aabf 6bd6 09db cc37 b33f
00000130: d8b5 9ac2 3c67 c23f 45d3 3e51 7f8f d23f
00000140: 4168 4de4 9497 b3bf 734f e0fd 1aa1 823f
00000150: 7ae7 509b 065d b83f ddc2 7566 1532 a23f
00000160: 4ed5 819f 07d7 b9bf a267 2c66 2a90 d63f
00000170: 0000 0080 7355 bf3f 97e4 0cf0 f78c c93f
00000180: 0000 00c0 16e7 bbbf 0b01 3e76 7c86 a53f
00000190: 12a8 b3f8 fb2a 7f3f 14d3 af67 6b5b b6bf
000001a0: 4462 4df2 714b c53f e1b0 5dd3 8e32 a63f
000001b0: 64dc 20f3 d05a 8f3f 958a ceb1 ae30 bf3f
000001c0: a3e2 9b39 fbce bf3f 0000 0000 a4a4 7bbf
000001d0: 0000 00c0 8818 bc3f dedf 3b67 dcb4 a83f
000001e0: e810 f0f8 3ec8 b5bf 086e f6bf 0cff b3bf
000001f0: c4b1 5e45 f2e7 afbf f183 f7c0 74d6 943f
00000200: 0000 0000 12e7 a9bf 0000 0040 b402 bbbf
00000210: f9a0 c273 5c67 9d3f 7683 7bc4 7f0a 99bf
00000220: 0000 0000 1cbb 75bf d3e9 d56a 6eea bb3f
00000230: e2fe 8ce6 1671 9cbf 1fd9 5e29 6b50 b33f
00000240: 861a 8904 2cbe a13f cb2c 8110 82fe 9e3f
00000250: 05e4 0aa9 93ec bebf 4df0 008c b151 ba3f
00000260: 9a0b 836f b896 b1bf 0000 0000 2ec6 83bf
00000270: f578 24e0 9763 8fbf 2bb9 d673 dd94 ba3f
00000280: 0000 0040 793c b9bf 2da4 ee34 4955 b9bf
00000290: 41cf 11f6 483f 9e3f 1dfd 35e8 62a7 60bf
000002a0: 7493 e46f f37d b2bf c56c 7a34 bb3b b9bf
000002b0: 4885 d6d3 5a92 a9bf 5210 6751 e988 a63f
000002c0: 9eb9 c664 da59 bc3f c1b7 ffd0 afa0 9cbf
000002d0: 3c63 a02f 572d b9bf 08af 2aba f22b a0bf
000002e0: 3cc2 011b 179b 963f 69e8 ac66 9b42 a23f
000002f0: 7900 b85e 0ea7 8cbf 2f4d a8fb 71c3 b0bf
00000300: 7761 02c7 54e0 b43f dd8b 9ec6 267d a3bf
00000310: eee1 24fe 2274 a3bf 5ced dd3f 6d73 b6bf
00000320: 15fe 09bc 263b 7d3f 0e39 aa7c 4107 ba3f
00000330: 5097 ca45 82cf b13f 3ff1 0dd0 ad1b 92bf
00000340: a3f1 8d9f 85a8 a3bf cf72 3b42 9cf6 403f
00000350: 267e cd9c 4a57 b03f c00c 1893 dc35 afbf
00000360: 0239 9a76 862e 96bf 7a8d 12c6 ec39 b7bf
00000370: 0000 0000 74ed ba3f 7c3e bcc2 e04f a33f
00000380: 0000 0080 02c9 bd3f 1edb d617 2d49 653f
00000390: de18 789d 5b1e a3bf b629 1575 dc09 ba3f
000003a0: 23a9 6e34 2458 a0bf a073 1021 35bb bd3f
000003b0: 93de 2c98 0c38 8dbf 8ad5 beaa 0d43 be3f
000003c0: 3f5a a120 62ab a8bf 0000 0000 7248 9a3f
000003d0: 0000 0040 e595 b7bf b877 b987 77d1 973f
000003e0: f554 1ab8 16c2 abbf 8214 0a3c 4223 bfbf
000003f0: 42b6 530c 8681 be3f 1ee3 ab03 1fb2 a6bf
00000400: 0000 0040 4e0c b6bf 0000 00c0 7833 b13f
00000410: 0000 0000 004e 01bf 0000 0000 f653 a8bf
00000420: 0000 0000 1994 bdbf 0000 00c0 f461 b1bf
00000430: 0000 0000 a646 a0bf 0000 0080 3517 a63f
00000440: 0000 0000 4a5e 91bf 0000 0080 dcc6 a4bf
00000450: 0000 0000 b3c0 a03f 0000 0000 907c 5bbf
00000460: 0000 0000 baa5 8fbf 0000 0000 15bc a6bf
00000470: 0000 0000 bd46 9dbf 0000 0080 0227 b43f
00000480: 0000 0040 16ad b7bf 0000 0000 737a 983f
00000490: 0000 0000 a107 9d3f 0000 0040 7a3c b3bf
000004a0: 0000 0040 e44d bdbf 0000 0000 8e4b 83bf
000004b0: 0000 0000 ca8e a6bf 0000 0080 2acf ac3f
000004c0: 0000 0000 d7e3 913f 0000 0000 97fd 933f
000004d0: 0000 0040 7e22 bfbf 0000 0000 0a8f b3bf
000004e0: 0000 0040 0753 bd3f 0000 0000 54e3 b23f
000004f0: 0000 0080 e029 b9bf 0000 00c0 dd13 b93f
00000500: 0000 0000 7558 babf 0000 0000 19a2 b23f
00000510: 0000 0000 3733 a9bf 0000 0080 3782 bfbf
00000520: 0000 0000 8605 b83f 0000 0000 3e0a 803f
00000530: 0000 0000 22d9 863f 0000 0040 6409 b5bf
00000540: 0000 0040 93ff b6bf 0000 0080 19e9 a0bf
00000550: 0000 0040 12be b63f 0000 00c0 fd1e b23f
00000560: 0000 00c0 7243 ba3f 0000 00c0 0c0c b9bf
00000570: 0000 0000 b7d4 9bbf 0000 00c0 650f b4bf
00000580: 0000 0080 e96b a8bf 0000 0040 1976 b3bf
00000590: 0000 00c0 7cca b3bf 0000 0040 2b81 b53f
000005a0: 0000 0000 5d45 b5bf 0000 0000 79b4 a5bf
000005b0: 0000 00c0 50f1 bd3f 0000 0080 2088 a7bf
000005c0: 0000 0080 ce9e a9bf 0000 0000 d300 a0bf
000005d0: 0000 0040 7572 b0bf 0000 0000 728a 88bf
000005e0: 0000 0000 8312 a43f 0000 0000 ced7 9bbf
000005f0: 0000 0040 8fa6 ba3f 0000 0040 3bfc babf
0.09693796932697296 -0.0038963258266448975 0.15520767245368272 0.1373474825906041 0.016547247767448425 0.009627768400156294 0.14815420387886996 -0.03307335659432723
-0.0711058499380548 0.02506736452448871 0.016862933299512335 0.11345876333221847 0.3097467171578431 -0.06882156431674957 0.026768837479725926 0.07171816937640073
-0.09964226186275482 -0.013693714960129876 -0.06538549285090066 0.06418139913777401 0.21784072301543575 -0.04143999223020388 -0.05002406812618233 0.2661745285338665
0.08291948283263158 0.21954685332532625 -0.12042307311608079 0.15284064191506105 -0.11872367047659779 -0.02378506870167681 0.23940072446149616 -0.09427994722868756
0.034997012089139225 -0.001762810173271084 0.20088886294212016 -0.006959646224297421 -0.05142058188471066 0.07507019374482986 0.14377555372395423 0.29000838216898145
-0.07653170179165249 0.009096346733748572 0.09516946117301286 0.035538357503247055 -0.1009373440191059 0.35254917123676865 0.12239763140678406 0.1996145174141801
-0.10899488627910614 0.04204167312036774 0.007609352363241244 -0.08733245164314624 0.16636490183988617 0.04335447626258016 0.015309936923683938 0.1218365844820631
0.12425203472583717 -0.006748810410499573 0.10974936187267303 0.0482548595445562 -0.08508676126081449 -0.07811050116145435 -0.062316485374455804 0.020349334981691617
-0.05059105157852173 -0.10551001131534576 0.02871460396332368 -0.02445411335691313 -0.005305394530296326 0.1090458880261516 -0.027775152036382596 0.07544584045431123
0.03465402179113135 0.030267746217117513 -0.1207973754598158 0.10280904453333158 -0.06870606157740014 -0.009655341506004333 -0.015326677825723037 0.1038340003785591
-0.09857900440692902 -0.09895761053361758 0.029538288134474348 -0.002032941034201165 -0.07223435861358302 -0.09856767684179875 -0.049944723471762986 0.04401330107387537
0.1107460495029273 -0.027956721431045887 -0.09834809220081991 -0.03158529779952174 0.022075997374886067 0.03566442135202481 -0.013990509286486695 -0.065482257785608
0.08154802187562447 -0.03806420492698923 -0.03799542763085016 -0.08769877251864017 0.0071364892070273815 0.10167321485116451 0.06957258418932821 -0.017683711837422008
-0.038395095564712343 0.0005176794988660196 0.06383196190062587 -0.060957806545070436 -0.021661854733388893 -0.09072761379007047 0.10518574714660645 0.037718795558359525
0.11634841561317444 0.0025983696675341414 -0.03734098717909416 0.10171296938384597 -0.03192246570627535 0.11613781029923453 -0.014267061609287956 0.11821065348234164
-0.048182550891102675 0.0256669819355011 -0.09213097393512726 0.023259990366902378 -0.05421515462254859 -0.1216317555027491 0.1191638736815657 -0.04432770652596772
-0.08612526953220367 0.06719164550304413 -3.300607204437256e-05 -0.04751557111740112 -0.11554104089736938 -0.06790094077587128 -0.03178900480270386 0.04314582049846649
-0.016961246728897095 -0.04057969152927399 0.0327201783657074 -0.0016776472330093384 -0.01545281708240509 -0.04440370202064514 -0.028590157628059387 0.07872024178504944
-0.09248484671115875 0.023904606699943542 0.028349414467811584 -0.07514156401157379 -0.11446978151798248 -0.0094214528799057 -0.044058144092559814 0.05626805126667023
0.017470702528953552 0.019522055983543396 -0.1216200739145279 -0.07640135288238525 0.11454816162586212 0.07378125190734863 -0.09829524159431458 0.09795938432216644
-0.10291224718093872 0.07278591394424438 -0.04921886324882507 -0.12308070063591003 0.0938342809677124 0.007832035422325134 0.011156335473060608 -0.08217455446720123
-0.08983726799488068 -0.033028408885002136 0.08883775770664215 0.07078538835048676 0.10259167850017548 -0.09784011542797089 -0.027178630232810974 -0.0783599466085434
-0.04769830405712128 -0.07602079212665558 -0.07730846107006073 0.08400221168994904 -0.08308964967727661 -0.04239252209663391 0.11696343123912811 -0.0459604412317276
-0.05003972351551056 -0.031256288290023804 -0.06424649059772491 -0.011982813477516174 0.03920373320579529 -0.027190417051315308 0.10410399734973907 -0.10541124641895294

linear2.bias f8 [3]
00000000: 4a8e 17ef 6936 70bf 067d 05be 1938 babf
00000010: 0000 0000 b59e 953f
-0.003958143047814009 -0.10241852654643332 0.021113231778144836
