checkpoints/final_without.ckpt (torch, 39681 bytes, 4 tensors)

linear1.weight f8 [64, 70]
0	0xbfa8337fe0000000	-0.04726791009306908
1	0x3fbc18f380000000	0.10975572466850281
2	0x3fb4d5938c08fa68	0.08138391655755017
3	0xbfa94f28ceca836e	-0.049432063334512985
4	0xbfa8259acfdc1660	-0.047161901353359736
5	0x3f93287064d5f238	0.01870895019009053
6	0xbfbbf8449be510c6	-0.10925701910042837
7	0x3fb2869a49d03ad5	0.07236637403569131
8	0x3fb3b33ad023e9a0	0.07695357877302067
9	0x3fa13e7c24d5f238	0.03367984723715661
10	0xbfb0fdcd83d31bef	-0.0663727232778084
11	0xbf9fbb3773e92271	-0.030987612199427198
12	0xbfb833d9b7ca217f	-0.09454117524194848
13	0xbfb0cc642c5f8a53	-0.06561876376466928
14	0xbf9cea22ef049c6e	-0.02823690971231623
15	0xbfb82b9033c4cc0c	-0.09441472305188386
16	0xbfa0d1b29c3110e1	-0.03284986645351907
17	0x3faf19818194f87d	0.06074146944818979
18	0x3fb5974e1a12a8ed	0.08433998238129777
19	0x3f71201255e46750	0.004180976508246406
20	0xbfb1e2fed0ea581a	-0.06986992454980659
21	0xbfb2bdf52ff0c573	-0.07321102543280293
22	0xbf9797cb42d4db84	-0.023039985612935535
23	0x3fa80e205235b00a	0.046982774768224614
24	0x3fb38e82f8e62dca	0.07639330460204188
25	0x3fbd37f1341d3b34	0.11413486025160752
26	0x3fa271f7a5fef241	0.03602575208012527
27	0x3fb162b25726f930	0.06791224124660711
28	0x3faef45a8e8d9f6a	0.060458021070018145
29	0xbfb253ae585688b4	-0.07158937126817727
30	0x3faa99c4f3ed1dbb	0.051954417015220376
31	0xbfb9b0ed532bd465	-0.10035594254061804
32	0x3fc2091ae6f5fc3d	0.14090286519419407
33	0x3f9936fc0b037d20	0.024623811886042124
34	0xbfa4e0997c1ec65b	-0.040776058579819995
35	0x3fb1a66845ca381a	0.0689454241166633
36	0xbfb1cdbaa38eafd5	-0.06954542630290857
37	0x3fb575936c8183ef	0.08382531546659754
38	0x3fb7d4702d3be218	0.09308529953330724
39	0x3fbb6add98e727ae	0.10709938986761244
40	0x3f96ce3854ef8842	0.022271042045652452
41	0x3fb3ccac38e727ae	0.07734180821640166
42	0x3fb669338c24976d	0.08754274531801594
43	0x3facfb440345593b	0.05660450496604815
44	0x3fc129984d86a668	0.1340818766159828
45	0xbfb77e3af5a1ce76	-0.09176987168194181
46	0x3fb4532fb9f60237	0.07939432420790458
47	0x3fae507586336ce2	0.059207604057258015
48	0xbf829090390a435f	-0.00906479524681608
49	0x3fa14f0437aa76ba	0.03380597285761895
50	0xbf82c9b681c49866	-0.00917379935760838
51	0xbfb32a8deb6f3fbc	-0.07486807821191993
52	0x3f908c628ac08954	0.01616052600741942
53	0xbfb639d852b3bad4	-0.08682014483541006
54	0x3fbd4434a598d7b2	0.11432198565384402
55	0x3f9c3f7a581f2878	0.027585898998758712
56	0x3fa1f3e575f56431	0.03506390633510426
57	0x3fb4b147eebc09a6	0.08083009317855402
58	0x3fa8f842fd782acc	0.048769086304749715
59	0xbf95c256b9a5bdc9	-0.02124915607549641
60	0x3fa44ec044faf150	0.03966332284969332
61	0xbfaa766e371dd122	-0.051684803226552015
62	0x3fb5a50f263edbf9	0.08454985316971876
63	0x3fb06de71f4b9e4f	0.0641769839672801
64	0x3f9076ebc800fd0a	0.01607864769198123
65	0x3fb7521fda262529	0.09109686923888617
66	0xbfb59c69723e5d75	-0.08441790618086549
67	0xbfa2493115fea7e7	-0.03571465867510409
68	0x3f942839560c175e	0.019684692265421126
69	0xbf7dcce5c24cd135	-0.00727548360446333
70	0x3fa9d75ae0000000	0.05047115311026573
71	0x3fb4f5e240000000	0.08187688887119293
72	0xbfa6d81e42fa1cc6	-0.04461760108557082
73	0x3f7e18c4f3b244a8	0.007347840636741022
74	0x3f934b3314178ce1	0.0188415509236507
75	0xbfba2dd1a189b76b	-0.10226164048955659
76	0x3fa063dc9711a9a9	0.03201188415626472
77	0x3fa343e3bb62d9be	0.03762733137539297
78	0x3fae9e4754178ce1	0.0598013200904235
79	0x3fb720a99cec912a	0.09034214097170393
80	0x3f936dde823ae034	0.018973805140120883
81	0xbfa103a587b09517	-0.03323094636315654
82	0xbfa6b01131dcacad	-0.04431203588168251
83	0x3f793b5f362d9bee	0.006160137100642322
84	0xbf83760d135b25d7	-0.00950250830955472
85	0xbfb7fba3456201f7	-0.09368343776623776
86	0x3fb02fc0531a2985	0.06322862652647217
87	0x3f9a305095591f75	0.02557493125485118
88	0xbfb744d6da30022c	-0.09089415385097571
89	0x3fa6a98409f021f5	0.044262052739274006
90	0xbfaac91ddd6d255a	-0.05231564834555043
91	0x3f718ada44343e9f	0.004282810786449125
92	0x3fbdceda36c0a1fd	0.11643756710748927
93	0xbfb024bce09d13eb	-0.06306057437639338
94	0xbfbcf6db2d8ee0e2	-0.11314172613390697
95	0x3fa753a1b9686822	0.04555993450431141
96	0x3fa3aa291708b1c8	0.03840759664703658
97	0xbfbe284d11ed1dc9	-0.11780244529392471
98	0xbfaa1eaca9d7bd81	-0.05101527760768488
99	0xbfb9768b4526b6f2	-0.09946508825552394
100	0xbfb761f83b20b46d	-0.0913386482577196
101	0xbfa02a2b5699ba15	-0.03157172615179974
102	0xbfa700d7b567af82	-0.04492830361763735
103	0xbfb7d02cf002d70d	-0.0930202566113076
104	0x3fbe12a39ec584c2	0.11747191072710719
105	0x3fa7ea12e6dea51c	0.046707716638886704
106	0xbf92923e0cf2c383	-0.018135995426465278
107	0xbfa6f2c0082ede22	-0.04482078647509648
108	0x3f7057f8a1c84a84	0.003990145891764944
109	0x3f64300fa1572ecb	0.002464323547178048
110	0xbf8c01572f1bdabe	-0.013674431920191462
111	0x3fbaa442b20ab977	0.1040689167664136
112	0xbf84133b60f0e96c	-0.009802307029634881
113	0xbfa51f7257d70092	-0.04125554392112564
114	0x3f986bd4d69d03f3	0.02384884414573558
115	0xbfb25d16e9e1ba09	-0.07173293313983477
116	0xbfa5a6031126c1b1	-0.0422821958958396
117	0xbfa7b1b9cfafe791	-0.04627781543963672
118	0x3fb992f2c931fd52	0.09989850437158523
119	0x3fbb95245a31d279	0.10774447633759533
120	0x3fa872ced5eeb6f9	0.04775091515999281
121	0x3fb0f22f3c3b98b9	0.06619544239547083
122	0xbfb8fc4d9343465a	-0.0975998386886884
123	0xbfb8732e21baa105	-0.09550751040899648
124	0xbfb3445e617de82f	-0.07526197319194304
125	0xbfb83e7c7fb0dac7	-0.09470346562816721
126	0x3fb0868e93ca6432	0.06455317600411162
127	0x3f55b6a6929af58c	0.0013252855955408786
128	0x3fb348d48d388a5f	0.07533005187773643
129	0x3fb9391603d9be46	0.09852731317527583
130	0xbfbdc82b59594f72	-0.1163355916153799
131	0xbf6dc5de62dde911	-0.0036343902092400644
132	0xbfb7abfd7feb2944	-0.09246811268818528
133	0xbfbb001278079cd8	-0.10546985083020688
134	0xbfafd9fc0cfa062c	-0.06220996530920461
135	0x3fba70d09a07b599	0.10328391800404403
136	0xbfb224c30d0edce8	-0.07087344235229731
137	0x3f9ef65fd05c2026	0.030236718265797567
138	0x3f7f507065f4945e	0.007645072036472104
139	0xbfa03a3023b34b0d	-0.031693939550356466
140	0x3fb70fcf00000000	0.090084969997406
141	0x3fa69b7240000000	0.044154711067676544
142	0x3fa20ce51c816f13	0.03525463078469051
143	0x3fac8a3ffa6bbe1b	0.05574226314444904
144	0xbfafac2ac6fd21d0	-0.06186040572226015
145	0xbfb23662e59441e5	-0.0711423693176197
146	0x3fbc6113aac226a5	0.11085627478510192
147	0xbfb35704585e62d9	-0.07554652364195692
148	0xbfb5d7e0e6fd21d0	-0.08532529487013751
149	0x3fb44e5d34d77c3b	0.0793207410820153
150	0xbfa061ef7178d48c	-0.03199718723446052
151	0x3f96746b68356d21	0.021928480372804707
152	0xbfa9540dd4f76567	-0.04946940636336699
153	0xbfb7fea5b0bcc5ab	-0.09372935833814348
154	0x3faa9660c78a09ab	0.05192854343205807
155	0x3f5fd2d97e465944	0.0019423603017450644
156	0xbfa6b8ebb917cee7	-0.04437958368717237
157	0x3fb48523cd8ebe0c	0.08015655296798502
158	0x3fa22735d8cc211b	0.03545540114834208
159	0xbfb972080ac0350f	-0.09939623129340112
160	0x3fb6efce1462ee17	0.08959663388935045
161	0xbfa2823c5c226eaf	-0.03614987015427339
162	0x3f4e95b4124bd262	0.0009333733802053374
163	0xbfa165dd5e007d28	-0.033980291104166505
164	0xbfa6c0e00be883e5	-0.04444027085651906
165	0x3f8e532eacf61e75	0.014807095197070222
166	0x3fada13856e4d453	0.0578706365653622
167	0x3fb7faa48c7dc418	0.09366825513804178
168	0x3f754db2e0214ae2	0.005201052410557879
169	0x3f97e6e1c138f7ee	0.023341681879394054
170	0xbfb14d62d8ad5fee	-0.06758706846210291
171	0x3f4d065a586ff9ef	0.0008857670917448694
172	0xbfb1824916fc08cb	-0.06839424906869167
173	0x3fb2479f3c9a17c8	0.07140536527194208
174	0x3fb91991be099bbe	0.09804640664661599
175	0x3fbdf63a39a3e99b	0.11703838259919623
176	0xbfbef83a37af8aac	-0.12097514972223661
177	0x3fa497f0c6b649e5	0.0402217142647208
178	0xbf9e808b8a1f52f9	-0.02978723555118543
179	0x3f967cbd3c9bc36b	0.021960217308279278
180	0xbfa5bda9350fa97e	-0.042462623336024116
181	0xbfb670b1a8d90f22	-0.08765707371008749
182	0xbfa1b9267db146f0	-0.0346157101090635
183	0x3fb6a878ff4d5e86	0.08850818856205409
184	0x3fba370e4cd68dbe	0.10240258575372871
185	0xbf98f4a6a230cf60	-0.02437076916630987
186	0x3faaa01c610b7e13	0.052002798887539246
187	0xbfb07b129065c630	-0.06437793755846921
188	0x3f9fec6a90d3c12e	0.031175294007824643
189	0x3f93f418bf029dc9	0.019485842378939276
190	0x3fa054ff8fc8431c	0.031898485471293564
191	0xbfb8855b2018eaed	-0.09578485044123015
192	0x3f8504495c9a9688	0.01026208223204185
193	0xbfb1da4eb7f27d42	-0.06973735800646799
194	0xbf73a2252bd7bebc	-0.004793305587994897
195	0x3f93e1db80cfc189	0.01941626523688592
196	0xbf8991b8992e1ffb	-0.012484972166717503
197	0xbfb6501447fa8d9b	-0.08715941197674797
198	0x3fb537ac8311b908	0.08288076591427196
199	0xbfb0a7109733ce52	-0.06504920665229832
200	0x3f7da3d3b493611e	0.007236315702549482
201	0xbfb48341066d0efe	-0.08012777716526995
202	0xbfbe2f64ec7f4ce4	-0.11791067861422594
203	0x3f751d5ce59b0489	0.005154955748083564
204	0xbfba3a1be447cfdc	-0.10244917224173328
205	0xbf6a02459bf20d5b	-0.00317491145648467
206	0x3fb14b2643efad2f	0.0675529399738266
207	0x3fb35580abe72ee6	0.07552341648914371
208	0x3fac0943584e5469	0.05475817158654978
209	0xbf87bc767a908e8b	-0.01158993302858071
210	0xbf951a19e0000000	-0.02060738019645214
211	0x3f83a0d4a0000000	0.009584103710949421
212	0xbf9749dd06a824fa	-0.02274270394449205
213	0x3fbd5e62b0991c6e	0.11472145854450996
214	0x3fabe6383957db06	0.05449081134786664
215	0x3fb21dde41323901	0.07076825229362173
216	0x3fa13061e603c88c	0.03357225354001611
217	0xbf9c857a38d2aa3c	-0.027852925985522456
218	0x3f95a1bd155f6c1c	0.02112479632328866
219	0xbfb00fed5d9b8e14	-0.06274302993147557
220	0x3fa8690e4f5ba387	0.047676512896777594
221	0xbfaea694da04e332	-0.059864665616663607
222	0x3fb6a8cad603c88c	0.08851306652994334
223	0xbf9776ec51a5547f	-0.022914593203797736
224	0x3fa5402c88b37e98	0.04150523346629348
225	0xbfab64feb7a07145	-0.05350490561997615
226	0x3f9aed93fc46ad98	0.02629691340704951
227	0x3fa76e145fd3f70b	0.045761715600731355
228	0x3fa08fc1439e6fd0	0.03234676313806484
229	0xbfa1574c57083bca	-0.0338691574325974
230	0x3fbd1107d0b36780	0.11354111523851707
231	0xbfbbd6b0de86da3b	-0.10874467308790596
232	0x3fc0f3aeab7169f6	0.13243659373513567
233	0x3fbc01a208eb8983	0.10939991681838106
234	0xbf7e656909f194f1	-0.007420931156137942
235	0x3fa72a5250d29f23	0.045244762769753664
236	0xbf9e62e57c2769d9	-0.02967413492465618
237	0x3fb1f60738d55341	0.07016034257442262
238	0xbfb347f263e8a371	-0.0753165716092903
239	0x3fbb0263b5fce214	0.10550521081030012
240	0x3fc16edaa0225ade	0.13619549578716933
241	0x3f8ee7d5ee2f28de	0.015090628939919911
242	0x3fb28ad66f007f73	0.07243099412926117
243	0x3f99c89a84633420	0.025179304437916383
244	0x3fb9576d0f900448	0.09899026517816012
245	0xbf98d8cd51728d29	-0.024264534088286247
246	0x3fb2781b5ae8cb4a	0.07214518517939186
247	0x3fa8989823429dbf	0.04803920202658273
248	0x3fb83deb37f5e4a3	0.0946948062536586
249	0x3fa4b58ea130fd0a	0.04044767110507948
250	0x3fac5df0ffebc93e	0.05540421604190947
251	0x3f933b514261f9f9	0.018780965496711464
252	0x3fbb5aa15fecbf58	0.10685165969766552
253	0x3fb5210281499631	0.08253493935043178
254	0xbfa843537038cbe5	-0.047388656090696014
255	0xbfbe12d9ee055217	-0.11747514782957356

linear1.bias f8 [64]
0	0xbfa2d1edabff8931	-0.03675787663066144
1	0xbfba77c63356682f	-0.10339010957105253
2	0xbfa38441f2c09890	-0.03811842048917058
3	0x3f98d4b4afe3ee97	0.024248908267493787
4	0x3fa28d1f645d957e	0.036232930184989506
5	0xbf69bfd5e0000000	-0.0031432320829480886
6	0x3faf357580000000	0.060954734683036804
7	0xbfaba76722df9019	-0.05401155758571025
8	0x3fb3bb1cb1e6d078	0.07707385390568955
9	0xbf9e64a587f3f148	-0.029680811331659812
10	0xbfbbfebeb59e4dfd	-0.10935584959070606
11	0xbfaf136864451a6d	-0.06069494461057876
12	0xbfa0d94c28fb0194	-0.032907848360539976
13	0x3fb02098bb9bbf82	0.06299738483698827
14	0xbfaa4e43f388e85d	-0.05137836788021908
15	0xbfaca8b0aa9888d2	-0.055974503349959584
16	0xbfb45e1bf725ecdf	-0.07956099304094576
17	0x3fa12d3744e37d39	0.033548094901329546
18	0x3f7bf6715bda3d6c	0.006826823051269453
19	0xbfa176e418f0d34d	-0.03411019138767433
20	0x3f5945b0b0c2f823	0.0015424943440360904
21	0x3fb6ee7247db59c3	0.08957590345685333
22	0xbfafb85458169352	-0.06195319724364502
23	0x3fa4d1a03452484f	0.040661817919627745
24	0x3f96d7723d999674	0.02230623723007459
25	0x3fb412303cf954d9	0.07840253342267846
26	0x3fa8e75b761216d5	0.048640115893290016
27	0xbfbd3b13cd326e80	-0.11418269881908749
28	0x3fa74a2b961e2a6b	0.045487749171191215
29	0xbf9b9293a5ca52b8	-0.026926333421743748
30	0xbfbdb5a420000000	-0.11605287343263626
31	0x3fba21af60f180fa	0.10207649342328642
32	0xbf8ac8c4d8acba2a	-0.013078248846423685
33	0x3fb38763e412d6cc	0.07628464048579103
34	0xbfb2619960000000	-0.07180174440145493
35	0xbf89d732ff28eacc	-0.012617491161213044
36	0xbfa632c52b70e078	-0.043356095841262154
37	0x3f78c7e2269dac1f	0.00604999866650771
38	0xbfbe62a93ecb4f25	-0.11869294913350055
39	0x3fb1b30be1339b13	0.06913828132711002
40	0xbf843506cc0d8d2d	-0.00986676511974468
41	0x3f95be7faa512ce5	0.021234507341699866
42	0xbfb0d890bbef781a	-0.06580452526347394
43	0xbfb1e84d45cbd2d3	-0.06995089487083854
44	0x3fbbe14815b74374	0.10890627412960702
45	0x3fa2a3126b9710b9	0.03640039027553272
46	0xbf966366199af5ef	-0.02186355143816415
47	0x3f81020be88c1c63	0.00830468467166962
48	0xbfa731c3e0000000	-0.04530155286192894
49	0xbf84c0ba6167e3a5	-0.010133224580373421
50	0xbfb534903a85065e	-0.0828333037252604
51	0x3fb6c4a66c2d6d61	0.08893814221430808
52	0xbfa95a6494a9d6f9	-0.04951776804675307
53	0xbfb5d44929407e3d	-0.08527047402503114
54	0x3fb5521e00000000	0.08328425884246826
55	0x3fb4960200b66d98	0.08041393773458194
56	0x3f4aba988946ecfc	0.0008157009893276219
57	0x3faaed661160700e	0.05259245836370506
58	0xbfaf9e1c5db959b1	-0.06175316471187687
59	0x3fbb0cd60774274c	0.10566461259818744
60	0xbf6395d83ff9846a	-0.0023907874709015358
61	0xbf9c2c9e7e117851	-0.027513958401293618
62	0x3f90e1079e21adb5	0.01648342039736202
63	0xbfa0eb781b42f381	-0.03304648716718984

linear2.weight f8 [3, 64]
0	0x3fc3d9836f918922	0.1550754828231869
1	0x3fac727bd9690b7d	0.0555609419721099
2	0xbf9940e6c8e42c09	-0.024661642085487077
3	0x3fc7bbf177431389	0.18542307208386102
4	0x3fba33bf30516a97	0.10235209397925825
5	0xbfbe710480000000	-0.11891201138496399
6	0xbfb05cd940000000	-0.06391675770282745
7	0xbfa93668303db944	-0.049243217362219954
8	0x3fd22538458e5041	0.2835217170006708
9	0x3fcab52203e409d4	0.208652736568253
10	0x3fb5e1fb9c4f0218	0.08547947469833905
11	0xbfb69ff1187c1342	-0.08837801788110958
12	0x3fa4f64a30da3ad7	0.04094154211371908
13	0xbfc1c672f8f7803a	-0.13886868626195953
14	0xbfa9b5e0330b677f	-0.050215727072738574
15	0xbfb8758dd6268eb1	-0.09554373243605131
16	0xbfb0f403f695df1a	-0.06622338075782999
17	0xbfacd77798501ead	-0.05633138403214608
18	0xbfb587956e3c79d7	-0.08410009328188238
19	0x3fba2ea7b0e92328	0.10227439946278294
20	0xbfac36c6d54d7fe8	-0.055105412996226566
21	0x3fc1336f67e407b3	0.13438217709341202
22	0xbfbc371fc19d1fb3	-0.11021612622164305
23	0x3fa14528904bde41	0.033730762113858954
24	0x3fadb58fea13b2e2	0.05802583439240096
25	0x3fb0d00514186cfc	0.06567413082705181
26	0xbfb43749245579ba	-0.07896859299714878
27	0x3fb8b8fe371ac33a	0.0965727695972988
28	0xbf615b0be7338311	-0.0021186096652033933
29	0x3fc84d87b5248148	0.18986603112080958
30	0xbfbde37dc0000000	-0.116752490401268
31	0x3fcd7ce42eb7aa5d	0.23037388116002236
32	0xbfbd020d0ac55b69	-0.11331254494630873
33	0xbfba692946e38b0a	-0.10316713314709261
34	0x3fbe362280000000	0.11801353096961975
35	0xbfa6df6b2d583f21	-0.04467329910778362
36	0x3fbf15029008fc18	0.12141433731538631
37	0xbfb3f0e76cfe8658	-0.07789465342514157
38	0xbfb3adee6427011b	-0.07687272973180763
39	0xbf88dccc4426c07f	-0.012139888601126579
40	0xbfbcf31e6ca78c0c	-0.11308469917962344
41	0x3fc0944d1d1ae141	0.129525794230867
42	0x3f90b7f8cb5bbfc0	0.016326796924601927
43	0xbfbb0f9306a54db9	-0.1057063952660461
44	0x3fa15a4fbd01dc20	0.03389214689462272
45	0xbfb0a34e02b660b8	-0.06499183241101292
46	0xbfb5e1b7a672b3b3	-0.08547542394326406
47	0x3fb585adaf1b1bee	0.08407102131887687
48	0xbf9dab7900000000	-0.02897442877292633
49	0x3fb1c5482637318b	0.06941653187749901
50	0x3fb5db802ee1ec01	0.08538056511490312
51	0x3fbe34a8d9ee682c	0.11799102135265177
52	0x3fa0fecaa55afa77	0.03319390552996009
53	0xbfb746b6f2334fe9	-0.09092276967140801
54	0x3fa5a1f700000000	0.04225131869316101
55	0x3fb7997a65a3cdc0	0.09218564015809871
56	0xbfc48e9f0f542185	-0.16060245750874116
57	0x3fc94102c6e99b37	0.1972964736225664
58	0xbf952d750b43e75a	-0.020681217968536593
59	0x3fb6961fb352a0d2	0.08822820785519817
60	0x3fc7e165cc26337b	0.18656609028075963
61	0x3fb8ec17bf156ee9	0.09735248961572619
62	0xbf995473094fc08a	-0.02473621124585227
63	0x3fbf9717f8571e66	0.123399255876501
64	0x3fad624eea2479ce	0.05739065750298132
65	0xbf9bfabbba48b772	-0.027323659176708266
66	0x3fa08eb6aab8af7f	0.03233881792070203
67	0xbf7315e82699c0aa	-0.004659563864706376
68	0x3fa7bf2de964ac70	0.04638045763052723
69	0xbf9268b500000000	-0.017977550625801086
70	0x3fb8baae80000000	0.0965985357761383
71	0xbfbb4bfd700ccfdc	-0.10662826524350016
72	0xbfa5e6f9ea551c9d	-0.042777833800351696
73	0x3faf51e2695e2c20	0.061171603548324294
74	0x3f88c0cd4f169d91	0.01208649060829606
75	0xbfaaf45eba2d3e4b	-0.05264564535775359
76	0xbf89ce59b7772ad1	-0.012600613509581223
77	0xbf87ff714f54199f	-0.011717686875738318
78	0x3fb52d8266526888	0.08272566793530889
79	0x3f7613939dbb354b	0.005389763474977836
80	0xbfb05e0f721b61a5	-0.06393524680914327
81	0xbf72a44254b2bf60	-0.004551180939571825
82	0xbfc1e298bf2f5db3	-0.13972768149572587
83	0x3fa1130092c90ad9	0.033348100584154224
84	0xbfbe146284cafc26	-0.11749854795469669
85	0xbf8e2b654d25c81f	-0.014731208245141457
86	0x3fb0fb6997b581aa	0.06633624986489531
87	0x3fa828b732a46867	0.04718563550177706
88	0xbf5d231831d9021c	-0.0017783867146051796
89	0xbfb95e8b8bc454ff	-0.09909889375952118
90	0xbfb8daf02e5aac90	-0.09709073192304829
91	0x3fbd0604cbb1fe90	0.11337308857945971
92	0x3f8fe1c0d9969912	0.015567309036509634
93	0xbfbcf849eccad156	-0.11316358595906215
94	0xbfa5c46b00000000	-0.04251417517662048
95	0xbf949fcbc8482780	-0.020140823458894896
96	0x3f8b470eb2a8345b	0.013319125010662505
97	0xbfbe4e3e89eade99	-0.11838141314626184
98	0xbfbd30fb40000000	-0.11402864754199982
99	0xbf9e59572a7ef60a	-0.029637681931253858
100	0x3fa09dacdbe29d5e	0.032452966538864855
101	0xbfac756140ac457f	-0.05558303751434845
102	0xbfb5134ec618aef2	-0.08232586227739683
103	0x3fb4eb03f3e03940	0.08171105102539844
104	0x3fad6ed6ec954981	0.05748626363733234
105	0x3fa79daedc46d0f7	0.04612490118907602
106	0xbfa38b89d82d339e	-0.0381739689242757
107	0x3fb70deca894c0cd	0.09005622020481781
108	0x3fb7facec322cc12	0.09367077125607207
109	0xbfbae897dea2fbcf	-0.10511159120049672
110	0xbfb6680e46fcc2ec	-0.08752526505555708
111	0x3fa3f3075dcc011f	0.038963537406745845
112	0xbfa1166200000000	-0.033373892307281494
113	0x3fbc56eff3b978c4	0.11070155811600829
114	0xbfa44c1e0a6e25dd	-0.039643229268289316
115	0xbfb00330bcb81470	-0.06254868132971736
116	0xbfc03e7a1aa9ac5d	-0.1269066457929026
117	0x3fbbedd297bc339a	0.10909763531181085
118	0xbf8925b200000000	-0.012278929352760315
119	0xbfb5a274e4027b07	-0.08451014105456177
120	0x3f7e5ddb534449ea	0.007413727511691873
121	0x3fac31fff4b68a92	0.055068968412588806
122	0x3faa321ff8d7480b	0.051163672567454986
123	0x3faba821e423ad40	0.05401712331680608
124	0xbfbbcfc0b35369ea	-0.10863880518028393
125	0x3fb963d7f7a0baaf	0.09917974277116558
126	0x3f9f28dd3c8e8aba	0.03042932207211877
127	0xbfaf5936472a7c29	-0.06122750872349798
128	0x3f95936a00000000	0.021070152521133423
129	0x3fb3bfa200000000	0.07714283466339111
130	0x3fb9bbb600000000	0.10052049160003662
131	0xbfb1d02d80000000	-0.06958279013633728
132	0xbfbb5ba280000000	-0.1068669855594635
133	0x3fb8a1d640000000	0.09621943533420563
134	0x3f867b5200000000	0.010977402329444885
135	0x3fb7e71700000000	0.09336990118026733
136	0xbfb4dc23c0000000	-0.08148406445980072
137	0xbf8654aa00000000	-0.010903671383857727
138	0xbfab892900000000	-0.053780823945999146
139	0x3fb0b9d0c0000000	0.06533531844615936
140	0xbfbc992800000000	-0.11171197891235352
141	0xbf90336900000000	-0.01582111418247223
142	0x3fb52d1a40000000	0.08271946012973785
143	0xbfb75bd1c0000000	-0.09124480187892914
144	0xbfb75ce280000000	-0.09126105904579163
145	0xbfb03fad80000000	-0.06347164511680603
146	0x3fbacde440000000	0.10470415651798248
147	0x3f9d6fb200000000	0.02874639630317688
148	0x3fb586f880000000	0.08409073948860168
149	0xbfa88d1b00000000	-0.04795154929161072
150	0x3f83f68c00000000	0.009747594594955444
151	0x3fbbd25080000000	0.10867789387702942
152	0x3fbfde7340000000	0.12448807060718536
153	0x3fb01d2200000000	0.06294453144073486
154	0x3fb43ebc80000000	0.07908228039741516
155	0x3fb35e1f00000000	0.07565492391586304
156	0xbf7c67f800000000	-0.006935089826583862
157	0x3fb03cfa80000000	0.06343045830726624
158	0xbfb5950040000000	-0.0843048244714737
159	0x3fbb48dc00000000	0.10658049583435059
160	0xbfa6030180000000	-0.04299168288707733
161	0xbfb6a96780000000	-0.08852240443229675
162	0xbfb2792dc0000000	-0.07216154038906097
163	0xbfbca9d200000000	-0.11196625232696533
164	0x3fa384db00000000	0.038122981786727905
165	0x3f9940e200000000	0.02466157078742981
166	0xbfb5c5da40000000	-0.08505024015903473
167	0x3fb38f7a80000000	0.07640805840492249
168	0xbfbb70a940000000	-0.10718782246112823
169	0x3fa0d28d80000000	0.03285638988018036
170	0xbfa83ffe80000000	-0.04736323654651642
171	0x3fb81cd080000000	0.09418967366218567
172	0xbfbb78e900000000	-0.10731369256973267
173	0x3fb6f07dc0000000	0.0896071046590805
174	0x3f9b52a700000000	0.026682481169700623
175	0xbfba84b800000000	-0.10358762741088867
176	0xbfba807240000000	-0.10352243483066559
177	0xbfbbae5d80000000	-0.1081293523311615
178	0xbfbf125c00000000	-0.12137389183044434
179	0xbf6ce44800000000	-0.003526821732521057
180	0x3fb7032dc0000000	0.08989225327968597
181	0x3f900c1c00000000	0.015671193599700928
182	0x3f94dbac00000000	0.020369231700897217
183	0x3fb054f480000000	0.06379631161689758
184	0x3fb6042f00000000	0.08600133657455444
185	0xbf8dde3000000000	-0.014583945274353027
186	0x3face57100000000	0.05643799901008606
187	0x3fbeb4c880000000	0.11994603276252747
188	0xbfb6496a80000000	-0.08705773949623108
189	0xbfb4a46440000000	-0.08063341677188873
190	0x3fa7ca9d80000000	0.04646770656108856
191	0x3fba49f340000000	0.10269089043140411

linear2.bias f8 [3]
0	0x3fab686160063854	0.053530734035221045
1	0x3f94ad7191c6e1b0	0.0201928849434993
2	0x3fa4038e80000000	0.039089635014534
