checkpoints/final_with.ckpt (torch, 271759 bytes, 8 tensors)

linear1.weight f8 [64, 2]
-0.2494178531024965 -0.4952775917998085 -0.05876830690259037 -0.7490958535845087 -0.21021967152872065 0.43225066038841153 -0.3619228476830488 0.2241716810288367
-0.06115708881275041 -0.6172659598905137 -0.5825407718723883 -0.4020756042528158 -0.4329767319683273 -0.7543358346988472 0.055213073066004995 -0.29641578206128966
0.23489883640641038 -0.0852399412729893 -0.46650082829404343 0.8672768194886823 -0.27077784795732285 0.16751171232973244 -0.19597783735066615 -0.529999506827141
-0.6640289271106827 0.18177527487328593 0.23410210118478186 -0.10228236367750011 -0.2657680879492369 0.8165796446826434 -0.3509306096238694 -0.4722292121056329
-0.4345658018050848 -0.38881880048009543 0.2130739742441315 0.5153545860516691 -0.003001189274905513 -0.12890715801251273 -0.2719746714543479 -0.9413978178528832
0.07244110419809482 0.45151229240376256 -0.06894097555859702 0.8577620529105934 -0.18736712448216733 0.9648949327968178 -0.6576922914052524 -0.23159677932363534
-0.400580688473458 -0.32845923919468134 -0.3844666236961518 -0.2800825963631205 0.28760326769460876 0.07577612834404672 -0.08116132158171724 0.10938440371446298
-0.4582277139935988 -0.352131110359918 -0.6171380739705445 0.5273797679392047 -0.2449826298663125 -0.45075451962409724 -0.7579608189870984 0.3474297337121377
-0.5645084955400674 0.17399207153876792 -0.02022893585786888 0.002320085593857446 -0.01991191778784279 -0.38629120410732326 -0.7270183107885028 0.5592187174683731
0.2558868661559605 0.08124166025049398 -0.023614588077379574 1.0987654575614432 0.06701322683828435 -0.06214950041655973 -0.7735589868316505 -0.7290529560272501
-0.5561160321531093 0.17586519124020733 -0.041916942492312544 -0.28567067864074036 0.09555898965747492 -0.28052755112445776 -0.40306156141575133 0.46104714740233327
-0.3082382153472879 0.09621082154867387 -0.7349677073112132 -0.5423340450656431 -0.5376821627874807 -0.2644794787930678 -0.7014764522586329 -0.4019338002964099
0.15726802671077503 0.08387154849447101 0.1096149003603576 -0.6561219869190873 -0.03589464736668469 0.1736051847375532 0.15067802484991868 -0.3057595285964793
-0.624355433725491 0.5448767462681607 0.042006095586136154 0.9208496460076016 0.007966419070682875 -0.4274618732183326 0.11166067586784878 0.1521835642908282
-0.45228537528063567 0.000880531615581299 -0.715441572404991 0.3123560855104074 -0.38935906917244106 -0.38825244563631395 -0.6926125598838225 -0.3038691348225257
-0.3348154997309472 0.5114672911039021 -0.4527164852170617 0.12139363595409502 -0.01436781270553596 -0.005066179789081281 -0.06335203394874281 0.5639385013610986
00000000: 838f 0e99 ecec cfbf 3932 cec8 a0b2 dfbf
00000010: 9e36 6028 e116 aebf 92de 16de 97f8 e7bf
00000020: 338a 186b 7ae8 cabf 74ba 82ac fea9 db3f
00000030: 1d54 9e72 be29 d7bf 35a6 5a5b a8b1 cc3f
00000040: e218 bd60 fb4f afbf e23d d58a a4c0 e3bf
00000050: 82e9 788b 2ca4 e2bf 1142 b250 9bbb d9bf
00000060: 38e8 ee09 e4b5 dbbf e96f 87e7 8423 e8bf
00000070: 02a3 424e e344 ac3f 192d 7ee6 79f8 d2bf
00000080: 47f3 1d42 2a11 ce3f 5998 14e8 48d2 b5bf
00000090: e71b 454a 26db ddbf 950c 0951 bbc0 eb3f
000000a0: 404f 5d9c 6c54 d1bf c69a 1317 0671 c53f
000000b0: beb9 1441 cd15 c9bf 96ff 9686 c1f5 e0bf
000000c0: 2a3a b197 b93f e5bf a0ad 6686 6944 c73f
000000d0: 0ebb 41c2 0ef7 cd3f 31d3 f34e 2d2f babf
000000e0: c2fe 8327 5802 d1bf 5ab8 8fa2 6b21 ea3f
000000f0: bdfd dfa8 a575 d6bf 1d69 8ddf 0039 debf
00000100: 739f ad14 edcf dbbf 0472 0840 68e2 d8bf
00000110: eaee 800b 0246 cb3f eaef 9de6 c87d e03f
00000120: 9849 1d39 f395 68bf 7028 f19d 0780 c0bf
00000130: 3927 cf73 0868 d1bf 5686 0651 ee1f eebf
00000140: f2bc 6a0d 808b b23f fe6e 67d0 93e5 dc3f
00000150: 00e6 60a3 1da6 b1bf b806 a067 c972 eb3f
00000160: 518c ff5b a5fb c7bf c907 8e56 6be0 ee3f
00000170: ed56 4db4 d00b e5bf 99e7 8698 f6a4 cdbf
00000180: 49c5 192f 1da3 d9bf ae40 9ae6 7905 d5bf
00000190: b86c cbe5 199b d8bf 5abc e38d dfec d1bf
000001a0: 2426 3e89 1768 d23f 3b20 0e79 1066 b33f
000001b0: ecc3 e405 fdc6 b4bf 7665 a5c4 9d00 bc3f
000001c0: 574b 6e55 9a53 ddbf d799 b9ec 5089 d6bf
000001d0: c43c 9a58 98bf e3bf dade fb88 4be0 e03f
000001e0: c993 ae3f 975b cfbf edd1 137c 29d9 dcbf
000001f0: e95d 260c 3741 e8bf 58e7 fceb 493c d63f
00000200: 7e14 d51e 7410 e2bf bfda 8248 5f45 c63f
00000210: fd0b c5e7 e4b6 94bf 1938 fc77 9201 633f
00000220: 2f36 cc2e ca63 94bf 05e6 17be feb8 d8bf
00000230: c9c0 8de7 bb43 e7bf a8ce daa6 1ee5 e13f
00000240: ef68 674e 7360 d03f d23e d9e1 40cc b43f
00000250: 9ae0 002e 6c2e 98bf c836 a316 8b94 f13f
00000260: ff7b ab61 c727 b13f 1cf4 802f 0fd2 afbf
00000270: af00 bfc6 fec0 e8bf a40d 66dd 6654 e7bf
00000280: dc1f 5cd9 b3cb e1bf 36d4 7026 c082 c63f
00000290: 293b 4e32 2376 a5bf ec09 8cab 6d48 d2bf
000002a0: 92eb 6acf 8d76 b83f 8737 6dd4 29f4 d1bf
000002b0: d08a 23b8 c2cb d9bf 8974 00e5 cb81 dd3f
000002c0: 02d1 92c7 2cba d3bf 0fa6 12bc 45a1 b83f
000002d0: 7f91 50ff da84 e7bf f80e 62ed cc5a e1bf
000002e0: a912 1a39 b134 e1bf 4d47 f855 3bed d0bf
000002f0: 89ad abbe 7e72 e6bf 5c86 db8b 48b9 d9bf
00000300: 1df1 b6d3 5b21 c43f e23f d915 9b78 b53f
00000310: 89b8 33dc b80f bc3f ee20 8089 f3fe e4bf
00000320: 912d 1581 c860 a2bf f691 6ed7 b138 c63f
00000330: 4167 7ae2 6a49 c33f cbc8 f069 9091 d3bf
00000340: c3c9 1d3f b8fa e3bf 1253 b25b a16f e13f
00000350: 87da 8cad d281 a53f af58 44ad 9977 ed3f
00000360: 4e9e ffaa b250 803f e49d 700b 895b dbbf
00000370: d806 1a47 cb95 bc3f be14 cf43 c07a c33f
00000380: cf85 d25b 3ef2 dcbf 085f fa3e 6fda 4c3f
00000390: 3eb4 75b9 e5e4 e6bf 6652 fe60 a4fd d33f
000003a0: e3c8 1f4d 42eb d8bf 2d66 26c9 20d9 d8bf
000003b0: d9fe afd0 e129 e6bf 67e6 1487 9772 d3bf
000003c0: c173 62fd 9d6d d5bf a57a 08a7 f05d e03f
000003d0: 9f82 9790 4ef9 dcbf c088 5d40 a713 bf3f
000003e0: 6a8e 7b2d df6c 8dbf 65fa 2748 46c0 74bf
000003f0: 12e7 f1c1 d637 b0bf 2fa3 89c1 c80b e23f

linear1.bias f8 [64]
0.3446110658601365 0.33307478748901387 -0.1504101685593254 1.2534777120769742 -0.1900289208231942 -0.13580305445855018 -0.49633013161912914 -0.029828802674593802
-0.3089889654110635 0.0893926969844979 0.07459710484503665 0.14443519529092638 -0.5245733091595315 -0.8864133567221955 -0.2890805594861954 -0.49040115228860237
-0.6828511955280653 -0.9343020884432337 0.4900809685037259 -0.1353779049260566 0.48197061775406913 0.1490562281461771 -0.05869956187098423 0.7737793361629696
-0.6303552971258418 0.6451330154725856 -1.0025727847574841 0.961949725633761 0.12264593066290348 0.8810857842781236 1.0848440499863918 -0.6581794798288791
-0.43794912838725275 0.9109512304962137 0.0481273922022817 0.8876262812559399 -0.2383111232331149 0.01075445404264935 -0.4044870146197961 0.6285989007063311
-0.4339812560024568 0.21105928100993632 -0.04729608904123445 0.7157751530734955 -0.601028362470441 0.30782326755026385 -0.41744353440243437 -0.4606160194056551
-0.07808099856353279 -1.0308763964447745 -0.20180472169884076 -0.18824108203745538 0.024056774522214105 0.5449224274938306 0.7510847024511111 0.1406899454971584
-0.4949678306099785 0.5133864807634025 -0.6592701846831546 0.701578591212822 0.8864034307807028 -0.05745726532335759 0.7762675165675291 -0.0784401384960233
00000000: 1160 6d92 1b0e d63f 38cc d8e9 1851 d53f
00000010: fb5c 79f1 a340 c3bf 0b2b 3aa5 3e0e f43f
00000020: d769 1d20 de52 c8bf 2e56 cc96 fe61 c1bf
00000030: cdb4 d474 dfc3 dfbf 2d68 dd0f 718b 9ebf
00000040: 33fc 50a7 79c6 d3bf 46b6 0c96 70e2 b63f
00000050: 0e8b afbd cb18 b33f 473c 153c da7c c23f
00000060: dc3a e6f6 4dc9 e0bf 4c80 3b8b 7f5d ecbf
00000070: 10c4 39bf 4b80 d2bf 4e04 c083 bb62 dfbf
00000080: 397b 1ac0 ead9 e5bf 8f57 4e7e cde5 edbf
00000090: 7f64 0791 7c5d df3f 9813 212d 1054 c1bf
000000a0: c6be 384a 9bd8 de3f b793 9344 4614 c33f
000000b0: ff01 0d75 de0d aebf 577f e4e1 ccc2 e83f
000000c0: df81 40df de2b e4bf aac9 60fe eda4 e43f
000000d0: e649 a6c2 890a f0bf 1ac8 7fca 4ac8 ee3f
000000e0: 7d45 2f45 b965 bf3f dd3d 8ed0 da31 ec3f
000000f0: 563a 3f6f 855b f13f 2e6d 9869 ce0f e5bf
00000100: 8409 efc7 5b07 dcbf 266e e731 8326 ed3f
00000110: b3e3 194f 27a4 a83f 3c0f 223b 6f67 ec3f
00000120: a595 4798 fa80 cebf 5e34 3263 6e06 863f
00000130: 78b7 dc80 1de3 d9bf 50ba 1a71 7b1d e43f
00000140: 31e2 6651 59c6 dbbf d03b ba92 fd03 cb3f
00000150: 2955 5267 3137 a8bf 8cae 374b a1e7 e63f
00000160: 63ed 18d5 9f3b e3bf 23e1 c45c 60b3 d33f
00000170: c9d8 0b16 65b7 dabf 761a d79c bb7a ddbf
00000180: 28f7 44c7 1dfd b3bf 9e2d 8f3f 787e f0bf
00000190: cffc efb3 bcd4 c9bf b8a8 8ea5 4818 c8bf
000001a0: dfd6 47cf 56a2 983f 832c 9e28 0170 e13f
000001b0: 90b5 31c9 e208 e83f 10a6 64cd 2002 c23f
000001c0: e8ae 428d 8dad dfbf 8ccb 227c a96d e03f
000001d0: 1a25 4ec9 bd18 e5bf 7da6 1af2 5473 e63f
000001e0: 7d7d 48ba 6a5d ec3f 1f7c f6e6 096b adbf
000001f0: 8159 93f9 2ed7 e83f cabc 8825 a714 b4bf

linear2.weight f8 [3, 64]
-0.016394442473616145 0.009395902317409213 0.03687208929941063 0.05567788806220081 -0.16128874211416952 -0.017201193190974916 0.10766320924219107 0.08080096699713188
0.02602345674748987 -0.008983172099769173 0.09630432972106895 0.04528454544292651 -0.13200207795757182 -0.10612852312086227 -0.03434063223795917 0.041120098105420014
0.007085673415373226 -0.17412219918866187 0.03800065271281329 -0.06597797417119355 -0.16788882712128106 -0.006658010712447054 0.03424914482354833 -0.06077254483765109
0.12570799223684667 -0.05132933600306085 0.04323739295556975 0.04334368795885924 0.013413517441310576 0.01796096036007061 0.0741816675096838 -0.011582074258757277
-0.1811395333586617 0.02527397461079435 -0.03200463744961199 0.03755333194602133 0.00852761274396351 0.0944795561573143 0.015745181357633694 0.08829680256163577
0.04174425489936647 0.05593789642438654 0.015421748205072791 0.041643254371854205 -0.05574029414296293 -0.08532441847309724 -0.006737138926937594 0.11693590207694497
-0.015059823048529668 -0.10313505701609207 -0.07226049559385306 -0.08426992974942776 0.14191671677150744 -0.20134628279340971 -0.11456537348424779 -0.08186233642013821
-0.19086294106496193 0.030722582415015173 -0.06277172987075315 0.11371216130147856 0.0022452568130459727 0.043333766300268466 -0.06501566474873416 -0.13191822668651412
2.162821509669355 -2.687102806064159 -2.3173227013497604 0.0007869509174785973 -2.409856612799767 2.2652966707207027 -2.449305089083349 3.2249924913139223
-3.1171820208834946 -2.5674924128925625 -2.3937450585700684 2.361289158722651 0.07064945131029841 2.3020479002941565 -1.4017763439536202 -1.959806203250483
2.4069679420003336 2.570952502027347 2.4664524285847316 2.5452454626633454 -0.2490326596649504 -1.6338453767788803 2.4266438062213394 0.11309315269351931
-0.17358612356964892 -2.456597152934242 -2.278667618994815 2.8817453448315695 -0.0364092163082054 -2.1878403689285215 0.5580849461045628 2.298881426567046
0.009057794864763631 2.5826146646673007 -3.2336868451652063 -0.21619171428728298 -2.921866785059953 2.6159548865455324 2.8211310933227867 -0.3050415994465526
-3.3728345088863163 1.1004698707043274 3.6264318060985388 3.1600459062176887 2.3066130877918116 -2.549617089841429 2.4947944442007803 -3.288846576304949
3.094987106350591 2.420152370741243 2.453068009753822 2.330928462082977 3.386554138629453 0.3462279928825559 -2.5385402940768875 -0.24991023673893423
-2.4841469427016274 0.10218820040373089 0.16530051562007458 0.17728287723864336 -1.7180862671970456 2.4270323797487277 -0.5278951325116814 -2.315369027652461
-0.10248212189653438 0.5203970966347049 -0.09875691376552781 0.37001452315938543 0.20898946484872902 -0.27157601603882403 -0.07491546577367797 1.4899351026975711
0.6910226754997021 -0.09440937290170837 -0.320446171791703 -0.050305601724693796 -0.2264751567505112 0.39895049747733835 -0.6675574767498119 -0.07693032680692527
0.1940286450821855 -0.36926872689539614 -0.12669976339591016 0.4365581985993814 -1.105119827233036 -0.1626070081046931 -0.2179639673966792 -0.5321518574019052
0.7782335899346978 -0.04594582876937908 0.28072896686024373 0.8216943522207104 -0.4714300153910538 -0.3408177622706045 -0.015761234031532963 0.0221536971383983
-0.27591702663834805 0.13141935420395234 -0.5261684784196815 0.31826987871373164 -0.1776493427778486 -0.06354206611086517 0.15479450110767834 -0.7090810594753938
0.3896157105704159 -0.014851609391605151 -0.25155548869122074 0.43739873805554075 -0.9132554816297443 -0.13044015023813285 -0.1826028754990973 0.10018301032190019
-0.4404986304770418 -0.17772713454457184 -0.11441200626252371 0.03708887014980296 1.4509047520116178 -0.3596783887805613 0.377476446378439 0.37982988724468514
0.05165146269940341 -0.08507367025584457 -0.2925731653970524 0.37919326307294243 0.34093092877847614 -0.27757457483107256 0.2454070246889837 0.0793818651242944
00000000: 2d95 0a69 b4c9 90bf db82 5ba9 283e 833f
00000010: ac31 5a03 e6e0 a23f f8cc ace8 cf81 ac3f
00000020: 6ff2 4b08 1ca5 c4bf a364 d488 309d 91bf
00000030: 3778 adea d08f bb3f 2ee4 bc46 5faf b43f
00000040: e629 a39e e4a5 9a3f be12 10f3 c465 82bf
00000050: 387d 9d8a 66a7 b83f c418 6233 892f a73f
00000060: dd78 eaaf 71e5 c0bf 0615 fa27 3d2b bbbf
00000070: 85a1 c568 1895 a1bf fa65 2489 b10d a53f
00000080: e437 6df9 dd05 7d3f 67ee 82df a249 c6bf
00000090: b2a1 4151 d274 a33f f854 52b9 eee3 b0bf
000000a0: f8c2 ec8e 617d c5bf 5315 4324 6e45 7bbf
000000b0: 4dc0 dd99 1a89 a13f 4712 2539 941d afbf
000000c0: df64 c011 3317 c03f fbc5 eab6 d647 aabf
000000d0: f4bc 6a29 3623 a63f b1eb 8ad4 2431 a63f
000000e0: fbc6 e0d5 8b78 8b3f 90af 67a5 5b64 923f
000000f0: e0b5 eadb 91fd b23f 5826 4ab1 57b8 87bf
00000100: 33e2 e489 942f c7bf 34bc 92b9 6be1 993f
00000110: 0c35 556e e962 a0bf c7c3 20b9 303a a33f
00000120: fa44 c9ce ec76 813f 2915 d6eb cf2f b83f
00000130: ffa3 003c 811f 903f d2f5 5787 9e9a b63f
00000140: bb65 2dc3 805f a53f 94e2 7f57 e4a3 ac3f
00000150: b8e3 8001 7095 8f3f 2c93 40bf 4352 a53f
00000160: 36af d3e8 fd89 acbf 5065 e432 d2d7 b5bf
00000170: 69c3 c1f5 6698 7bbf a313 26e3 82ef bd3f
00000180: e9db d03b afd7 8ebf b288 f420 0f67 babf
00000190: 404c 5ef1 a97f b2bf cc5c 4fd0 b692 b5bf
000001a0: 6908 a5b4 532a c23f 146a e209 b7c5 c9bf
000001b0: 416e 5e04 2854 bdbf 4ada b219 eef4 b4bf
000001c0: bc39 f264 326e c8bf 6c76 e29a bd75 9f3f
000001d0: d581 e8de ce11 b0bf 0984 f27d 3d1c bd3f
000001e0: d231 a912 a564 623f 27f2 24ea d72f a63f
000001f0: c4d1 d2d9 dda4 b0bf cdb4 ae4a b2e2 c0bf
00000200: fceb 185d 754d 0140 7c48 88c1 2f7f 05c0
00000210: d29a 047c e089 02c0 d9db 203a 6cc9 493f
00000220: d631 60e7 6247 03c0 63dd 63dc 531f 0240
00000230: 9750 3c44 2d98 03c0 964f 00dd c8cc 0940
00000240: 8afd 9a20 fdef 08c0 40d0 5076 398a 04c0
00000250: 0f29 2ccf 6326 03c0 b6e7 0892 ebe3 0240
00000260: dfaa db1a 1516 b23f 02b6 ec16 986a 0240
00000270: 5c65 1908 ad6d f6bf 0e57 d7bf 5d5b ffbf
00000280: 7c4b 8b68 7841 0340 f236 9e8b 4f91 0440
00000290: 224a 2f69 4bbb 0340 a073 33a7 a95c 0440
000002a0: 51cc 725c 4de0 cfbf 05c7 bf0c 3b24 fabf
000002b0: c917 563a c469 0340 035f 3840 acf3 bc3f
000002c0: feb1 e2f1 1138 c6bf ed64 7a68 1ca7 03c0
000002d0: 9c4b b016 b63a 02c0 5b9d db80 d00d 0740
000002e0: b42a a292 3aa4 a2bf 2555 8b73 b280 01c0
000002f0: b116 fdf5 d4db e13f f7e5 03f2 1b64 0240
00000300: f189 bea5 e48c 823f 1954 97e0 31a9 0440
00000310: 79eb 6b35 97de 09c0 e3d8 438b 2bac cbbf
00000320: 2dcf 68b1 fb5f 07c0 1432 6cc1 79ed 0440
00000330: 9766 bc2d ad91 0640 eab7 6233 cd85 d3bf
00000340: 46e5 b3a8 90fb 0ac0 f388 8e4b 869b f13f
00000350: 83f0 c2ad ee02 0d40 5e82 e825 c647 0940
00000360: 34bb 0490 f173 0240 7688 11a5 9d65 04c0
00000370: c5ad 20ca 56f5 0340 a254 36cb 8e4f 0ac0
00000380: 2a8a 9a99 88c2 0840 325d 9dd8 785c 0340
00000390: 430d e61e e29f 0340 19b2 4fd2 bda5 0240
000003a0: 2860 3cb2 a917 0b40 a6fa 9874 9928 d63f
000003b0: 8e1b b536 ee4e 04c0 055b dd02 0ffd cfbf
000003c0: 1fe5 aa6e 88df 03c0 0068 c582 0129 ba3f
000003d0: f6d1 4c3a 9128 c53f 9dbc f08f 34b1 c63f
000003e0: a516 9506 487d fbbf a9d4 caf3 8f6a 0340
000003f0: 465e 3b55 84e4 e0bf 5682 5f32 e085 02c0
00000400: a065 f8b1 443c babf 5257 dfcf 17a7 e03f
00000410: 3478 e012 2248 b9bf 20ef 0065 51ae d73f
00000420: 3bee 5db2 2ac0 ca3f 2ff1 d05e 8061 d1bf
00000430: f469 76f3 a82d b3bf bbf9 b330 c6d6 f73f
00000440: bb19 0296 db1c e63f 0078 0c71 362b b8bf
00000450: 1e52 fea8 3082 d4bf 7223 6de4 a7c1 a9bf
00000460: 27ca cc4f 23fd ccbf 9cd6 d8aa 6788 d93f
00000470: 33e7 5a7f a15c e5bf 72d2 b4b5 b4b1 b3bf
00000480: 27be 8e3e eed5 c83f cee1 5c4c 19a2 d7bf
00000490: b822 19a6 b237 c0bf b43d 72cc 91f0 db3f
000004a0: 7008 c220 92ae f1bf f97c f472 4ed0 c4bf
000004b0: 3b6b d647 3ee6 cbbf b37f 0155 6307 e1bf
000004c0: e961 2d21 4ae7 e83f 8879 e72f 3686 a7bf
000004d0: 6818 eda0 76f7 d13f 4111 43f4 514b ea3f
000004e0: 4445 9dcc e82b debf 1348 b64d f5cf d5bf
000004f0: c213 d782 b623 90bf 5a96 c772 75af 963f
00000500: 9e8f 74e3 9fa8 d1bf 7807 2f72 59d2 c03f
00000510: a5f4 df46 5fd6 e0bf bb26 18a0 885e d43f
00000520: 2481 b1b2 36bd c6bf bdce ddf7 4a44 b0bf
00000530: b0d6 ed63 4ed0 c33f 781d 15c3 cab0 e6bf
00000540: 6018 babb 76ef d83f 8f0e 0a45 856a 8ebf
00000550: c3b7 4331 7c19 d0bf 6aa7 d046 57fe db3f
00000560: 67c2 4f8f 6339 edbf 75d6 ad49 43b2 c0bf
00000570: 9d4b 36f1 875f c7bf 4488 f200 98a5 b93f
00000580: 4d3a f52a 2131 dcbf 7e88 3d43 c3bf c6bf
00000590: 4ad3 2af1 1a4a bdbf aa90 adf8 4ffd a23f
000005a0: a403 b8e6 e736 f73f b1fd 3881 f804 d7bf
000005b0: 142a 0df8 9228 d83f 3698 f003 224f d83f
000005c0: c943 2b7e 0f72 aa3f e1e1 7f57 63c7 b5bf
000005d0: 8f52 44cc 84b9 d2bf 88c1 f0d1 b344 d83f
000005e0: f919 53f5 cfd1 d53f 996f 4626 c8c3 d1bf
000005f0: 89b9 9f54 7f69 cf3f 34b5 9ab2 5e52 b43f

linear2.bias f8 [3]
0.07142788680122417 2.400499901766043 0.13765363323147617
00000000: f269 d515 1949 b23f 4817 e14a 3934 0340
00000010: 78cf 735e a29e c13f

encoderlstm.weight_ih_l0 f8 [256, 64]
-0.1599557381421327 -0.022503231572920453 -0.08971701758376455 0.08418091932927801 0.0020187374795706575 -0.0636918404182013 -0.08028814670506623 0.03239599178517348
0.054907730891401725 0.04895795956832257 0.025498962318950862 -0.02919648967238137 0.03091974623929855 0.09472965430496846 -0.1331423174519091 0.11383202740934148
-0.10097774880432442 0.05623536854638604 0.023997302894856947 0.07048769786744481 -0.14862769851054833 0.015390424686570165 0.016136077896487144 0.10538548279947495
-0.04810458814612752 0.012678786270594782 0.04238599068467147 -0.046664141968667264 0.06274838186155803 -0.012066778394153505 0.06274667265028701 -0.12673148271075704
-0.028521223795248744 -0.11652693152253685 0.10230092000572662 -0.04371475271963733 0.018762185882510052 0.08815451142877327 -0.026997951476282277 0.06031473525798716
0.027748012560491586 -0.07130602859559716 -0.03543077619103659 0.09647198368774994 -0.0040813937842656516 -0.06375280443899052 -0.08972113859869514 -0.012216986823726116
-0.1284238782589229 0.005705592600066499 0.01439661344334251 -0.012302348413588442 0.10754525244761884 0.08009089100893393 -0.22840114000979742 -0.06569011604110109
-0.11665184887879614 -0.04440281156155426 0.05465060525561626 0.06885712752606325 -0.02910105422399404 -0.1071317351169184 -0.027765703892167974 -0.11448436319481745
0.11899888426667883 0.1484294900283722 -0.04240650292175777 0.09810142352825474 0.04258370494728333 -0.027650705873427245 -0.011683713965890057 -0.013106755738113443
0.20960894473394087 -0.06759778278594195 0.05959930606759567 -0.09153762326125786 0.029445837365990497 0.0819521989966564 -0.016454180771612682 0.08917353847783555
-0.05682207627881033 0.15703751995942986 0.04472774691760349 -0.08476576434852716 0.07882582479366523 -0.07228596453313836 0.0695517803562215 0.007956758328727647
0.05856224618810277 0.09161712296177374 0.05559458929334401 0.027928537664992047 -0.10927485064633694 0.09729614419827799 -0.058851991699613644 0.03928294955414191
0.07159215188244798 0.11598771452775618 -0.09429232466242997 -0.0937515417321115 0.04978773458388805 0.023727350170769004 0.03896755753699096 0.01546508265858466
-0.10865435587082573 0.07054208096574802 0.028300105672048253 0.12294151833723765 0.05877536943279928 0.10347295981044934 0.10501260866657902 -0.05378757051347866
0.10323128021400586 -0.007816603946630018 0.07827492239225678 0.14038399943721022 -0.028319656345800533 0.12396894459425856 0.030061688357687542 0.017644445208247452
0.11041675301527441 -0.06476991982131206 -0.02211538695521194 -0.011158053980289694 -0.056691071469278466 -0.08139874792706993 0.04880281241879589 -0.06749136469246268
-0.07462324097749108 -0.07812574795494073 0.013717518777576135 -0.07053191135004971 0.07360102427847003 0.10854887946782775 0.0607768048888826 -0.03659430810302077
0.0028128857933323657 -0.03957049311740707 -0.08099779209411309 -0.1170961501482435 0.0001605788371170062 -0.006490474941100558 0.12607948436058145 0.06714641276308486
-0.0038799892725432457 -0.020807073361578318 0.08421095370349523 0.08436317262993723 -0.05639019005489576 0.07457890870618242 0.1106503506266567 -0.05735506988635726
-0.07152616805164284 -0.1322634422921982 0.09809350948948467 0.09488546857875062 0.020549542792537956 -0.08589057304981064 0.0273081392165213 -0.09738901462169218
0.017450971618682868 -0.13283731188580486 -0.013232085558608222 -0.11746762992517694 -0.13233471710576267 0.15119652358536922 -0.059367521483900954 0.0063151204213765496
-0.09611361013719641 -0.09813524130616316 0.07070212009480342 -0.10507245218265515 -0.10080719406405173 -0.1307430309998318 -0.11762972225938156 -0.12660168049489065
-0.11930960118034636 0.04206001962383656 -0.030228816828156355 0.0058576909616344895 -0.019961653780614683 -0.027501414402514784 0.024396373533547882 0.060277382702649054
0.020088523381690232 -0.08056972374745434 -0.04660111853701131 0.0796080937629667 0.07793989211381101 0.09752771173857497 -0.04929320958509298 -0.003748580920323057
0.06145166409303043 0.14632621014661265 0.006997123803384887 0.04530877372691206 0.16179925562458516 -0.09058556905525528 -0.06669251195642549 -0.06285276949014285
-0.07235112206400388 -0.07544334854574472 0.07727327745656501 -0.1342663695206305 -0.01790445073501341 -0.05044892411574778 0.03829968433925466 -0.024244453147472034
-0.09525212129182313 -0.052858075093842265 -0.0035147632679465653 -0.06529132446960163 -0.15363679689859272 0.11348234941167694 -0.014013211785971728 0.06756852515040261
0.0403673814272779 0.06184576793242658 -0.13553082654073514 0.06853517318593215 0.0336846530742614 0.07539231424501129 -0.017023175163972514 -0.018856714289853492
0.05840262471263611 0.03294670738690046 -0.05334618289296772 0.13506397885649365 -0.14990311537955317 -0.07898028825528343 -0.10831990900717944 0.005147983553489918
-0.042990028834651174 0.09393948850512292 -0.08267963594393513 -0.03443143270243782 -0.1163651526410243 0.04301190000837608 0.053388356440594795 0.05101375611241552
-0.12701180168495005 -0.09892633290731351 -0.0796251044757654 0.12823040197072144 0.03458399528555433 0.062152139281529094 0.13399504004321852 -0.025236533414429548
0.09778565975609614 -0.05051592307259078 0.09579931260674417 0.13432866056016418 0.1690690043727395 -0.047864794444864675 0.07443806848895598 0.07309565626337118
00000000: 4c62 10fc 6d79 c4bf 22d9 a34e 160b 97bf
00000010: a4bb 6ac8 b1f7 b6bf 246a 7777 e18c b53f
00000020: 89e2 866e 9989 603f 0844 9ec3 1b4e b0bf
00000030: 40ce 5a94 c38d b4bf 9e44 7a1a 3596 a03f
00000040: 89c8 f3b8 dd1c ac3f ab1d 7386 0411 a93f
00000050: 5ba2 f764 661c 9a3f d119 3441 afe5 9dbf
00000060: d0f7 970b 6da9 9f3f 7e83 33df 3340 b83f
00000070: 71b5 95b5 ce0a c1bf 26e3 f582 1824 bd3f
00000080: b0ff bc80 add9 b9bf 560a 92d9 e1ca ac3f
00000090: aba1 80bc bf92 983f c96a 1c55 7b0b b23f
000000a0: 7ff7 3080 3b06 c3bf 8a5b 9ad5 0385 8f3f
000000b0: 338c 67db f985 903f 73cf 1802 8bfa ba3f
000000c0: e215 c021 2aa1 a8bf 69d8 14e3 55f7 893f
000000d0: f833 99d7 9db3 a53f ba7a 4dc7 5ce4 a7bf
000000e0: 65e9 f827 4710 b03f 0a58 9194 77b6 88bf
000000f0: b13e f77a 2a10 b03f 9fe2 ceba bc38 c0bf
00000100: 311c c5ed aa34 9dbf 4416 fe7f b5d4 bdbf
00000110: 957a c6a1 6430 ba3f 0230 91b2 c761 a6bf
00000120: 1042 11fb 6436 933f 37d9 9447 4b91 b63f
00000130: e637 99da 59a5 9bbf a3c6 ccae 92e1 ae3f
00000140: 70bd e799 f969 9c3f 1563 d3a4 1c41 b2bf
00000150: fb58 0692 fb23 a2bf 334c eb4e 63b2 b83f
00000160: 0c53 35cd a6b7 70bf ddff 1792 1a52 b0bf
00000170: 4191 0aec f6f7 b6bf 9995 e836 3805 89bf
00000180: 39e3 9292 3170 c0bf 5803 f259 bf5e 773f
00000190: 3369 4cbf f87b 8d3f 7689 cd40 f931 89bf
000001a0: 2243 1aee 1588 bb3f 5e43 972d d680 b43f
000001b0: 8108 5ba1 3f3c cdbf 3825 1144 11d1 b0bf
000001c0: 1bce f343 e5dc bdbf 44c0 031f f7bb a6bf
000001d0: af17 8f04 2afb ab3f 5329 d2e6 9ea0 b13f
000001e0: 0a49 afb0 aacc 9dbf c6de b042 fc6c bbbf
000001f0: ce4b abd8 9c6e 9cbf 863b d3e3 d84e bdbf
00000200: 7995 2ffc b576 be3f 4e87 b7ce bcff c23f
00000210: 4594 5f1e 4eb6 a5bf b4b1 bec5 2c1d b93f
00000220: 0ba4 2e08 88cd a53f 8830 c075 7750 9cbf
00000230: f6d6 088b a1ed 87bf e8cd 03fa b6d7 8abf
00000240: 9869 4a45 77d4 ca3f fe04 599a 164e b1bf
00000250: 8067 d9dc cc83 ae3f 5cbb 427a 026f b7bf
00000260: c207 f6b1 0c27 9e3f e8a2 86be d1fa b43f
00000270: 6aaa 2f61 5dd9 90bf 8c4f 6eb7 13d4 b63f
00000280: 83da 9d7e c817 adbf d93f 3c32 ce19 c43f
00000290: 1e41 7824 8ee6 a63f a386 b289 35b3 b5bf
000002a0: 2cab 91e3 ed2d b43f 6d30 a13d 5581 b2bf
000002b0: 1c30 023e 25ce b13f 76b7 6e06 a24b 803f
000002c0: dcff 50e8 defb ad3f 92da df42 3874 b73f
000002d0: fbec b2dd e476 ac3f 43c1 956f 4c99 9c3f
000002e0: 1a22 cdc5 6ff9 bbbf edc6 5b6d 66e8 b83f
000002f0: f100 4f27 d921 aebf f03b 400f e51c a43f
00000300: cb41 fcfe dc53 b23f 636e a2f0 5eb1 bd3f
00000310: 175f b0b2 8a23 b8bf 2e62 b0dd 1900 b8bf
00000320: 6c38 8f27 c77d a93f 244b 0484 fb4b 983f
00000330: 5be7 7342 8ef3 a33f e60b fd41 28ac 8f3f
00000340: 007c 0899 c5d0 bbbf 225b bdba 0b0f b23f
00000350: 8bd3 56f1 b3fa 9c3f a83a 9468 1879 bf3f
00000360: c362 0c23 ce17 ae3f dffc 6732 347d ba3f
00000370: 90fe e337 1be2 ba3f 59c8 9260 0b8a abbf
00000380: 8180 717c 5d6d ba3f d950 88d2 2602 80bf
00000390: e28c c547 d309 b43f bf74 3b57 1af8 c13f
000003a0: f24f 5bf7 d3ff 9cbf 8881 c0c2 6dbc bf3f
000003b0: 666c 6fc1 7dc8 9e3f 977f 80ac 6211 923f
000003c0: 9f90 21b7 4544 bc3f dea6 65ef c294 b0bf
000003d0: b515 d87e 6aa5 96bf 4672 75a7 08da 86bf
000003e0: 951a dfb3 9c06 adbf 9138 4860 8cd6 b4bf
000003f0: 2c46 95a6 aefc a83f 53d5 1d34 1d47 b1bf
00000400: f914 853b 821a b3bf 8627 718c 0c00 b4bf
00000410: d571 4134 ee17 8c3f 4ca5 921c 610e b2bf
00000420: c766 3a48 84d7 b23f 9fee 54ff dbc9 bb3f
00000430: a1cc b42a 231e af3f af60 0b39 7dbc a2bf
00000440: cffe ab8f 0c0b 673f a8d6 a66b 9542 a4bf
00000450: 0aa9 1774 45bc b4bf 51cc 5f67 03fa bdbf
00000460: 9377 2bb5 210c 253f 0476 b899 c195 7abf
00000470: 173b 035f 5f23 c03f 6875 dcde 8130 b13f
00000480: 91d6 1961 edc8 6fbf ac2c 740e 734e 95bf
00000490: 7319 1f5c d98e b53f a2b0 6e2b d398 b53f
000004a0: 80b6 33cc 2cdf acbf d64a dd75 9a17 b33f
000004b0: 1d80 3bd5 9453 bc3f eae8 d7ca a45d adbf
000004c0: a30a 97f8 894f b2bf d7f9 8c2b 02ee c0bf
000004d0: 360b 35ff a71c b93f 834f 6900 6a4a b83f
000004e0: 0081 f778 f00a 953f 599c 48b2 ecfc b5bf
000004f0: bdf6 6533 aaf6 9b3f 8b32 ca88 7cee b8bf
00000500: 51ec 8ae1 aade 913f 8979 1e23 d000 c1bf
00000510: 4155 db75 6c19 8bbf 2305 decc 5b12 bebf
00000520: e61d 0c11 58f0 c0bf fab5 085e 685a c33f
00000530: c894 6f76 6b65 aebf 3dbf e13a e2dd 793f
00000540: 6e60 3dcc e69a b8bf e2ba fe23 641f b9bf
00000550: cca6 90bd 8819 b23f 60c4 d539 07e6 babf
00000560: 8ae5 b411 80ce b9bf 1e7f 2909 30bc c0bf
00000570: 5c40 2442 fb1c bebf a10e acde 7b34 c0bf
00000580: a61b 2bf3 128b bebf 43ca 8111 e488 a53f
00000590: fcdf b18e 4df4 9ebf 9cc4 c3f1 3bfe 773f
000005a0: c9b2 a5e8 d370 94bf cb67 cfad 5429 9cbf
000005b0: 6bcf dee9 5cfb 983f e2ee ca56 addc ae3f
000005c0: e812 ccfb 1592 943f b306 8ba8 37a0 b4bf
000005d0: 8e9f 2510 1adc a7bf c576 352f 3261 b43f
000005e0: ffbd ae67 def3 b33f f6f2 5e7c 93f7 b83f
000005f0: 106b 2aa6 f53c a9bf 24be b10e 58b5 6ebf
00000600: 97f1 20af 9776 af3f 2d4c 9037 d1ba c23f
00000610: 68f5 6c1e 04a9 7c3f e905 c22a b632 a73f
00000620: cb5d b687 d6b5 c43f 80f5 94a8 9d30 b7bf
00000630: 03ae bdad c212 b1bf 3056 6c7d 1e17 b0bf
00000640: 5203 1867 9a85 b2bf 6667 b45a 4150 b3bf
00000650: b2da 8777 2ec8 b33f e799 05f1 a32f c1bf
00000660: f35b 7059 8b55 92bf 841b 64fe 70d4 a9bf
00000670: 5d52 5e27 049c a33f 20dd 82b5 89d3 98bf
00000680: 7fb0 d269 7162 b8bf b712 b7af 3610 abbf
00000690: 5197 3f29 feca 6cbf 0139 4fa7 eeb6 b0bf
000006a0: 9621 12dd 5eaa c3bf 4b7a 65e3 2d0d bd3f
000006b0: 0f4f a972 f5b2 8cbf f38a c2bd 2b4c b13f
000006c0: 6e52 1c8e 08ab a43f d1e0 549d 3faa af3f
000006d0: b1d0 cbf9 1259 c1bf 0793 7567 858b b13f
000006e0: 8280 a966 1d3f a13f 0355 0d24 e94c b33f
000006f0: 53d2 69f2 856e 91bf 0660 bdac 2c4f 93bf
00000700: dd5c 48e6 f2e6 ad3f 36a9 790d 64de a03f
00000710: f890 c8dd 3050 abbf 0b34 07c6 c649 c13f
00000720: 41d5 0f79 0630 c3bf cdc8 155b 0d38 b4bf
00000730: 3608 b182 daba bbbf a396 0a50 0d16 753f
00000740: bd3f ccff c902 a6bf 69b6 ee16 6b0c b83f
00000750: a8a4 6c1c 7e2a b5bf 69a2 d22a ffa0 a1bf
00000760: 3fbc fc4c 1bca bdbf 72e5 bfdf a705 a63f
00000770: 3e91 ccf9 b755 ab3f 7d42 4c9c 791e aa3f
00000780: e3b0 3837 ec41 c0bf acd4 8c74 3c53 b9bf
00000790: 9efb a993 4f62 b4bf 7099 6893 da69 c03f
000007a0: afd5 6e51 feb4 a13f b363 2ebb 67d2 af3f
000007b0: 2dea 67dd bf26 c13f ffb0 b716 9bd7 99bf
000007c0: 4b93 ab22 7b08 b93f 8f4d 0c1b 39dd a9bf
000007d0: 2b10 a0c2 4d86 b83f eabc 027a ae31 c13f
000007e0: 532b 469a 0da4 c53f 3e79 8afd bb81 a8bf
000007f0: 1acb bc8d 5f0e b33f 857e 219d 65b6 b23f

encoderlstm.weight_hh_l0 f8 [256, 64]
-0.03664998125753438 -0.1359567688249298 -0.010512781276676868 -0.05710485237816292 -0.03493519719263718 0.03294396616943209 0.07002905381485204 0.06536810209707666
0.03971062703975916 0.15162806724745284 0.12421192237697974 0.032744871906964124 -0.08749901283448024 -0.13865205677048753 -0.06145245818968873 0.04760656633314802
-0.014063230224165536 -0.05100033878375178 0.027640722621674024 -0.10946271058947395 -0.2871759498112385 -0.04997229028276074 -0.14935094372513347 -0.08363523126202384
-0.09362113194108528 -0.055291264467101565 0.18106663934322792 -0.014364475726234996 0.06369250497690315 -0.07614072510112796 0.05927722387229166 0.03471029678588069
-0.03788035298247662 -0.06245183237473425 -0.004029080040882215 0.015073963718619198 -0.14139603812005636 -0.10736324025089997 -0.12794798216745462 0.04757467522554382
-0.06837999082189047 0.13797738135244478 0.16376747411881418 0.13511046139667915 0.0025060766379131107 -0.00973562401731496 0.21381769795252728 -0.1490963841909411
0.07201015285187178 -0.09884743830588037 -0.13492558672165933 -0.018445614574689597 0.1674147012274787 0.023451266496145734 0.2054820942744126 0.059344839197016865
0.17163738282511778 -0.08376161554654307 -0.0735043935284149 -0.04846752053869987 -0.14808303462565892 0.09538176011690523 0.1243413910519793 0.17198181724854317
-0.025314355625049634 -0.1080016472571731 -0.10705460612389234 0.013974363681492536 0.06785887167545672 -0.0752613576368262 0.028675390739888156 0.04013826023035051
0.12210599713242591 -0.046162066297500436 0.09674563726550606 0.022017382027779038 -0.07418028323666286 -0.05268466374586107 0.11121221648282369 0.059636135963615756
0.07824787672041267 -0.02433962285147701 0.039459568022950954 0.1341769880750464 -0.10983500832824919 -0.03325245242271239 0.04328657841537573 0.05783597684211854
0.07773608163318631 0.054657386424033005 -0.06649080673320759 0.07259474527560167 0.021242567868710885 -0.11816414405932228 -0.11573256178636745 0.009695031874881497
0.09685334182149131 0.039496276972014015 -0.08667096219141421 0.03897943937431405 0.08331806573985642 0.14510461505242125 0.10750277204563352 -0.10628363581139277
0.07765740711454969 -0.08580468887528847 -0.04702350587055792 0.060712730819967364 0.11893271940946856 -0.09265069572208605 0.0014484316025437966 0.005538929645275754
-0.06472538737890284 0.026445013395458714 0.1407798574668282 -0.07054169950774529 -0.10206029558214205 0.0939021624994218 -0.09291656830258128 0.13433298726270956
-0.14842569459375346 -0.06519616595653917 -0.16710111198782945 0.04223702296187366 0.040514107212547015 -0.1005219996452439 0.08828155062302522 -0.12275972589516167
-0.04065315157635704 0.045216263014938314 0.09161270047158643 0.11596014228949283 0.0037151447951501685 -0.02138377180273504 -0.034074457384914665 0.12840709193013233
0.09208967805616562 0.07624981520157541 -0.05461787699941821 -0.06249797492313087 0.08854796298873925 -0.035221144352533214 -0.017895116024850305 0.12873453501037072
-0.12576342488665435 0.06897652754032425 -0.1055295420344838 0.04938724602814527 0.06962569164707297 0.13841829493346414 0.01974206515132601 -0.021049493671978673
0.010296508565528396 -0.05205749205375553 -0.06860223837512673 0.04802120916498693 -0.01380493351701797 -0.056424198027528294 -0.05292075592938313 0.09527959054965975
0.05454980003537 0.004424734819794844 0.08021909890279263 0.07835003857681948 -0.0012006590425492414 0.12490114765879926 0.11113611382684498 -0.0063188923253243556
-0.04375805622912685 -0.06446409074767266 -0.023997756979909947 -0.0008834553614793446 -0.04047555443251807 -0.0011161606919927957 0.053474705399221494 -0.04893942575618664
0.09064941548680669 0.042822612737807964 -0.09289028441860185 0.05596606973727468 -0.0024046506910878613 -0.07090161585860413 0.00252655928870963 -0.06987934545555986
-0.1142830460520717 -0.04775161269195096 -0.13455314504300606 -0.07609322224638808 -0.05983605054689314 -0.10949666124000014 0.028369360939005286 -0.03673931606142839
0.04092146538044622 -0.03485398636696959 0.07167072432779133 -0.17800565705794044 0.03749006943675601 0.11609942930745677 -0.04502122261712916 0.1677221164176808
-0.1272335428064573 0.03813792219380548 0.06762375537139255 0.14692569175473497 0.05503615706800212 -0.06091484789630417 0.163438938088024 0.17898927257007563
0.005058972845872287 -0.00570203510624034 -0.01856962212489714 -0.06136238412056932 0.05814414015616176 -0.0763017556692029 0.10285814519648745 -0.06009844286797929
0.0260276072062502 0.11605248712155679 -0.05357361287243481 -0.0031008614433211453 0.04359967237657854 -0.10454442937817628 -0.1529142080603941 -0.005466669805486257
0.05790939031549028 0.010285441260730752 -0.10635683320931287 0.14088177687682812 -0.0904933854092409 -0.1037280446333989 -0.08292157288515778 0.06429057605157547
-0.20084595078136616 0.4024906953072542 0.27916194269777994 0.2150461210150908 0.3585977661028036 -0.23124058560011723 0.26411716811430147 -0.4141486749171881
0.11800384651728332 0.061317403494721576 -0.10909984005128082 0.045433565498040444 0.10457630877770512 -0.08307168066637217 0.014432883240279798 -0.10656085196429747
-0.042270399105305105 -0.10096473710739141 0.1958177242220386 -0.04297150468652316 -0.11628178661788323 0.17774917278817876 0.14776194258623868 -0.03303070915411888
00000000: f0dc cc4d c9c3 a2bf 94ee e209 0867 c1bf
00000010: bcc6 2f9e b987 85bf b771 d0e2 d83c adbf
00000020: 73e7 d7b2 06e3 a1bf 13b3 9812 08de a03f
00000030: c194 e78f 6ced b13f 7062 b5c4 f6bb b03f
00000040: 83fb e088 f354 a43f 49e3 fd6a 8c68 c33f
00000050: 2fe6 6140 5acc bf3f 487c e793 efc3 a03f
00000060: b76e 8ed6 5566 b6bf c41a adc0 59bf c1bf
00000070: 65f6 5d54 b276 afbf 4792 f34a e35f a83f
00000080: b47c 1ccf 2ecd 8cbf 3280 5266 b71c aabf
00000090: 98a5 ca7e d94d 9c3f 7501 1d8a bf05 bcbf
000000a0: b8c4 283c 1761 d2bf 71fc f0d0 f795 a9bf
000000b0: 388d 7685 ee1d c3bf 7d54 1057 1e69 b5bf
000000c0: 3bc6 e6f3 8df7 b7bf 4508 48f9 224f acbf
000000d0: ea19 300f 312d c73f 3b36 bf4b 1f6b 8dbf
000000e0: 2849 e0e9 264e b03f 74fc 3364 f57d b3bf
000000f0: 46bb db93 9559 ae3f 7343 0f4b 8cc5 a13f
00000100: 12fc 70ba 0d65 a3bf 3be0 3fc3 aff9 afbf
00000110: 0c0b 23f0 cb80 70bf e65c 8a29 19df 8e3f
00000120: f23a c1ef 4319 c2bf a292 ab45 287c bbbf
00000130: dccb 7f77 9960 c0bf f04d 6c34 b55b a83f
00000140: 7ee2 47e0 5981 b1bf 598c 3f2a 3ea9 c13f
00000150: 1792 be24 55f6 c43f 20ea 85b2 4c4b c13f
00000160: c876 6fa6 9f87 643f 748b 1556 45f0 83bf
00000170: d98c 01da 605e cb3f 15a6 061f 9715 c3bf
00000180: 638f 7ae3 416f b23f af2f d1d2 104e b9bf
00000190: 547b 2edb 3d45 c1bf f761 693d 68e3 92bf
000001a0: 0021 524d d86d c53f 0858 9ada 9b03 983f
000001b0: 8e3d 69bd 3c4d ca3f e53b 135f 7262 ae3f
000001c0: fda0 00b9 36f8 c53f 22ba 6eb7 6671 b5bf
000001d0: 7a1d 5116 2fd1 b2bf 938b 431f bcd0 a8bf
000001e0: 4ea2 6787 62f4 c2bf 4747 5664 f06a b83f
000001f0: 727e 1b60 d6d4 bf3f fe68 4b0c 8003 c63f
00000200: 7098 1da6 01ec 99bf 4839 e2f6 fea5 bbbf
00000210: 0c33 3040 ee67 bbbf ca92 f457 979e 8c3f
00000220: 93ec 96f2 325f b13f 02e6 b30d 5444 b3bf
00000230: eb1b b6e5 145d 9d3f 52f0 0386 008d a43f
00000240: 0349 54b0 5642 bf3f 6389 20ea 8da2 a7bf
00000250: e405 1674 52c4 b83f e2ea 027f b98b 963f
00000260: 8b6d 82a2 7afd b2bf f915 94f7 7bf9 aabf
00000270: 3b9b b560 6778 bc3f 8540 3fab a088 ae3f
00000280: 70e0 7e87 0d08 b43f 9186 9370 7cec 98bf
00000290: 5581 5864 0b34 a43f d43c d427 b62c c13f
000002a0: a6c8 b9a8 251e bcbf 55ae 5527 7706 a1bf
000002b0: bdaf 4c8d a829 a63f b662 235a ad9c ad3f
000002c0: c56e 5508 83e6 b33f 0824 5a8e 0dfc ab3f
000002d0: 565e 67a0 8a05 b1bf fcf5 d1b8 9195 b23f
000002e0: b4df 1d99 9cc0 953f 576c 4b5e 0140 bebf
000002f0: 566a f42f a6a0 bdbf b2ba b026 fdda 833f
00000300: 79b1 a16f 61cb b83f 872e d123 db38 a43f
00000310: 76fe 1f74 1130 b6bf f37e a8f2 1cf5 a33f
00000320: fec6 842f 5554 b53f 7d0c 13bc c992 c23f
00000330: a853 2a3a 4d85 bb3f a0ef e883 6735 bbbf
00000340: ce61 d917 5be1 b33f e814 90cc 4bf7 b5bf
00000350: 5ff1 b607 7713 a8bf 482d a532 bd15 af3f
00000360: 26bb 49ec 5f72 be3f 3ff8 13bc f4b7 b7bf
00000370: 923f 4297 29bb 573f 489f e61a fdaf 763f
00000380: dd68 03ce d791 b0bf e9fe b3ce 6614 9b3f
00000390: 78b6 e009 1305 c23f b3d8 6354 050f b2bf
000003a0: 1ad2 be9f 9f20 babf fd6c f5dc f809 b83f
000003b0: 25bb 1d56 61c9 b7bf 039e 88c5 d231 c13f
000003c0: d947 15f8 9cff c2bf eda0 9b28 b2b0 b0bf
000003d0: 8275 8eb9 9163 c5bf aa71 9a50 17a0 a53f
000003e0: 6251 02db 43be a43f 993d 014d cfbb b9bf
000003f0: 9f1c c4a4 9e99 b63f 2553 fc6f 2e6d bfbf
00000400: bbe3 ff68 7dd0 a4bf 5101 cb05 9626 a73f
00000410: 1878 6c10 ee73 b73f 5adb c55a 90af bd3f
00000420: 7973 a42c 396f 6e3f 5043 3ba2 a0e5 95bf
00000430: 31be 3110 3572 a1bf 880a 35c2 a46f c03f
00000440: 07e7 8c6b 3093 b73f 43e7 9d9e 1b85 b33f
00000450: 6e99 fad6 dff6 abbf d9de b80c bcff afbf
00000460: 69ff 294d 14ab b63f e15f 3e7e 8108 a2bf
00000470: e8e4 56e8 1853 92bf 9d1e de8c 5f7a c03f
00000480: afe7 7512 0419 c0bf b132 fa19 72a8 b13f
00000490: 85ca cceb fb03 bbbf 418f 0ffd 4849 a93f
000004a0: 2ee7 9544 fdd2 b13f c422 f4d0 b0b7 c13f
000004b0: f8c6 b890 4337 943f 318d ac9b ff8d 95bf
000004c0: 6759 6afc 5516 853f ffeb c393 47a7 aabf
000004d0: abe9 4092 ea8f b1bf 7988 c165 3c96 a83f
000004e0: 4d16 d5cf c245 8cbf f067 76ea a1e3 acbf
000004f0: db1a fee7 6d18 abbf 5116 6345 3e64 b83f
00000500: 6d7d 4f8e f3ed ab3f 5109 83b5 ab1f 723f
00000510: 5e55 4d26 3d89 b43f 43e9 5385 bf0e b43f
00000520: 1fbf 91d4 edab 53bf ba6a 6d88 85f9 bf3f
00000530: 0174 4a96 6a73 bc3f 0ebd 25be d6e1 79bf
00000540: 1d9a e1b8 7467 a6bf c712 87f9 b780 b0bf
00000550: 8ad0 9f35 de92 98bf bfa6 48f1 f5f2 4cbf
00000560: d377 263d 36b9 a4bf 6601 d46a 8449 52bf
00000570: 1fae b45d 0961 ab3f 0737 37a2 960e a9bf
00000580: 7ed7 ead2 cc34 b73f e0ef 7972 d8ec a53f
00000590: 2bac b15d a8c7 b7bf ae1c 6aae 95a7 ac3f
000005a0: ffe6 7202 ebb2 63bf 7aa4 58b9 9b26 b2bf
000005b0: 4f74 8630 94b2 643f 99c3 65df 9ce3 b1bf
000005c0: b5e9 4759 a741 bdbf 53b6 af3d e672 a8bf
000005d0: d34e c496 0939 c1bf dbd8 fe6c d87a b3bf
000005e0: c300 71b0 d4a2 aebf a107 0c23 f907 bcbf
000005f0: d40a c495 db0c 9d3f f927 ece1 7ecf a2bf
00000600: 08de 0687 a8f3 a43f 93a8 29b7 61d8 a1bf
00000610: e988 1139 0359 b23f 678e c8ad e3c8 c6bf
00000620: 8caf 4ffc e531 a33f d9b4 f533 b1b8 bd3f
00000630: 6173 888d 050d a7bf 5238 6a16 eb77 c53f
00000640: e96a a750 3049 c0bf 6b9c 1e51 d086 a33f
00000650: d1b9 c059 ca4f b13f 86ae 8308 76ce c23f
00000660: cebf 68fd b22d ac3f bd62 1c1f 3b30 afbf
00000670: 7492 fd2e 91eb c43f a6fb 02d8 1ee9 c63f
00000680: e43b caae b7b8 743f 7bc5 d464 045b 77bf
00000690: 6bec e63e ea03 93bf 273f 01f2 e36a afbf
000006a0: 8079 d998 11c5 ad3f 0d03 3a09 8388 b3bf
000006b0: 9402 bf51 e954 ba3f 5226 511d 39c5 aebf
000006c0: 82d5 f926 fba6 9a3f e779 cea4 9db5 bd3f
000006d0: 946c 6e26 006e abbf 4cb9 a14f fa66 69bf
000006e0: 5a8b f23d b252 a63f fd82 2879 6cc3 babf
000006f0: eb47 5b59 b192 c3bf 7381 8500 3864 76bf
00000700: d499 12b3 4ca6 ad3f 12d8 b78e 8810 853f
00000710: 7712 5790 333a bbbf 84e8 2400 6a08 c23f
00000720: 8046 d612 932a b7bf d7e3 60cf eb8d babf
00000730: c0b4 ac23 593a b5bf dd1f 95e1 5875 b03f
00000740: 4deb 11f3 51b5 c9bf 477e 5255 68c2 d93f
00000750: c62f 8b0d cadd d13f cc1b 729c a186 cb3f
00000760: fa21 750b 44f3 d63f ba87 54a0 4a99 cdbf
00000770: 5b3c d7b1 4be7 d03f 24de 9c71 6981 dabf
00000780: 260c 9805 8035 be3f 4ef5 5ea5 fe64 af3f
00000790: 90e2 0495 f7ed bbbf ffd5 e87b 1143 a73f
000007a0: ebfa 2252 83c5 ba3f 2992 af87 2f44 b5bf
000007b0: fd2a 08cc fc8e 8d3f 4b76 386e 9247 bbbf
000007c0: c707 7e3b 77a4 a5bf 81ec ec33 d3d8 b9bf
000007d0: fd61 c120 8e10 c93f e7b9 936e 5c00 a6bf
000007e0: 27ee a4a6 a4c4 bdbf 7e15 0222 7cc0 c63f
000007f0: 692b 8003 dde9 c23f 2148 29af 66e9 a0bf
