checkpoints/okok.ckpt (torch, 60823 bytes, 6 tensors)

linear1.weight f8 [128, 40]
0.08235546946525574 -0.127423956990242 -0.029412253884058576 -0.08704067392324143 0.03357452315572623 0.02595728825678815 -0.007644406892601999 0.023870784843718712
-0.04743811630986709 0.06934370852808888 0.10246079259822098 -0.0998722053157688 -0.056164869387187996 0.116260081638407 -0.027656711576451755 -0.06151681008163777
-0.20533514983931306 -0.0694832064159847 -0.20907592899216512 -0.14413433742853743 -0.11563690856095198 0.13412964743279573 -0.13511241632213167 -0.11915542861403221
0.004812165733364344 0.04797742888410149 0.06533642361870055 0.10614884857709743 0.08498364966648622 -0.13476761000797846 0.11383153493857551 -0.06565576721895645
0.14463279839796955 0.05118335885608296 0.06529358022428691 0.02070356950484734 0.0720565929749289 0.09449065990542693 0.23677285179086066 0.027186385815007697
-0.05228225514292717 0.005701545160263777 0.158759947510722 -0.04695097043096286 -0.040810943360800975 -0.07813955960629904 0.12082310286808802 0.0040499527125286965
0.02315353832508092 -0.04003172602173664 0.07649807826758595 0.02605363433662849 -0.022501318054423323 0.09402274733905516 0.011220784464987088 -0.04547055848295172
0.11019956690898537 -0.06762346639321161 0.1286703415929604 -0.06801197936952409 -0.08290693871117713 -0.09486338581352403 0.13390405137428577 0.07429647310138521
-0.04800815752862244 0.12084431933187818 0.09535285468867541 0.03971213585694448 0.053617491245855735 -0.03388088303894219 -0.11836403961806977 -0.06719261106028653
-0.050124575591615955 0.020840613244040806 -0.10533957162239796 -0.0073822062320237965 0.025161658279051775 -0.1508344701924003 0.11051353552156641 -0.08459340927971479
-0.06479066610336304 -0.1034284457564354 0.0008775621482417906 0.08914431531876375 0.0029147491915644855 -0.10329897752106158 0.14918701971897858 0.0858547493711123
0.10779025240513129 0.04785390470028029 -0.026682971246882646 0.007612366832794136 0.06419733664054268 0.0473981745332495 -0.13433584114808056 0.12175478982478498
0.023866150828283226 -0.06413996184112074 -0.11108769423669616 -0.04796267086202076 0.05949236872015984 -0.07671779829931667 -0.1276571550379868 0.10329691940455377
-0.047441592834595855 -0.0512187428320712 0.1597228048448207 -0.058767654792640574 -0.05593259449342394 -0.011272633295608604 -0.06948713331873889 -0.07444123764370054
0.08502860458573913 0.02696226778220767 0.046788899647684956 -0.13224661643003632 0.03510896571733917 -0.12398949153425134 -0.021956968740461283 0.056523041125168115
0.03644862025976181 -0.14612148702144623 -0.03797214423714492 -0.03616273949957869 0.11903852333429628 -0.10466322651340527 0.08649879857604506 -0.0024358914125186056
-0.1014998533367478 0.051462695482691445 0.04794677247114944 0.08872290574426507 -0.07589232594361343 -0.024385689968883333 -0.022914582770951947 -0.0616954798789712
-0.15156027939764932 0.14483613782185112 -0.04618771347126426 0.04528447834918562 0.04810646674064066 -0.1060451367660249 -0.08363382135633354 0.007138029102159264
-0.04479922854665276 0.15016798971411044 0.02599685307741964 0.007892646883204983 -0.026790899246013276 -0.09059627675231882 -0.07128147342836745 0.11402234253017435
-0.11100235421072878 0.14793285242857754 0.05225447339981969 -0.03575957081842364 -0.024492031122459637 0.08596109974653811 0.02785726780764775 0.08888624514478143
-0.0673106387257576 -0.028333036229014397 0.06096143030422381 -0.09380790397225759 -0.1259505201717717 0.037798173880597585 0.021345762634201577 -0.08402782841619737
0.09296240422318214 -0.12475046484466268 -0.13355750325831528 0.005369469910911449 -0.06069552878752603 -0.05737291229957147 -0.08426489161369999 0.12938483672447276
-0.046774677761746014 -0.07805319198113317 0.04620536114248079 -0.011170115282796248 -0.03549201487653839 -0.1479048576524267 -0.10666661938959736 -0.11692265981465282
0.1195359018896016 0.1226355712103216 -0.0884287845674584 0.05441215157541373 -0.10716215882793227 0.05886091236541407 -0.030460553906205275 0.1526860860986
-0.13758355926554802 -0.006913018318280207 -0.08126781652202884 0.06205975287843701 -0.1208541510091715 -0.14468855217855756 0.07396449267851105 -0.03340271226677063
0.017742756754159927 -0.09048870205879211 0.05480991988552575 0.0794022751363672 0.06965178130414039 0.021680308011682144 -0.15560367139658346 -0.09915176108105318
-0.1345790276259986 -0.07879510620730895 -0.13116555218036088 0.04202244307227744 0.042820874701319275 -0.12603826969113574 0.07782680863351436 0.07676150476812296
-0.05180112623037568 0.1176777310898417 -0.1995935349349705 0.1390286563661269 -0.12246484121727853 -0.06447694874267816 -0.06380548248384411 0.054843730146159286
-0.1668016572229955 0.12214955614112541 -0.061947216050268955 0.0027452737890869675 0.044134860841914765 0.1396605883304256 0.1542841934161334 -0.09850945206825816
0.16016051816611623 -0.1097065214556151 0.14648657096665646 0.023155228334327347 0.06078099277981055 0.11460141114391294 0.029821634191526142 -0.004517740798308184
0.15061154961585999 -0.13326343894004822 0.09156193296508315 0.06272514068120984 0.10627689382227894 -0.009323348355108686 -0.14480824141513357 -0.05284567466276014
0.05456408825104717 0.09744615467525707 0.06469153664491187 -0.12166329954890956 0.019797641286034638 0.13031023162807756 -0.04179997520869735 0.15377477627237676
00000000: 0000 0080 3f15 b53f 0000 00a0 6d4f c0bf
00000010: 287d 22f2 3e1e 9ebf 2f10 ec2f 4c48 b6bf
00000020: d882 dd0d ae30 a13f ea7c 9f20 8c94 9a3f
00000030: d0de 9dd9 bd4f 7fbf 383b ef40 9571 983f
00000040: 76fa 440c cf49 a8bf 56be 4f60 82c0 b13f
00000050: 9be3 54d9 de3a ba3f e151 9c8f 3991 b9bf
00000060: 8e77 674a a4c1 acbf 939d 7780 38c3 bd3f
00000070: 5a6c f17e 0a52 9cbf aee5 e89e 217f afbf
00000080: dab9 a314 6c48 cabf ff88 2dc3 a6c9 b1bf
00000090: 397a b302 00c3 cabf b43b be74 fe72 c2bf
000000a0: 37d6 7a64 619a bdbf 57ed 9208 292b c13f
000000b0: 3c8c b118 5d4b c1bf f3c2 095d f880 bebf
000000c0: bbe8 29e7 ebb5 733f 3ebb 0160 7f90 a83f
000000d0: 4b0f ae4a e3b9 b03f 738d 2529 922c bb3f
000000e0: c224 030c 7dc1 b53f 41ad c5a6 1040 c1bf
000000f0: c48d d03f 1024 bd3f 05cc fffc d0ce b0bf
00000100: be2c 86d9 5383 c23f 33ca c588 b434 aa3f
00000110: 82ba b37f 14b7 b03f 6931 bc07 5133 953f
00000120: 55db 4906 4d72 b23f 903e 1236 8a30 b83f
00000130: 0ede 82a3 924e ce3f cd38 e377 bfd6 9b3f
00000140: 0000 0060 bdc4 aabf 0000 00e0 805a 773f
00000150: b992 3cf7 3e52 c43f f06b 0825 f509 a8bf
00000160: b66a 1b06 2ce5 a4bf f06b 0845 f400 b4bf
00000170: 4570 6b4b 43ee be3f 5ee4 35e7 ae96 703f
00000180: bb55 92a7 8fb5 973f 5daf 21d4 097f a4bf
00000190: b2ba 5dc8 6095 b33f cfc9 abcd cdad 9a3f
000001a0: 797f a4e4 950a 97bf 72bc e6f0 df11 b83f
000001b0: 402c 8032 ecfa 863f b7f2 3ac3 ea47 a7bf
000001c0: 094f e8ef 0936 bc3f 11db 9980 c54f b1bf
000001d0: 57af 8d0e 4578 c03f 69da 20ab 3b69 b1bf
000001e0: 5e40 609e 6339 b5bf a72b a883 f748 b8bf
000001f0: c92b ba98 c423 c13f 48b8 2dfa 1705 b33f
00000200: 03a5 0d75 8694 a8bf 7d13 703f a7ef be3f
00000210: 7ad5 7770 0b69 b83f b60f 8529 2655 a43f
00000220: 17fe c976 c073 ab3f 6d45 39c9 d558 a1bf
00000230: 5a9b 2e0f 1b4d bebf 516a 09f3 8833 b1bf
00000240: 3ca3 c8a9 eda9 a9bf b338 3fe1 3d57 953f
00000250: f2c4 17bf 88f7 babf 8602 6ce5 cd3c 7ebf
00000260: 55c6 af4d fac3 993f 01fd 4a3e 8b4e c3bf
00000270: 2999 d474 9d4a bc3f b642 50e6 e9a7 b5bf
00000280: 0000 0000 1f96 b0bf 0000 0060 497a babf
00000290: 7141 0b5d 86c1 4c3f 671c eb6e 29d2 b63f
000002a0: 8ba0 850e ace0 673f 63c7 2942 cd71 babf
000002b0: d621 576d 8f18 c33f 0b55 c1ac 93fa b53f
000002c0: 105a e858 2498 bb3f b1e2 5897 4e80 a83f
000002d0: 963d 76e3 c752 9bbf 32db 7829 252e 7f3f
000002e0: e586 5c95 3c6f b03f 0654 05d3 9244 a83f
000002f0: 2eb1 34b6 ea31 c1bf 2bc6 6d68 522b bf3f
00000300: 19d0 2745 5e70 983f d36b 79fe 796b b0bf
00000310: 8712 bc3d 3e70 bcbf 4ef8 8f2d 908e a8bf
00000320: 8081 07a4 c875 ae3f f778 b712 c7a3 b3bf
00000330: f888 fed4 1157 c0bf 48bf 9eba aa71 ba3f
00000340: 96b4 63b3 434a a8bf a4dc cfd2 5739 aabf
00000350: 48f0 9dff cb71 c43f c144 cb46 cb16 aebf
00000360: 2466 4270 32a3 acbf 9469 c13a 1b16 87bf
00000370: 47c6 18a5 e8c9 b1bf 0549 27b9 940e b3bf
00000380: 8096 eb43 6fc4 b53f 80fd 6629 ff9b 9b3f
00000390: b0f2 9af3 b6f4 a73f c46d 4906 75ed c0bf
000003a0: 87ce 1a67 cdf9 a13f 7af1 2f7b c6bd bfbf
000003b0: c467 a33a e37b 96bf 4bc4 348a 96f0 ac3f
000003c0: 0000 00c0 64a9 a23f 0000 00e0 1bb4 c2bf
000003d0: 13a8 50bb 1571 a3bf dd0a f82e ec83 a2bf
000003e0: ed57 af04 4f79 be3f dd0a f88e 35cb babf
000003f0: 0204 0707 c924 b63f 910b 823e 6ff4 63bf
00000400: 1650 a1f6 e4fb b9bf 50d4 1f84 5159 aa3f
00000410: d2b7 6cb7 7a8c a83f bde4 935a 8bb6 b63f
00000420: 1bf8 f1f1 ad6d b3bf db82 a0f3 8ff8 98bf
00000430: 6530 699e eb76 97bf 544c c8c8 8c96 afbf
00000440: ee58 b1c5 5366 c3bf 74a5 9c95 fd89 c23f
00000450: 1f15 ac7d eaa5 a7bf 7566 0df3 862f a73f
00000460: 8e1b c12a 69a1 a83f 3057 4f2a c625 bbbf
00000470: 26a1 90af 0669 b5bf 38a4 d318 c43c 7d3f
00000480: e2e0 fcaa ecef a6bf a234 5d66 b438 c33f
00000490: 28d4 1047 eb9e 9a3f 6f1c f021 052a 803f
000004a0: 7944 5ed0 126f 9bbf 1663 ca4d 5131 b7bf
000004b0: f97e 2fad 803f b2bf 442f 2e78 9130 bd3f
000004c0: df34 1d79 a66a bcbf 63a5 97b5 76ef c23f
000004d0: aed3 a42c 19c1 aa3f b245 5e16 144f a2bf
000004e0: f4fb bb62 7014 99bf 31bb 23f0 8b01 b63f
000004f0: a150 c298 9d86 9c3f 0309 f6bb 3fc1 b63f
00000500: 0000 0020 453b b1bf 0000 00e0 5503 9dbf
00000510: 5ab3 f22a 5636 af3f a9ca aa77 cb03 b8bf
00000520: 39a6 868a 251f c0bf 10d5 5441 485a a33f
00000530: 5234 b0e1 a9db 953f 2760 0007 d982 b5bf
00000540: c866 e555 62cc b73f f02a ab7e a5ef bfbf
00000550: d49f 508a 6918 c1bf e4a5 a01a 4cfe 753f
00000560: aecb 4ffe 7b13 afbf c780 017c fb5f adbf
00000570: 288c ae49 6292 b5bf 803a 2aad ae8f c03f
00000580: cc07 89be d9f2 a7bf d249 e842 4bfb b3bf
00000590: 767e 03a6 3aa8 a73f 5543 a87e 5be0 86bf
000005a0: cde7 5366 022c a2bf d9b2 44df 8bee c2bf
000005b0: 536b dae9 804e bbbf 5bb5 10b8 a4ee bdbf
000005c0: df4e 50a5 e799 be3f 45b3 ac77 0b65 bf3f
000005d0: f804 bed1 44a3 b6bf 87f4 0ad7 e8db ab3f
000005e0: dbe3 88af fa6e bbbf c78d 3e7b 0423 ae3f
000005f0: 3f7b 612b 0d31 9fbf 5382 2cb9 378b c33f
00000600: a5a3 c18b 569c c1bf 27a4 7f39 d350 7cbf
00000610: efef 2db6 f7cd b4bf 407e 05c2 4bc6 af3f
00000620: a794 2b32 4cf0 bebf 0333 db8b 2785 c2bf
00000630: 6293 1e45 56ef b23f 0324 9109 291a a1bf
00000640: 0000 0040 282b 923f 0000 0080 442a b7bf
00000650: 9036 cfba 0b10 ac3f 0f4e f01e b553 b43f
00000660: 9f36 cffa b2d4 b13f 5270 82d7 5c33 963f
00000670: f396 e433 d2ea c3bf f915 2f83 0262 b9bf
00000680: 58c9 30b5 e239 c1bf f4c7 3e84 ea2b b4bf
00000690: b5fb 7c66 08ca c0bf 520c 6335 f783 a53f
000006a0: 8647 db20 9eec a53f e815 2fa3 0522 c0bf
000006b0: 233f d52d 75ec b33f 5222 9258 a4a6 b33f
000006c0: 7e61 1c5e ad85 aabf 0894 7fb6 2020 be3f
000006d0: 2af5 84ec 478c c9bf af50 26e6 b0cb c13f
000006e0: a923 f017 db59 bfbf 7f17 32b2 8f81 b0bf
000006f0: 31d8 925c 8e55 b0bf 609f bc36 7a14 ac3f
00000700: be7e 58b7 c159 c5bf 3ed8 d87c 3145 bf3f
00000710: dc3e 07a6 8bb7 afbf 1df4 90a4 417d 663f
00000720: 01ec db2f d898 a63f 88ab b5ed 65e0 c13f
00000730: 3f8a 819e 95bf c33f 73e4 fa5a ea37 b9bf
00000740: 1523 d1cd 2380 c43f 584e cf01 ba15 bcbf
00000750: be6f cd6b 12c0 c23f d99a b511 01b6 973f
00000760: 7357 6ab0 af1e af3f 3545 f0a0 8456 bd3f
00000770: 1876 43fe 8f89 9e3f 3949 b0cf 3181 72bf
00000780: 0000 0040 3d47 c33f 0000 00c0 c60e c1bf
00000790: 6dc1 a453 9a70 b73f 29e0 dc3b c10e b03f
000007a0: d382 4967 f634 bb3f 67fc 31a2 1e18 83bf
000007b0: e3dd 8892 1389 c2bf a1be d298 960e abbf
000007c0: 5d0b 26fd d2ef ab3f f780 732f 3bf2 b83f
000007d0: 1ec7 37e2 9f8f b03f e29e af74 5325 bfbf
000007e0: 1622 7237 d545 943f a9a0 9673 01ae c03f
000007f0: 2b6c fd6c ce66 a5bf cb10 8551 e4ae c33f

linear1.bias f8 [128]
0.1286507287446877 0.10791599938343974 -0.012795091580327681 -0.08818543827422044 0.0442255188970007 -0.08592411123696679 -0.07199899876159678 0.04403059044121417
-0.11456611911533267 0.03402312174780196 -0.15557300349437192 0.15322672217990585 -0.08663261532739257 -0.14651387820123676 0.1234823402430171 0.16134992481633986
0.08114189403297627 -0.07827588572541265 -0.05773786357063749 0.08790163044776522 -0.024652908342287814 0.0034495737803588167 -0.0440557437743852 0.044316964362676056
0.12557461822599444 -0.007036188848251243 0.10114937093594699 -0.07342800976039292 -0.027803871280317947 -0.046279922168515765 0.11117376019408913 -0.00963411773768589
-0.021334252377365994 0.1596314396473032 0.13839656890975438 0.06723219520272179 0.12615106539770765 0.04757745697874374 -0.040726034604481286 -0.08041060351005058
0.10264953683561232 0.15532659402963336 0.037998234948232026 0.07589042393001784 -0.14863323856580948 0.08773263033351097 0.18696197570366102 0.21429216465949147
0.14767880066365605 0.14981815868612833 0.009483295574537316 -0.006221088508367507 0.04167691191493757 -0.08501471969927292 -0.14106416046722733 0.08429062857783044
-0.11972185266339812 0.018246977845238363 0.09273674008148416 -0.10239728793240928 -0.1081067416306646 0.05307660787496224 0.002331672994458236 0.1151846696126237
-0.0024646493286480226 -0.03650834215985134 0.1429743538968586 -0.11464334720870498 0.1544580585937304 -0.12339826265959838 0.09765390625832546 -0.0947153933524345
-0.005545686640450152 -0.1372609568592474 0.0002892630273316158 0.16757805286181704 0.07215103260721586 0.1587610282772182 -0.02228110432767473 -0.09238413502033783
0.004601284808824906 0.14685833727631545 -0.09210794871394096 -0.019953922755528406 -0.08221662301167533 -0.012581943081915813 0.13423519411984153 -0.15186707167619384
0.11356936320065528 -0.1440667410401603 0.14998938613578672 0.007159447958511603 0.12734654966380904 0.06116712602913332 0.030858298550944366 -0.013732382954788222
-0.09833923404212751 0.01537029980039306 -0.14453631017839016 -0.11209219793614356 -0.029314766975882645 0.12728056616383987 -0.02042474738177443 -0.11849715054929244
0.06449387033029845 0.02256451239454651 0.04165040156990463 0.12378111941624677 0.022507353640010955 -0.15211915624358738 0.11754103528801041 0.12184665250760646
-0.13038649615084041 -0.13196610711437443 -0.07594118350376648 0.05242683136187818 0.018189507988857566 0.10573694006879204 0.04916561997087278 0.0712251328035415
0.1064765284771004 -0.024506365908434396 0.1314425113116272 -0.08387520334334422 0.08902518907606577 -0.01953473584503378 -0.013949897260082137 0.0815195607076038
00000000: f251 4888 a077 c03f de28 1108 62a0 bb3f
00000010: 8f3b 181f 5034 8abf 3107 5f25 5293 b6bf
00000020: e65b 9f2a baa4 a63f 0b5d b35f 1fff b5bf
00000030: 019b 06c1 866e b2bf 62ea ef73 2d8b a63f
00000040: 817a d486 3454 bdbf bee4 6d86 7a6b a13f
00000050: 920c 13f1 d0e9 c3bf 9467 51e8 ee9c c33f
00000060: 0b1d 9919 8e2d b6bf 8168 a47d f7c0 c2bf
00000070: 8a30 fae4 899c bf3f ae2c 2645 1da7 c43f
00000080: 8306 3515 b7c5 b43f 7f8e 4171 e309 b4bf
00000090: 71b8 8d37 d18f adbf 68c9 09a4 b880 b63f
000000a0: 995d 53ac 9c3e 99bf 0006 4cd2 4742 6c3f
000000b0: 6883 6c75 798e a6bf 6efe 3091 b6b0 a63f
000000c0: a781 3e3f d412 c03f bd14 de8f fad1 7cbf
000000d0: 2f4d 2ed8 ece4 b93f 6b00 8894 2dcc b2bf
000000e0: 4996 6737 9e78 9cbf e5b3 5980 00b2 a7bf
000000f0: 4bfb 3430 e275 bc3f d496 df64 0dbb 83bf
00000100: 6749 fb70 a5d8 95bf 946a 5992 cd6e c43f
00000110: e849 ac90 fab6 c13f 654c a20f 2136 b13f
00000120: 1a8e 1ed6 b725 c03f 4448 808b 125c a83f
00000130: 7bab 71f5 0ada a4bf 48c9 5310 ca95 b4bf
00000140: 9a93 a873 3d47 ba3f 4936 c7e8 bde1 c33f
00000150: 4a17 d130 8174 a33f 95e7 db08 8e6d b33f
00000160: 4d8e 5ef9 6906 c3bf 9811 134a a575 b63f
00000170: 1c13 9fb9 5eee c73f 3633 80f7 ec6d cb3f
00000180: 19da 9491 23e7 c23f abb1 f3cd 3d2d c33f
00000190: 44b9 ce62 fa6b 833f c8fa 05bb 487b 79bf
000001a0: 3a8a 581b ad56 a53f cb77 c950 86c3 b5bf
000001b0: 8716 ecf1 630e c2bf 61df 1915 1294 b53f
000001c0: 934a ce61 17a6 bebf 4c71 62f4 55af 923f
000001d0: eaa1 c951 98bd b73f 3d69 de6a b536 babf
000001e0: 39e4 c727 e2ac bbbf 3cdb 026e db2c ab3f
000001f0: ec7f 3268 df19 633f dd9d fc14 be7c bd3f
00000200: 5ba4 6788 be30 64bf a229 37af 38b1 a2bf
00000210: afad 13cf fb4c c23f e221 f732 4459 bdbf
00000220: b4c1 211b 48c5 c33f de95 814e 0797 bfbf
00000230: bec6 b4ad d8ff b83f 1f61 e09c 443f b8bf
00000240: d8d4 12ec 12b7 76bf 8333 5d5c c491 c1bf
00000250: a06b 093e 07f5 323f 84d0 4898 3273 c53f
00000260: dead 6b75 7d78 b23f e53c 2a08 4852 c43f
00000270: c4df 9f99 dbd0 96bf b1e3 9496 7ca6 b7bf
00000280: 5f31 60fc cbd8 723f 4794 df05 41cc c23f
00000290: d492 6df3 6294 b7bf 59ca a516 cd6e 94bf
000002a0: 19d0 050b 260c b5bf 6ca8 74d0 8fc4 89bf
000002b0: 64c4 5b6c 9e2e c13f 1822 1855 6170 c3bf
000002c0: 7a3c c6bc e112 bd3f 9db9 9a6a c770 c2bf
000002d0: 14a4 192a da32 c33f 5073 6dad 3953 7d3f
000002e0: 8641 0849 e44c c03f 2058 c52b 4c51 af3f
000002f0: 2496 585c 5199 9f3f 98e6 7e3d b91f 8cbf
00000300: 97e7 1f92 c22c b9bf 7f7b c7b7 767a 8f3f
00000310: 437d a672 2a80 c2bf 40c2 4504 13b2 bcbf
00000320: 801b ceb5 b004 9ebf f886 8bc6 ba4a c03f
00000330: f697 2298 39ea 94bf 3045 474a d455 bebf
00000340: d370 dc97 ab82 b03f 2699 23cb 261b 973f
00000350: c04c 3791 3353 a53f fd4a c193 1eb0 bf3f
00000360: 54a2 36ef 2a0c 973f 33a6 94f8 a378 c3bf
00000370: 20ff 7f56 2b17 be3f ecb1 a59b 5731 bf3f
00000380: ec68 6734 81b0 c0bf 3d4b 1ef1 43e4 c0bf
00000390: 5376 91a3 e170 b3bf 4dac 438c b0d7 aa3f
000003a0: e617 c537 45a0 923f 4517 937b 9311 bb3f
000003b0: c294 b973 3c2c a93f 3962 0b70 cf3b b23f
000003c0: 56cb 99b7 0b42 bb3f 8b6d 7b60 3218 99bf
000003d0: 349b b1b3 1bd3 c03f 5a15 4e67 d878 b5bf
000003e0: 5c17 9ad3 5aca b63f cd96 5cee e900 94bf
000003f0: 4fed 1d84 c391 8cbf b033 3947 77de b43f

linear2.weight f8 [16, 128]
0.07193929764680178 -0.08537702843628835 0.01292860938507763 0.0072455083470574855 0.06410303202359122 -0.06108759538765044 -0.018339761481892005 0.012284551738749006
0.026066767418841747 -0.0186233877853301 -0.0399027803609433 0.05225699607563093 -0.06593192960456902 -0.04755905537082757 -0.08074021768517861 -0.010558275689386378
0.08169478938213023 0.0656034462773283 0.06826401453161862 0.023699215608043993 -0.045599692091295524 0.054353341237884004 -0.024614597347933465 0.011649268940365233
0.03104923788069139 -0.047098773660251184 -0.028603317950401937 -0.07623337486260717 0.048846714937134016 0.021441146173872012 0.05609238370441059 0.008011655165244644
0.07507968766192921 0.038068549959274146 -0.062028003284423344 0.019560030265610436 0.04201404240135128 -0.0694249800257082 0.017455105607907286 0.08731164555299618
0.05567483794272868 0.07322865727259596 -0.012961348794836113 -0.061455606706968494 0.017989576652857196 0.008588915051805552 -0.0611854080277247 0.015242701722355588
0.04458975759887314 0.05358552708641995 0.0681128702404074 -0.040291312313073646 0.06557772333124916 -0.0594978808003416 0.030133837624309618 0.08144835350043471
0.03999670057890499 0.08652083308479888 0.04404248750794437 0.08594671259722539 -0.07197301857964118 0.05495234003231875 -0.06416645216267504 -0.04616962825054704
0.08172652953318095 0.04875182937207042 -0.08481552666098868 -0.047805801582851686 0.08230191380010489 -0.08277699823709415 0.06609078399816773 0.007858463940347109
0.03652126556431274 0.06873683711559485 0.07083305508202499 -0.007822199201194414 0.0010345193356291053 -0.002867915373897065 -0.08787630363673056 -0.08209351370185267
-0.04891898078465963 -0.0854713366083707 0.08394165482017182 0.030548345372582397 0.005770885723509268 0.04319842039187484 -0.0002017918369318854 0.032890371220307225
-0.019602454984497496 -0.08379556247181762 0.07380988970149557 -0.010968025734706413 0.08636812963437505 0.035985131022360936 0.0681124711797814 0.08123398894353362
-0.02342395562928068 -0.06799012724376223 -0.00757187059665032 -0.0235230193210159 0.08761435436118446 0.0012516163898859136 -0.06752163892982567 -0.06047179900184009
0.08706829784028756 -0.06778344444041923 0.08312187895610053 -0.036435443946442506 0.061357107046333625 0.07688806186890693 0.03939465759833563 0.0519081593322665
-0.06134047134143288 0.011202118296711755 -0.0808140632290272 0.06773751380234273 0.0016679390780064934 0.03342943265298988 -0.04255765368848543 0.07496723128322838
-0.06692003670579949 0.07102144068755144 0.0497768388354566 -0.07130584876447764 0.03910901385266652 -0.012906112082448453 -0.005910601955602643 -0.03433306624681233
0.20305078326405157 0.026485940580984472 0.08235583011079262 0.08454742187978526 -0.006462092916750504 0.19090096627688163 -0.08819376792005611 0.06685305150582542
-0.06353658430135803 0.02634226611503949 -0.02716643601576581 0.0006949609480498975 0.0855106314576647 -0.07682992629062337 -0.07080312916567837 0.027780224630262498
0.023585925808077248 0.07984418855101187 0.21293712188963526 0.025945003304373895 -0.0023142955679363226 0.04837458560689377 0.16150843131827677 0.10651862062149894
-0.03482153133647279 0.05306816436395669 -0.015713941522035552 0.08993491105661418 -0.08232324006551556 0.02843950728153197 0.007757848965472744 0.03566761222410151
-0.06219426840035045 0.0926468188160179 0.04422858141720745 0.15595922940526863 0.17574718044521423 0.13897757391849447 0.023314456382043314 0.11080956008551353
0.06827945627248752 0.028061441248780437 0.017099323616544947 0.03209364398310358 0.03428978653565802 0.1275166158406811 0.21269164829658443 0.31025927964342853
0.016551539998748276 -0.06628363961805124 -0.01619322712552613 0.12261176761443396 -0.09089698676707414 -0.08426698393369751 -0.049280132164714115 -0.011435534404692443
0.006465162928523078 0.03942089388972398 -0.009888245899660109 -0.0008993271413622883 0.005402336633053263 0.09951378655852511 0.1836975368417587 0.04242309003344534
-0.04062932444913048 -0.022867302881922465 0.009618089341582314 -0.04963622566489731 0.058946559040206896 -0.03157399417169037 -0.13417179913127922 0.07618066840116273
-0.040745020846153966 0.07218941411130793 -0.05257476178642445 0.23156760212124652 0.1521461612101227 0.06859284190119669 0.02300148563521186 0.007093752290715426
-0.08881324700353553 0.07228084952865003 0.03378084666255226 -0.01277158103701223 0.0795660984494599 0.03245005130424026 0.06135691506768226 0.04625624004302938
-0.03061670841597684 0.0253328999465023 0.08909492023044287 0.24610411309784735 -0.07565901397198573 0.17059295953826903 0.04987416018428465 0.09914907080442022
-0.061629512391691066 0.06467744440169955 0.0854724366009603 0.046976728006743615 0.13615242634061253 -0.042428580343559334 -0.011380661884261418 -0.021951150319232414
0.10534746952680057 -0.033484874335397014 0.05507353712177128 -0.02573752068529769 0.09971242990072049 -0.08550733738414425 -0.017901062219565927 -0.042172461261546695
0.03123910497015438 -0.0254429487310477 0.06208285222100971 -0.013546549275797052 0.06800274963631385 -0.054742178118268876 0.06118653786149472 0.04280162115221385
-0.021723364282440132 -0.03878084110356321 0.008776652721689307 -0.06658630101479547 0.01398665944111003 -0.008304500000093178 -0.058297164470320455 0.06309087103773071
00000000: 7bb2 b022 9d6a b23f 47a9 f6d8 44db b5bf
00000010: 28ef ee93 507a 8a3f e9cd 4b56 77ad 7d3f
00000020: c6a2 1d6a 0e69 b03f c531 c390 df46 afbf
00000030: 27ea 1f8f a8c7 92bf cd29 b69f a428 893f
00000040: 4532 4e26 3fb1 9a3f 3935 ea65 0212 93bf
00000050: e0e5 5621 236e a4bf 1e9a 43d2 6dc1 aa3f
00000060: adee 6939 eae0 b0bf fb88 e416 a959 a8bf
00000070: f204 6e12 64ab b4bf bbf5 4dc6 939f 85bf
00000080: 0e5d a620 f3e9 b43f c119 4430 63cb b03f
00000090: 3c2f e81d c079 b13f fedb e86f 9b44 983f
000000a0: fcc4 7ac4 d758 a7bf 7a0f 177e 33d4 ab3f
000000b0: fd4e 74aa 9134 99bf c72b f868 92db 873f
000000c0: e99c 0d15 5fcb 9f3f 52df 1a99 541d a8bf
000000d0: 7fc3 9d2c 304a 9dbf 100b e6cb 0784 b3bf
000000e0: b313 58c6 6f02 a93f 9511 6cf6 aaf4 953f
000000f0: 4d58 2113 24b8 ac3f 5858 5f27 6a68 803f
00000100: da14 1a23 6c38 b33f 4596 2992 b87d a33f
00000110: 1ce7 156b 22c2 afbf b2c1 3269 8b07 943f
00000120: bb51 2c54 dd82 a53f f961 bce2 d5c5 b1bf
00000130: face ef4e c0df 913f a7c6 3556 0e5a b63f
00000140: 3426 5990 6981 ac3f 8fa4 1d00 1dbf b23f
00000150: 79a9 7cc9 7a8b 8abf 62ae ecf9 1b77 afbf
00000160: 2956 920d dc6b 923f 2a86 0baa 1097 813f
00000170: 9767 f19c b153 afbf 1f9c 33cb 9037 8f3f
00000180: 3a59 3ffd 77d4 a63f 900c c0ec 8f6f ab3f
00000190: 9b86 1e56 d86f b13f 5828 6519 10a1 a4bf
000001a0: 33c9 0da1 b3c9 b03f 1403 7098 8176 aebf
000001b0: f5c4 659c 67db 9e3f 23f0 989e ccd9 b43f
000001c0: ba5c de91 727a a43f 529a 85b4 3a26 b63f
000001d0: 0054 f6a6 bc8c a63f 76c5 cd8f 9a00 b63f
000001e0: 1d74 fee0 d26c b2bf f011 8e8e b622 ac3f
000001f0: 61fe 896d 366d b0bf bf24 cfa6 8ba3 a7bf
00000200: d982 8fa3 07ec b43f cbe2 8bf1 fff5 a83f
00000210: d0b3 3369 78b6 b5bf d7fe b684 007a a8bf
00000220: f16e 2bfc bc11 b53f 1714 4a94 df30 b5bf
00000230: 42d1 d65b 53eb b03f dcf5 f62c 1918 803f
00000240: 391d 6a52 eab2 a23f 3724 71c3 bc98 b13f
00000250: 9995 0d77 1d22 b23f 7af2 03ce 1505 80bf
00000260: 3fbb abad 16f3 503f e179 a257 747e 67bf
00000270: 458f 36ba 0f7f b6bf e62c 909c 1404 b5bf
00000280: 325e 3f9d e80b a9bf c875 7a13 73e1 b5bf
00000290: ca89 3946 337d b53f d3e2 49c1 1048 9f3f
000002a0: 0e0a 3957 36a3 773f 32d8 a475 1a1e a63f
000002b0: 1a9b 31ae 0273 2abf 9d31 7db9 01d7 a03f
000002c0: 76a4 517c aa12 94bf 2fcb 5d40 a073 b5bf
000002d0: 8ea8 6376 34e5 b23f e872 a87e 6776 86bf
000002e0: a342 32c4 381c b63f e641 c4a1 a46c a23f
000002f0: 33ba 2aa4 d16f b13f d00a d62d c0cb b43f
00000300: e09c 7b0d 73fc 97bf 837c f60c cd67 b1bf
00000310: ff83 5089 ae03 7fbf 0c6d bf1a 6b16 98bf
00000320: 8f35 a4f2 e46d b63f 0674 8cdd a881 543f
00000330: 01d6 f91e 1949 b1bf d21c 16de 28f6 aebf
00000340: 670f bea3 1b4a b63f 0cf3 147d 415a b1bf
00000350: 5dd2 b2b7 7947 b53f a296 54a0 aaa7 a2bf
00000360: f847 48e0 326a af3f 0e06 2e9f efae b33f
00000370: 943f 0b5c 892b a43f 788d 74cd b493 aa3f
00000380: f754 aaac 0468 afbf a3a7 d7dd 22f1 863f
00000390: ea23 a0fe 3ab0 b4bf 2950 7ee6 3e57 b13f
000003a0: ee2a acf2 d753 5b3f 8ad5 ef9f a91d a13f
000003b0: 33b5 92e5 1dca a5bf 1215 a26e 0d31 b33f
000003c0: 2839 19e9 ab21 b1bf c75d 110d 762e b23f
000003d0: 7208 cb8d 597c a93f e7fa 74a0 1941 b2bf
000003e0: 10b8 f3be 1806 a43f 5b42 800a 856e 8abf
000003f0: 6373 9521 b735 78bf d225 6789 1a94 a1bf
00000400: b0ec c56c 91fd c93f b181 6562 211f 9b3f
00000410: 18f6 f58c 4515 b53f 904e ef5b e6a4 b53f
00000420: 17c7 dbdb fe77 7abf 7e8d 775f 716f c83f
00000430: cb7a ede4 dd93 b6bf 7ff6 da15 481d b13f
00000440: 6283 acff ee43 b0bf 93d2 dd8d 77f9 9a3f
00000450: d544 f2a8 84d1 9bbf 8594 9d45 c1c5 463f
00000460: a92b 9255 06e4 b53f a1b6 c544 20ab b3bf
00000470: e396 3864 2720 b2bf b7cf 0c51 6b72 9c3f
00000480: 375f f7af e826 983f 4b2d 9a32 ab70 b43f
00000490: 9a67 4f0b 8641 cb3f 2462 bfb2 5391 9a3f
000004a0: 6dce e1f8 6df5 62bf 1e40 47be 8dc4 a83f
000004b0: 4527 45eb 4eac c43f 9eff fbe7 cd44 bb3f
000004c0: 1dd6 92b4 20d4 a1bf f3cb cd1c c02b ab3f
000004d0: 45ae b6c3 5017 90bf 65bf c16d f905 b73f
000004e0: bc3a c8c7 2213 b5bf f90e c106 3f1f 9d3f
000004f0: a313 81b9 b1c6 7f3f 5dcf 0e78 0643 a23f
00000500: dd69 8e59 edd7 afbf 01ab e4b0 b3b7 b73f
00000510: a483 78ed 20a5 a63f ec09 e7d6 78f6 c33f
00000520: 112e 3034 e27e c63f dabd 6d63 04ca c13f
00000530: fd54 bdae bedf 973f f5c3 a6ec 035e bc3f
00000540: aed2 ad2f c37a b13f a9bf c471 23bc 9c3f
00000550: d6fb dd2e 7c82 913f 5540 a2fe 936e a03f
00000560: 6ad3 834f 6e8e a13f b1bc 5de7 7652 c03f
00000570: 1278 c8dc 7a39 cb3f bd56 d6bc 49db d33f
00000580: a6e4 f80b e3f2 903f 7d5c 6bf0 f6f7 b0bf
00000590: 52ef ae13 f594 90bf 2a3d 021c 7c63 bf3f
000005a0: 0033 7861 0645 b7bf bbb6 2064 8592 b5bf
000005b0: e9e1 fad7 3e3b a9bf b055 3e72 836b 87bf
000005c0: 140a 76f5 367b 7a3f 9926 12b4 f92e a43f
000005d0: 8de0 07e6 4940 84bf 001b 8d54 1a78 4dbf
000005e0: a83c 93b2 c220 763f 0c1e c54a bc79 b93f
000005f0: 74a9 8ba0 6683 c73f 2eec 93b0 7ab8 a53f
00000600: 6001 89e7 5dcd a4bf 9232 1ab8 866a 97bf
00000610: 2077 6019 a6b2 833f acef da5b eb69 a9bf
00000620: 172f 944e 3e2e ae3f df35 be70 772a a0bf
00000630: d13b a8a0 8a2c c1bf 7dd3 5e87 9380 b33f
00000640: c3a4 0408 88dc a4bf 4db8 b964 017b b23f
00000650: 3874 ef44 14eb aabf 2942 f6d6 01a4 cd3f
00000660: 8001 4e81 8679 c33f 0c91 b4ec 4c8f b13f
00000670: fd26 4092 b38d 973f 9844 83a1 560e 7d3f
00000680: e7ed 5407 77bc b6bf 3347 da6c ff80 b23f
00000690: 4730 4b1f b94b a13f 303a fa96 fc27 8abf
000006a0: 7df3 b59e 715e b43f 3de1 350a 4b9d a03f
000006b0: 20c3 326f 2c6a af3f 6b04 71dc e5ae a73f
000006c0: 1b60 6e85 fc59 9fbf 74dc 2123 def0 993f
000006d0: a925 a1b8 ecce b63f 9e4a 95ee 5680 cf3f
000006e0: e143 a89e 635e b3bf 1486 1277 fdd5 c53f
000006f0: 195e d01d 1b89 a93f 5da5 8860 d561 b93f
00000700: a8a8 6148 e78d afbf 2181 7e74 b38e b03f
00000710: 521a e987 85e1 b53f f691 ec6c 550d a83f
00000720: 9cb5 3355 716d c13f 1f8b fbe9 32b9 a5bf
00000730: aa42 cc94 be4e 87bf 3638 ecc2 5c7a 96bf
00000740: bc7e 5540 0df8 ba3f 3cc6 5cf0 ed24 a1bf
00000750: 0a48 a041 9932 ac3f c770 7ec6 ef5a 9abf
00000760: 38a4 6df9 c086 b93f 3508 a211 cfe3 b5bf
00000770: 4bd1 2ff3 a754 92bf cc01 d2fb a097 a5bf
00000780: c5ff cfd8 24fd 9f3f 44c8 da62 b70d 9abf
00000790: 9dff dcd7 52c9 af3f d5d5 e710 4bbe 8bbf
000007a0: 03de b9d1 a068 b13f a1a4 75b1 2a07 acbf
000007b0: cc23 2486 d753 af3f 6e0b 2116 18ea a53f
000007c0: bbd3 9b4c a63e 96bf 369a 8018 15db a3bf
000007d0: 1b98 4363 7ef9 813f 495c 38c1 cc0b b1bf
000007e0: 95f2 09a7 09a5 8c3f f6be 471f f301 81bf
000007f0: 77f9 b23d 20d9 adbf 4180 c82b b926 b03f

linear2.bias f8 [16]
-0.06121611177686567 0.11177098141887343 -0.041226888586731514 -0.00411357411661079 0.06130194391207667 0.13808595657421088 0.052548767194244866 -0.021652977335367866
0.06662108107849656 3.407966623495995e-06 0.03512148191771566 0.07914835795778902 0.0877685395666552 0.0011372316250668525 0.0681712121019295 0.10528444663093262
00000000: 5ccc 23dc b757 afbf 90fc d5e5 059d bc3f
00000010: 2046 64d4 b01b a5bf 45e9 ce24 65d9 70bf
00000020: 7133 91e8 f762 af3f 55f5 c2f5 ccac c13f
00000030: 84bb 1609 ace7 aa3f 21d4 10b6 322c 96bf
00000040: 8bd0 7444 140e b13f 5957 fd76 8d96 cc3e
00000050: 7c81 7260 71fb a13f 54f7 f518 1143 b43f
00000060: 9074 0ebf ff77 b63f 1514 cf28 e5a1 523f
00000070: cca7 8126 ab73 b13f 10ac 0ee7 ebf3 ba3f

linear3.weight f8 [3, 16]
0.11328915079564479 0.8364625641317235 -0.20834722137403558 0.28592204851598035 -0.012047552929157566 0.4681869377575816 -0.12607778842788175 -0.058614566156214194
0.7329255861460952 0.1900027345304678 -0.2057219491904069 0.7519583204608908 -0.21381625560481765 -0.07677094205470156 0.24269324212117035 0.33196446695847304
-0.07716010116877205 -0.20247843215237388 -0.23988760084030894 -0.0938636004013277 -0.2319815870695769 -0.15190804127246815 0.05941138474873764 0.07624767992847703
0.06203434787057304 -0.2174638347257224 -0.1113707674704676 0.20879785544999838 0.15631385338712628 0.0056140546152864375 -0.1005406335883616 0.254810628153018
0.22359424829483032 0.1066851019859314 0.1581191122531891 0.12368190288543701 -0.11478093266487122 0.07181143760681152 0.2324470579624176 -0.22158709168434143
0.15161341428756714 0.05935251712799072 0.24876871705055237 -0.015129625797271729 0.07312354445457458 -0.2034868597984314 -0.11293551325798035 -0.17957234382629395
00000000: 1dae a88d 8400 bd3f 0fc5 a823 4dc4 ea3f
00000010: 47c9 012b 1fab cabf a836 e5fd 8b4c d23f
00000020: 2cd8 9e2e 63ac 88bf 2853 8558 c6f6 dd3f
00000030: 845e 0625 5123 c0bf 319b 6b79 ba02 aebf
00000040: 81c5 dc5b 2074 e73f 30be 7a75 0252 c83f
00000050: 45cc ebc9 1855 cabf 28b5 4ae5 0a10 e83f
00000060: dc82 96c0 545e cbbf 3e76 68ad 42a7 b3bf
00000070: 0371 ef78 9210 cf3f 6253 41e4 e73e d53f
00000080: f96f 13af c3c0 b3bf cab1 1e32 d0ea c9bf
00000090: 8d9a 290c a3b4 cebf 092e 02e6 7107 b8bf
000000a0: 1677 de98 92b1 cdbf ace0 a102 b971 c3bf
000000b0: 8005 0345 2b6b ae3f a04d b0cb f784 b33f
000000c0: 8f64 aa4e f7c2 af3f 54d8 1add dad5 cbbf
000000d0: c11d 046c cb82 bcbf 9bfb 505c e3b9 ca3f
000000e0: 22cf 1aa4 1702 c43f 9da1 874f c3fe 763f
000000f0: ae5e 2eed 07bd b9bf 98c9 a53c d14e d03f
00000100: 0000 0080 bc9e cc3f 0000 0000 b74f bb3f
00000110: 0000 0040 3f3d c43f 0000 0000 9ea9 bf3f
00000120: 0000 0080 4862 bdbf 0000 0000 3c62 b23f
00000130: 0000 0040 d3c0 cd3f 0000 0040 f75c ccbf
00000140: 0000 0080 1168 c33f 0000 0000 7463 ae3f
00000150: 0000 0040 a7d7 cf3f 0000 0000 48fc 8ebf
00000160: 0000 0080 39b8 b23f 0000 0080 db0b cabf
00000170: 0000 0080 57e9 bcbf 0000 0000 3afc c6bf

linear3.bias f8 [3]
0.2089992842542707 0.21894984923050956 -0.19942200183868408
00000000: 4f37 6111 7dc0 ca3f a95f f474 8c06 cc3f
00000010: 0000 0000 a986 c9bf
